Exported graph: graph(%input : Float(1, 3, 32, 128, strides=[12288, 4096, 128, 1], requires_grad=0, device=cpu),
      %encoder.pos_embed : Float(1, 128, 384, strides=[49152, 384, 1], requires_grad=1, device=cpu),
      %encoder.patch_embed.proj.weight : Float(384, 3, 4, 8, strides=[96, 32, 8, 1], requires_grad=1, device=cpu),
      %encoder.patch_embed.proj.bias : Float(384, strides=[1], requires_grad=1, device=cpu),
      %encoder.blocks.0.norm1.weight : Float(384, strides=[1], requires_grad=1, device=cpu),
      %encoder.blocks.0.norm1.bias : Float(384, strides=[1], requires_grad=1, device=cpu),
      %encoder.blocks.0.attn.qkv.bias : Float(1152, strides=[1], requires_grad=1, device=cpu),
      %encoder.blocks.0.attn.proj.bias : Float(384, strides=[1], requires_grad=1, device=cpu),
      %encoder.blocks.0.norm2.weight : Float(384, strides=[1], requires_grad=1, device=cpu),
      %encoder.blocks.0.norm2.bias : Float(384, strides=[1], requires_grad=1, device=cpu),
      %encoder.blocks.0.mlp.fc1.bias : Float(1536, strides=[1], requires_grad=1, device=cpu),
      %encoder.blocks.0.mlp.fc2.bias : Float(384, strides=[1], requires_grad=1, device=cpu),
      %encoder.blocks.1.norm1.weight : Float(384, strides=[1], requires_grad=1, device=cpu),
      %encoder.blocks.1.norm1.bias : Float(384, strides=[1], requires_grad=1, device=cpu),
      %encoder.blocks.1.attn.qkv.bias : Float(1152, strides=[1], requires_grad=1, device=cpu),
      %encoder.blocks.1.attn.proj.bias : Float(384, strides=[1], requires_grad=1, device=cpu),
      %encoder.blocks.1.norm2.weight : Float(384, strides=[1], requires_grad=1, device=cpu),
      %encoder.blocks.1.norm2.bias : Float(384, strides=[1], requires_grad=1, device=cpu),
      %encoder.blocks.1.mlp.fc1.bias : Float(1536, strides=[1], requires_grad=1, device=cpu),
      %encoder.blocks.1.mlp.fc2.bias : Float(384, strides=[1], requires_grad=1, device=cpu),
      %encoder.blocks.2.norm1.weight : Float(384, strides=[1], requires_grad=1, device=cpu),
      %encoder.blocks.2.norm1.bias : Float(384, strides=[1], requires_grad=1, device=cpu),
      %encoder.blocks.2.attn.qkv.bias : Float(1152, strides=[1], requires_grad=1, device=cpu),
      %encoder.blocks.2.attn.proj.bias : Float(384, strides=[1], requires_grad=1, device=cpu),
      %encoder.blocks.2.norm2.weight : Float(384, strides=[1], requires_grad=1, device=cpu),
      %encoder.blocks.2.norm2.bias : Float(384, strides=[1], requires_grad=1, device=cpu),
      %encoder.blocks.2.mlp.fc1.bias : Float(1536, strides=[1], requires_grad=1, device=cpu),
      %encoder.blocks.2.mlp.fc2.bias : Float(384, strides=[1], requires_grad=1, device=cpu),
      %encoder.blocks.3.norm1.weight : Float(384, strides=[1], requires_grad=1, device=cpu),
      %encoder.blocks.3.norm1.bias : Float(384, strides=[1], requires_grad=1, device=cpu),
      %encoder.blocks.3.attn.qkv.bias : Float(1152, strides=[1], requires_grad=1, device=cpu),
      %encoder.blocks.3.attn.proj.bias : Float(384, strides=[1], requires_grad=1, device=cpu),
      %encoder.blocks.3.norm2.weight : Float(384, strides=[1], requires_grad=1, device=cpu),
      %encoder.blocks.3.norm2.bias : Float(384, strides=[1], requires_grad=1, device=cpu),
      %encoder.blocks.3.mlp.fc1.bias : Float(1536, strides=[1], requires_grad=1, device=cpu),
      %encoder.blocks.3.mlp.fc2.bias : Float(384, strides=[1], requires_grad=1, device=cpu),
      %encoder.blocks.4.norm1.weight : Float(384, strides=[1], requires_grad=1, device=cpu),
      %encoder.blocks.4.norm1.bias : Float(384, strides=[1], requires_grad=1, device=cpu),
      %encoder.blocks.4.attn.qkv.bias : Float(1152, strides=[1], requires_grad=1, device=cpu),
      %encoder.blocks.4.attn.proj.bias : Float(384, strides=[1], requires_grad=1, device=cpu),
      %encoder.blocks.4.norm2.weight : Float(384, strides=[1], requires_grad=1, device=cpu),
      %encoder.blocks.4.norm2.bias : Float(384, strides=[1], requires_grad=1, device=cpu),
      %encoder.blocks.4.mlp.fc1.bias : Float(1536, strides=[1], requires_grad=1, device=cpu),
      %encoder.blocks.4.mlp.fc2.bias : Float(384, strides=[1], requires_grad=1, device=cpu),
      %encoder.blocks.5.norm1.weight : Float(384, strides=[1], requires_grad=1, device=cpu),
      %encoder.blocks.5.norm1.bias : Float(384, strides=[1], requires_grad=1, device=cpu),
      %encoder.blocks.5.attn.qkv.bias : Float(1152, strides=[1], requires_grad=1, device=cpu),
      %encoder.blocks.5.attn.proj.bias : Float(384, strides=[1], requires_grad=1, device=cpu),
      %encoder.blocks.5.norm2.weight : Float(384, strides=[1], requires_grad=1, device=cpu),
      %encoder.blocks.5.norm2.bias : Float(384, strides=[1], requires_grad=1, device=cpu),
      %encoder.blocks.5.mlp.fc1.bias : Float(1536, strides=[1], requires_grad=1, device=cpu),
      %encoder.blocks.5.mlp.fc2.bias : Float(384, strides=[1], requires_grad=1, device=cpu),
      %encoder.blocks.6.norm1.weight : Float(384, strides=[1], requires_grad=1, device=cpu),
      %encoder.blocks.6.norm1.bias : Float(384, strides=[1], requires_grad=1, device=cpu),
      %encoder.blocks.6.attn.qkv.bias : Float(1152, strides=[1], requires_grad=1, device=cpu),
      %encoder.blocks.6.attn.proj.bias : Float(384, strides=[1], requires_grad=1, device=cpu),
      %encoder.blocks.6.norm2.weight : Float(384, strides=[1], requires_grad=1, device=cpu),
      %encoder.blocks.6.norm2.bias : Float(384, strides=[1], requires_grad=1, device=cpu),
      %encoder.blocks.6.mlp.fc1.bias : Float(1536, strides=[1], requires_grad=1, device=cpu),
      %encoder.blocks.6.mlp.fc2.bias : Float(384, strides=[1], requires_grad=1, device=cpu),
      %encoder.blocks.7.norm1.weight : Float(384, strides=[1], requires_grad=1, device=cpu),
      %encoder.blocks.7.norm1.bias : Float(384, strides=[1], requires_grad=1, device=cpu),
      %encoder.blocks.7.attn.qkv.bias : Float(1152, strides=[1], requires_grad=1, device=cpu),
      %encoder.blocks.7.attn.proj.bias : Float(384, strides=[1], requires_grad=1, device=cpu),
      %encoder.blocks.7.norm2.weight : Float(384, strides=[1], requires_grad=1, device=cpu),
      %encoder.blocks.7.norm2.bias : Float(384, strides=[1], requires_grad=1, device=cpu),
      %encoder.blocks.7.mlp.fc1.bias : Float(1536, strides=[1], requires_grad=1, device=cpu),
      %encoder.blocks.7.mlp.fc2.bias : Float(384, strides=[1], requires_grad=1, device=cpu),
      %encoder.blocks.8.norm1.weight : Float(384, strides=[1], requires_grad=1, device=cpu),
      %encoder.blocks.8.norm1.bias : Float(384, strides=[1], requires_grad=1, device=cpu),
      %encoder.blocks.8.attn.qkv.bias : Float(1152, strides=[1], requires_grad=1, device=cpu),
      %encoder.blocks.8.attn.proj.bias : Float(384, strides=[1], requires_grad=1, device=cpu),
      %encoder.blocks.8.norm2.weight : Float(384, strides=[1], requires_grad=1, device=cpu),
      %encoder.blocks.8.norm2.bias : Float(384, strides=[1], requires_grad=1, device=cpu),
      %encoder.blocks.8.mlp.fc1.bias : Float(1536, strides=[1], requires_grad=1, device=cpu),
      %encoder.blocks.8.mlp.fc2.bias : Float(384, strides=[1], requires_grad=1, device=cpu),
      %encoder.blocks.9.norm1.weight : Float(384, strides=[1], requires_grad=1, device=cpu),
      %encoder.blocks.9.norm1.bias : Float(384, strides=[1], requires_grad=1, device=cpu),
      %encoder.blocks.9.attn.qkv.bias : Float(1152, strides=[1], requires_grad=1, device=cpu),
      %encoder.blocks.9.attn.proj.bias : Float(384, strides=[1], requires_grad=1, device=cpu),
      %encoder.blocks.9.norm2.weight : Float(384, strides=[1], requires_grad=1, device=cpu),
      %encoder.blocks.9.norm2.bias : Float(384, strides=[1], requires_grad=1, device=cpu),
      %encoder.blocks.9.mlp.fc1.bias : Float(1536, strides=[1], requires_grad=1, device=cpu),
      %encoder.blocks.9.mlp.fc2.bias : Float(384, strides=[1], requires_grad=1, device=cpu),
      %encoder.blocks.10.norm1.weight : Float(384, strides=[1], requires_grad=1, device=cpu),
      %encoder.blocks.10.norm1.bias : Float(384, strides=[1], requires_grad=1, device=cpu),
      %encoder.blocks.10.attn.qkv.bias : Float(1152, strides=[1], requires_grad=1, device=cpu),
      %encoder.blocks.10.attn.proj.bias : Float(384, strides=[1], requires_grad=1, device=cpu),
      %encoder.blocks.10.norm2.weight : Float(384, strides=[1], requires_grad=1, device=cpu),
      %encoder.blocks.10.norm2.bias : Float(384, strides=[1], requires_grad=1, device=cpu),
      %encoder.blocks.10.mlp.fc1.bias : Float(1536, strides=[1], requires_grad=1, device=cpu),
      %encoder.blocks.10.mlp.fc2.bias : Float(384, strides=[1], requires_grad=1, device=cpu),
      %encoder.blocks.11.norm1.weight : Float(384, strides=[1], requires_grad=1, device=cpu),
      %encoder.blocks.11.norm1.bias : Float(384, strides=[1], requires_grad=1, device=cpu),
      %encoder.blocks.11.attn.qkv.bias : Float(1152, strides=[1], requires_grad=1, device=cpu),
      %encoder.blocks.11.attn.proj.bias : Float(384, strides=[1], requires_grad=1, device=cpu),
      %encoder.blocks.11.norm2.weight : Float(384, strides=[1], requires_grad=1, device=cpu),
      %encoder.blocks.11.norm2.bias : Float(384, strides=[1], requires_grad=1, device=cpu),
      %encoder.blocks.11.mlp.fc1.bias : Float(1536, strides=[1], requires_grad=1, device=cpu),
      %encoder.blocks.11.mlp.fc2.bias : Float(384, strides=[1], requires_grad=1, device=cpu),
      %encoder.norm.weight : Float(384, strides=[1], requires_grad=1, device=cpu),
      %encoder.norm.bias : Float(384, strides=[1], requires_grad=1, device=cpu),
      %decoder.layers.0.self_attn.out_proj.weight : Float(384, 384, strides=[384, 1], requires_grad=1, device=cpu),
      %decoder.layers.0.self_attn.out_proj.bias : Float(384, strides=[1], requires_grad=1, device=cpu),
      %decoder.layers.0.cross_attn.out_proj.weight : Float(384, 384, strides=[384, 1], requires_grad=1, device=cpu),
      %decoder.layers.0.cross_attn.out_proj.bias : Float(384, strides=[1], requires_grad=1, device=cpu),
      %decoder.layers.0.linear1.bias : Float(1536, strides=[1], requires_grad=1, device=cpu),
      %decoder.layers.0.linear2.bias : Float(384, strides=[1], requires_grad=1, device=cpu),
      %decoder.layers.0.norm1.weight : Float(384, strides=[1], requires_grad=1, device=cpu),
      %decoder.layers.0.norm1.bias : Float(384, strides=[1], requires_grad=1, device=cpu),
      %decoder.layers.0.norm2.weight : Float(384, strides=[1], requires_grad=1, device=cpu),
      %decoder.layers.0.norm2.bias : Float(384, strides=[1], requires_grad=1, device=cpu),
      %decoder.layers.0.norm_q.weight : Float(384, strides=[1], requires_grad=1, device=cpu),
      %decoder.layers.0.norm_q.bias : Float(384, strides=[1], requires_grad=1, device=cpu),
      %decoder.layers.0.norm_c.weight : Float(384, strides=[1], requires_grad=1, device=cpu),
      %decoder.layers.0.norm_c.bias : Float(384, strides=[1], requires_grad=1, device=cpu),
      %decoder.norm.weight : Float(384, strides=[1], requires_grad=1, device=cpu),
      %decoder.norm.bias : Float(384, strides=[1], requires_grad=1, device=cpu),
      %head.bias : Float(95, strides=[1], requires_grad=1, device=cpu),
      %text_embed.embedding.weight : Float(97, 384, strides=[384, 1], requires_grad=1, device=cpu),
      %onnx::MatMul_10138 : Float(384, 1152, strides=[1, 384], requires_grad=0, device=cpu),
      %onnx::Reshape_10144 : Long(5, strides=[1], requires_grad=0, device=cpu),
      %onnx::Reshape_10148 : Long(3, strides=[1], requires_grad=0, device=cpu),
      %onnx::MatMul_10149 : Float(384, 384, strides=[1, 384], requires_grad=0, device=cpu),
      %onnx::MatMul_10150 : Float(384, 1536, strides=[1, 384], requires_grad=0, device=cpu),
      %onnx::MatMul_10151 : Float(1536, 384, strides=[1, 1536], requires_grad=0, device=cpu),
      %onnx::MatMul_10152 : Float(384, 1152, strides=[1, 384], requires_grad=0, device=cpu),
      %onnx::MatMul_10163 : Float(384, 384, strides=[1, 384], requires_grad=0, device=cpu),
      %onnx::MatMul_10164 : Float(384, 1536, strides=[1, 384], requires_grad=0, device=cpu),
      %onnx::MatMul_10165 : Float(1536, 384, strides=[1, 1536], requires_grad=0, device=cpu),
      %onnx::MatMul_10166 : Float(384, 1152, strides=[1, 384], requires_grad=0, device=cpu),
      %onnx::MatMul_10177 : Float(384, 384, strides=[1, 384], requires_grad=0, device=cpu),
      %onnx::MatMul_10178 : Float(384, 1536, strides=[1, 384], requires_grad=0, device=cpu),
      %onnx::MatMul_10179 : Float(1536, 384, strides=[1, 1536], requires_grad=0, device=cpu),
      %onnx::MatMul_10180 : Float(384, 1152, strides=[1, 384], requires_grad=0, device=cpu),
      %onnx::MatMul_10191 : Float(384, 384, strides=[1, 384], requires_grad=0, device=cpu),
      %onnx::MatMul_10192 : Float(384, 1536, strides=[1, 384], requires_grad=0, device=cpu),
      %onnx::MatMul_10193 : Float(1536, 384, strides=[1, 1536], requires_grad=0, device=cpu),
      %onnx::MatMul_10194 : Float(384, 1152, strides=[1, 384], requires_grad=0, device=cpu),
      %onnx::MatMul_10205 : Float(384, 384, strides=[1, 384], requires_grad=0, device=cpu),
      %onnx::MatMul_10206 : Float(384, 1536, strides=[1, 384], requires_grad=0, device=cpu),
      %onnx::MatMul_10207 : Float(1536, 384, strides=[1, 1536], requires_grad=0, device=cpu),
      %onnx::MatMul_10208 : Float(384, 1152, strides=[1, 384], requires_grad=0, device=cpu),
      %onnx::MatMul_10219 : Float(384, 384, strides=[1, 384], requires_grad=0, device=cpu),
      %onnx::MatMul_10220 : Float(384, 1536, strides=[1, 384], requires_grad=0, device=cpu),
      %onnx::MatMul_10221 : Float(1536, 384, strides=[1, 1536], requires_grad=0, device=cpu),
      %onnx::MatMul_10222 : Float(384, 1152, strides=[1, 384], requires_grad=0, device=cpu),
      %onnx::MatMul_10233 : Float(384, 384, strides=[1, 384], requires_grad=0, device=cpu),
      %onnx::MatMul_10234 : Float(384, 1536, strides=[1, 384], requires_grad=0, device=cpu),
      %onnx::MatMul_10235 : Float(1536, 384, strides=[1, 1536], requires_grad=0, device=cpu),
      %onnx::MatMul_10236 : Float(384, 1152, strides=[1, 384], requires_grad=0, device=cpu),
      %onnx::MatMul_10247 : Float(384, 384, strides=[1, 384], requires_grad=0, device=cpu),
      %onnx::MatMul_10248 : Float(384, 1536, strides=[1, 384], requires_grad=0, device=cpu),
      %onnx::MatMul_10249 : Float(1536, 384, strides=[1, 1536], requires_grad=0, device=cpu),
      %onnx::MatMul_10250 : Float(384, 1152, strides=[1, 384], requires_grad=0, device=cpu),
      %onnx::MatMul_10261 : Float(384, 384, strides=[1, 384], requires_grad=0, device=cpu),
      %onnx::MatMul_10262 : Float(384, 1536, strides=[1, 384], requires_grad=0, device=cpu),
      %onnx::MatMul_10263 : Float(1536, 384, strides=[1, 1536], requires_grad=0, device=cpu),
      %onnx::MatMul_10264 : Float(384, 1152, strides=[1, 384], requires_grad=0, device=cpu),
      %onnx::MatMul_10275 : Float(384, 384, strides=[1, 384], requires_grad=0, device=cpu),
      %onnx::MatMul_10276 : Float(384, 1536, strides=[1, 384], requires_grad=0, device=cpu),
      %onnx::MatMul_10277 : Float(1536, 384, strides=[1, 1536], requires_grad=0, device=cpu),
      %onnx::MatMul_10278 : Float(384, 1152, strides=[1, 384], requires_grad=0, device=cpu),
      %onnx::MatMul_10289 : Float(384, 384, strides=[1, 384], requires_grad=0, device=cpu),
      %onnx::MatMul_10290 : Float(384, 1536, strides=[1, 384], requires_grad=0, device=cpu),
      %onnx::MatMul_10291 : Float(1536, 384, strides=[1, 1536], requires_grad=0, device=cpu),
      %onnx::MatMul_10292 : Float(384, 1152, strides=[1, 384], requires_grad=0, device=cpu),
      %onnx::MatMul_10303 : Float(384, 384, strides=[1, 384], requires_grad=0, device=cpu),
      %onnx::MatMul_10304 : Float(384, 1536, strides=[1, 384], requires_grad=0, device=cpu),
      %onnx::MatMul_10305 : Float(1536, 384, strides=[1, 1536], requires_grad=0, device=cpu),
      %onnx::Expand_10306 : Float(1, 26, 384, strides=[9984, 384, 1], requires_grad=0, device=cpu),
      %onnx::Equal_10311 : Long(3, strides=[1], requires_grad=0, device=cpu),
      %onnx::ConstantOfShape_10312 : Long(1, strides=[1], requires_grad=0, device=cpu),
      %onnx::Add_10313 : Float(1, 0, 384, strides=[9984, 384, 1], requires_grad=0, device=cpu),
      %onnx::Add_10323 : Float(384, strides=[1], requires_grad=0, device=cpu),
      %onnx::Add_10325 : Float(768, strides=[1], requires_grad=0, device=cpu),
      %onnx::MatMul_10326 : Float(384, 384, strides=[1, 384], requires_grad=0, device=cpu),
      %onnx::MatMul_10327 : Float(384, 768, strides=[1, 384], requires_grad=0, device=cpu),
      %onnx::Reshape_10331 : Long(3, strides=[1], requires_grad=0, device=cpu),
      %onnx::Mul_10340 : Float(requires_grad=0, device=cpu),
      %onnx::Add_10342 : Float(1, 1, 1, strides=[1, 1, 1], requires_grad=0, device=cpu),
      %onnx::Reshape_10345 : Long(2, strides=[1], requires_grad=0, device=cpu),
      %onnx::Reshape_10349 : Long(3, strides=[1], requires_grad=0, device=cpu),
      %onnx::Add_10359 : Float(384, strides=[1], requires_grad=0, device=cpu),
      %onnx::Add_10361 : Float(768, strides=[1], requires_grad=0, device=cpu),
      %onnx::MatMul_10362 : Float(384, 384, strides=[1, 384], requires_grad=0, device=cpu),
      %onnx::MatMul_10363 : Float(384, 768, strides=[1, 384], requires_grad=0, device=cpu),
      %onnx::Reshape_10371 : Long(3, strides=[1], requires_grad=0, device=cpu),
      %onnx::MatMul_10383 : Float(384, 1536, strides=[1, 384], requires_grad=0, device=cpu),
      %onnx::MatMul_10384 : Float(1536, 384, strides=[1, 1536], requires_grad=0, device=cpu),
      %onnx::MatMul_10385 : Float(384, 95, strides=[1, 384], requires_grad=0, device=cpu),
      %onnx::Add_10386 : Float(1, 1, 384, strides=[9984, 384, 1], requires_grad=0, device=cpu),
      %onnx::Reshape_10408 : Long(3, strides=[1], requires_grad=0, device=cpu),
      %onnx::Add_10415 : Float(1, 1, 2, strides=[2, 2, 1], requires_grad=0, device=cpu),
      %onnx::Add_10459 : Float(1, 2, 384, strides=[9984, 384, 1], requires_grad=0, device=cpu),
      %onnx::Reshape_10481 : Long(3, strides=[1], requires_grad=0, device=cpu),
      %onnx::Add_10488 : Float(1, 1, 3, strides=[3, 3, 1], requires_grad=0, device=cpu),
      %onnx::Add_10532 : Float(1, 3, 384, strides=[9984, 384, 1], requires_grad=0, device=cpu),
      %onnx::Reshape_10554 : Long(3, strides=[1], requires_grad=0, device=cpu),
      %onnx::Add_10561 : Float(1, 1, 4, strides=[4, 4, 1], requires_grad=0, device=cpu),
      %onnx::Add_10605 : Float(1, 4, 384, strides=[9984, 384, 1], requires_grad=0, device=cpu),
      %onnx::Reshape_10627 : Long(3, strides=[1], requires_grad=0, device=cpu),
      %onnx::Add_10634 : Float(1, 1, 5, strides=[5, 5, 1], requires_grad=0, device=cpu),
      %onnx::Add_10678 : Float(1, 5, 384, strides=[9984, 384, 1], requires_grad=0, device=cpu),
      %onnx::Reshape_10700 : Long(3, strides=[1], requires_grad=0, device=cpu),
      %onnx::Add_10707 : Float(1, 1, 6, strides=[6, 6, 1], requires_grad=0, device=cpu),
      %onnx::Add_10751 : Float(1, 6, 384, strides=[9984, 384, 1], requires_grad=0, device=cpu),
      %onnx::Reshape_10773 : Long(3, strides=[1], requires_grad=0, device=cpu),
      %onnx::Add_10780 : Float(1, 1, 7, strides=[7, 7, 1], requires_grad=0, device=cpu),
      %onnx::Add_10824 : Float(1, 7, 384, strides=[9984, 384, 1], requires_grad=0, device=cpu),
      %onnx::Reshape_10846 : Long(3, strides=[1], requires_grad=0, device=cpu),
      %onnx::Add_10853 : Float(1, 1, 8, strides=[8, 8, 1], requires_grad=0, device=cpu),
      %onnx::Add_10897 : Float(1, 8, 384, strides=[9984, 384, 1], requires_grad=0, device=cpu),
      %onnx::Reshape_10919 : Long(3, strides=[1], requires_grad=0, device=cpu),
      %onnx::Add_10926 : Float(1, 1, 9, strides=[9, 9, 1], requires_grad=0, device=cpu),
      %onnx::Add_10970 : Float(1, 9, 384, strides=[9984, 384, 1], requires_grad=0, device=cpu),
      %onnx::Reshape_10992 : Long(3, strides=[1], requires_grad=0, device=cpu),
      %onnx::Add_10999 : Float(1, 1, 10, strides=[10, 10, 1], requires_grad=0, device=cpu),
      %onnx::Add_11043 : Float(1, 10, 384, strides=[9984, 384, 1], requires_grad=0, device=cpu),
      %onnx::Reshape_11065 : Long(3, strides=[1], requires_grad=0, device=cpu),
      %onnx::Add_11072 : Float(1, 1, 11, strides=[11, 11, 1], requires_grad=0, device=cpu),
      %onnx::Add_11116 : Float(1, 11, 384, strides=[9984, 384, 1], requires_grad=0, device=cpu),
      %onnx::Reshape_11138 : Long(3, strides=[1], requires_grad=0, device=cpu),
      %onnx::Add_11145 : Float(1, 1, 12, strides=[12, 12, 1], requires_grad=0, device=cpu),
      %onnx::Add_11189 : Float(1, 12, 384, strides=[9984, 384, 1], requires_grad=0, device=cpu),
      %onnx::Reshape_11211 : Long(3, strides=[1], requires_grad=0, device=cpu),
      %onnx::Add_11218 : Float(1, 1, 13, strides=[13, 13, 1], requires_grad=0, device=cpu),
      %onnx::Add_11262 : Float(1, 13, 384, strides=[9984, 384, 1], requires_grad=0, device=cpu),
      %onnx::Reshape_11284 : Long(3, strides=[1], requires_grad=0, device=cpu),
      %onnx::Add_11291 : Float(1, 1, 14, strides=[14, 14, 1], requires_grad=0, device=cpu),
      %onnx::Add_11335 : Float(1, 14, 384, strides=[9984, 384, 1], requires_grad=0, device=cpu),
      %onnx::Reshape_11357 : Long(3, strides=[1], requires_grad=0, device=cpu),
      %onnx::Add_11364 : Float(1, 1, 15, strides=[15, 15, 1], requires_grad=0, device=cpu),
      %onnx::Add_11408 : Float(1, 15, 384, strides=[9984, 384, 1], requires_grad=0, device=cpu),
      %onnx::Reshape_11430 : Long(3, strides=[1], requires_grad=0, device=cpu),
      %onnx::Add_11437 : Float(1, 1, 16, strides=[16, 16, 1], requires_grad=0, device=cpu),
      %onnx::Add_11481 : Float(1, 16, 384, strides=[9984, 384, 1], requires_grad=0, device=cpu),
      %onnx::Reshape_11503 : Long(3, strides=[1], requires_grad=0, device=cpu),
      %onnx::Add_11510 : Float(1, 1, 17, strides=[17, 17, 1], requires_grad=0, device=cpu),
      %onnx::Add_11554 : Float(1, 17, 384, strides=[9984, 384, 1], requires_grad=0, device=cpu),
      %onnx::Reshape_11576 : Long(3, strides=[1], requires_grad=0, device=cpu),
      %onnx::Add_11583 : Float(1, 1, 18, strides=[18, 18, 1], requires_grad=0, device=cpu),
      %onnx::Add_11627 : Float(1, 18, 384, strides=[9984, 384, 1], requires_grad=0, device=cpu),
      %onnx::Reshape_11649 : Long(3, strides=[1], requires_grad=0, device=cpu),
      %onnx::Add_11656 : Float(1, 1, 19, strides=[19, 19, 1], requires_grad=0, device=cpu),
      %onnx::Add_11700 : Float(1, 19, 384, strides=[9984, 384, 1], requires_grad=0, device=cpu),
      %onnx::Reshape_11722 : Long(3, strides=[1], requires_grad=0, device=cpu),
      %onnx::Add_11729 : Float(1, 1, 20, strides=[20, 20, 1], requires_grad=0, device=cpu),
      %onnx::Add_11773 : Float(1, 20, 384, strides=[9984, 384, 1], requires_grad=0, device=cpu),
      %onnx::Reshape_11795 : Long(3, strides=[1], requires_grad=0, device=cpu),
      %onnx::Add_11802 : Float(1, 1, 21, strides=[21, 21, 1], requires_grad=0, device=cpu),
      %onnx::Add_11846 : Float(1, 21, 384, strides=[9984, 384, 1], requires_grad=0, device=cpu),
      %onnx::Reshape_11868 : Long(3, strides=[1], requires_grad=0, device=cpu),
      %onnx::Add_11875 : Float(1, 1, 22, strides=[22, 22, 1], requires_grad=0, device=cpu),
      %onnx::Add_11919 : Float(1, 22, 384, strides=[9984, 384, 1], requires_grad=0, device=cpu),
      %onnx::Reshape_11941 : Long(3, strides=[1], requires_grad=0, device=cpu),
      %onnx::Add_11948 : Float(1, 1, 23, strides=[23, 23, 1], requires_grad=0, device=cpu),
      %onnx::Add_11992 : Float(1, 23, 384, strides=[9984, 384, 1], requires_grad=0, device=cpu),
      %onnx::Reshape_12014 : Long(3, strides=[1], requires_grad=0, device=cpu),
      %onnx::Add_12021 : Float(1, 1, 24, strides=[24, 24, 1], requires_grad=0, device=cpu),
      %onnx::Add_12065 : Float(1, 24, 384, strides=[9984, 384, 1], requires_grad=0, device=cpu),
      %onnx::Reshape_12087 : Long(3, strides=[1], requires_grad=0, device=cpu),
      %onnx::Add_12094 : Float(1, 1, 25, strides=[25, 25, 1], requires_grad=0, device=cpu),
      %onnx::Add_12138 : Float(1, 25, 384, strides=[9984, 384, 1], requires_grad=0, device=cpu),
      %onnx::Reshape_12160 : Long(3, strides=[1], requires_grad=0, device=cpu),
      %onnx::Add_12167 : Float(1, 1, 26, strides=[26, 26, 1], requires_grad=0, device=cpu)):
  %onnx::Reshape_12207 : Long(3, strides=[1], requires_grad=0, device=cpu) = onnx::Identity[onnx_name="Identity_0"](%onnx::Reshape_10349)
  %onnx::Reshape_12203 : Long(2, strides=[1], requires_grad=0, device=cpu) = onnx::Identity[onnx_name="Identity_1"](%onnx::Reshape_10345)
  %onnx::Reshape_12200 : Long(3, strides=[1], requires_grad=0, device=cpu) = onnx::Identity[onnx_name="Identity_2"](%onnx::Reshape_10371)
  %onnx::Reshape_12196 : Long(3, strides=[1], requires_grad=0, device=cpu) = onnx::Identity[onnx_name="Identity_3"](%onnx::Reshape_10371)
  %onnx::Reshape_12192 : Long(3, strides=[1], requires_grad=0, device=cpu) = onnx::Identity[onnx_name="Identity_4"](%onnx::Reshape_10331)
  %onnx::Reshape_12174 : Long(3, strides=[1], requires_grad=0, device=cpu) = onnx::Identity[onnx_name="Identity_5"](%onnx::Reshape_10349)
  %onnx::Reshape_12170 : Long(2, strides=[1], requires_grad=0, device=cpu) = onnx::Identity[onnx_name="Identity_6"](%onnx::Reshape_10345)
  %onnx::Mul_12165 : Float(requires_grad=0, device=cpu) = onnx::Identity[onnx_name="Identity_7"](%onnx::Mul_10340)
  %onnx::Reshape_12164 : Long(3, strides=[1], requires_grad=0, device=cpu) = onnx::Identity[onnx_name="Identity_8"](%onnx::Reshape_12160)
  %onnx::Reshape_12156 : Long(3, strides=[1], requires_grad=0, device=cpu) = onnx::Identity[onnx_name="Identity_9"](%onnx::Reshape_10331)
  %onnx::Reshape_12134 : Long(3, strides=[1], requires_grad=0, device=cpu) = onnx::Identity[onnx_name="Identity_10"](%onnx::Reshape_10349)
  %onnx::Reshape_12130 : Long(2, strides=[1], requires_grad=0, device=cpu) = onnx::Identity[onnx_name="Identity_11"](%onnx::Reshape_10345)
  %onnx::Reshape_12127 : Long(3, strides=[1], requires_grad=0, device=cpu) = onnx::Identity[onnx_name="Identity_12"](%onnx::Reshape_10371)
  %onnx::Reshape_12123 : Long(3, strides=[1], requires_grad=0, device=cpu) = onnx::Identity[onnx_name="Identity_13"](%onnx::Reshape_10371)
  %onnx::Reshape_12119 : Long(3, strides=[1], requires_grad=0, device=cpu) = onnx::Identity[onnx_name="Identity_14"](%onnx::Reshape_10331)
  %onnx::Reshape_12101 : Long(3, strides=[1], requires_grad=0, device=cpu) = onnx::Identity[onnx_name="Identity_15"](%onnx::Reshape_10349)
  %onnx::Reshape_12097 : Long(2, strides=[1], requires_grad=0, device=cpu) = onnx::Identity[onnx_name="Identity_16"](%onnx::Reshape_10345)
  %onnx::Mul_12092 : Float(requires_grad=0, device=cpu) = onnx::Identity[onnx_name="Identity_17"](%onnx::Mul_10340)
  %onnx::Reshape_12091 : Long(3, strides=[1], requires_grad=0, device=cpu) = onnx::Identity[onnx_name="Identity_18"](%onnx::Reshape_12087)
  %onnx::Reshape_12083 : Long(3, strides=[1], requires_grad=0, device=cpu) = onnx::Identity[onnx_name="Identity_19"](%onnx::Reshape_10331)
  %onnx::Reshape_12061 : Long(3, strides=[1], requires_grad=0, device=cpu) = onnx::Identity[onnx_name="Identity_20"](%onnx::Reshape_10349)
  %onnx::Reshape_12057 : Long(2, strides=[1], requires_grad=0, device=cpu) = onnx::Identity[onnx_name="Identity_21"](%onnx::Reshape_10345)
  %onnx::Reshape_12054 : Long(3, strides=[1], requires_grad=0, device=cpu) = onnx::Identity[onnx_name="Identity_22"](%onnx::Reshape_10371)
  %onnx::Reshape_12050 : Long(3, strides=[1], requires_grad=0, device=cpu) = onnx::Identity[onnx_name="Identity_23"](%onnx::Reshape_10371)
  %onnx::Reshape_12046 : Long(3, strides=[1], requires_grad=0, device=cpu) = onnx::Identity[onnx_name="Identity_24"](%onnx::Reshape_10331)
  %onnx::Reshape_12028 : Long(3, strides=[1], requires_grad=0, device=cpu) = onnx::Identity[onnx_name="Identity_25"](%onnx::Reshape_10349)
  %onnx::Reshape_12024 : Long(2, strides=[1], requires_grad=0, device=cpu) = onnx::Identity[onnx_name="Identity_26"](%onnx::Reshape_10345)
  %onnx::Mul_12019 : Float(requires_grad=0, device=cpu) = onnx::Identity[onnx_name="Identity_27"](%onnx::Mul_10340)
  %onnx::Reshape_12018 : Long(3, strides=[1], requires_grad=0, device=cpu) = onnx::Identity[onnx_name="Identity_28"](%onnx::Reshape_12014)
  %onnx::Reshape_12010 : Long(3, strides=[1], requires_grad=0, device=cpu) = onnx::Identity[onnx_name="Identity_29"](%onnx::Reshape_10331)
  %onnx::Reshape_11988 : Long(3, strides=[1], requires_grad=0, device=cpu) = onnx::Identity[onnx_name="Identity_30"](%onnx::Reshape_10349)
  %onnx::Reshape_11984 : Long(2, strides=[1], requires_grad=0, device=cpu) = onnx::Identity[onnx_name="Identity_31"](%onnx::Reshape_10345)
  %onnx::Reshape_11981 : Long(3, strides=[1], requires_grad=0, device=cpu) = onnx::Identity[onnx_name="Identity_32"](%onnx::Reshape_10371)
  %onnx::Reshape_11977 : Long(3, strides=[1], requires_grad=0, device=cpu) = onnx::Identity[onnx_name="Identity_33"](%onnx::Reshape_10371)
  %onnx::Reshape_11973 : Long(3, strides=[1], requires_grad=0, device=cpu) = onnx::Identity[onnx_name="Identity_34"](%onnx::Reshape_10331)
  %onnx::Reshape_11955 : Long(3, strides=[1], requires_grad=0, device=cpu) = onnx::Identity[onnx_name="Identity_35"](%onnx::Reshape_10349)
  %onnx::Reshape_11951 : Long(2, strides=[1], requires_grad=0, device=cpu) = onnx::Identity[onnx_name="Identity_36"](%onnx::Reshape_10345)
  %onnx::Mul_11946 : Float(requires_grad=0, device=cpu) = onnx::Identity[onnx_name="Identity_37"](%onnx::Mul_10340)
  %onnx::Reshape_11945 : Long(3, strides=[1], requires_grad=0, device=cpu) = onnx::Identity[onnx_name="Identity_38"](%onnx::Reshape_11941)
  %onnx::Reshape_11937 : Long(3, strides=[1], requires_grad=0, device=cpu) = onnx::Identity[onnx_name="Identity_39"](%onnx::Reshape_10331)
  %onnx::Reshape_11915 : Long(3, strides=[1], requires_grad=0, device=cpu) = onnx::Identity[onnx_name="Identity_40"](%onnx::Reshape_10349)
  %onnx::Reshape_11911 : Long(2, strides=[1], requires_grad=0, device=cpu) = onnx::Identity[onnx_name="Identity_41"](%onnx::Reshape_10345)
  %onnx::Reshape_11908 : Long(3, strides=[1], requires_grad=0, device=cpu) = onnx::Identity[onnx_name="Identity_42"](%onnx::Reshape_10371)
  %onnx::Reshape_11904 : Long(3, strides=[1], requires_grad=0, device=cpu) = onnx::Identity[onnx_name="Identity_43"](%onnx::Reshape_10371)
  %onnx::Reshape_11900 : Long(3, strides=[1], requires_grad=0, device=cpu) = onnx::Identity[onnx_name="Identity_44"](%onnx::Reshape_10331)
  %onnx::Reshape_11882 : Long(3, strides=[1], requires_grad=0, device=cpu) = onnx::Identity[onnx_name="Identity_45"](%onnx::Reshape_10349)
  %onnx::Reshape_11878 : Long(2, strides=[1], requires_grad=0, device=cpu) = onnx::Identity[onnx_name="Identity_46"](%onnx::Reshape_10345)
  %onnx::Mul_11873 : Float(requires_grad=0, device=cpu) = onnx::Identity[onnx_name="Identity_47"](%onnx::Mul_10340)
  %onnx::Reshape_11872 : Long(3, strides=[1], requires_grad=0, device=cpu) = onnx::Identity[onnx_name="Identity_48"](%onnx::Reshape_11868)
  %onnx::Reshape_11864 : Long(3, strides=[1], requires_grad=0, device=cpu) = onnx::Identity[onnx_name="Identity_49"](%onnx::Reshape_10331)
  %onnx::Reshape_11842 : Long(3, strides=[1], requires_grad=0, device=cpu) = onnx::Identity[onnx_name="Identity_50"](%onnx::Reshape_10349)
  %onnx::Reshape_11838 : Long(2, strides=[1], requires_grad=0, device=cpu) = onnx::Identity[onnx_name="Identity_51"](%onnx::Reshape_10345)
  %onnx::Reshape_11835 : Long(3, strides=[1], requires_grad=0, device=cpu) = onnx::Identity[onnx_name="Identity_52"](%onnx::Reshape_10371)
  %onnx::Reshape_11831 : Long(3, strides=[1], requires_grad=0, device=cpu) = onnx::Identity[onnx_name="Identity_53"](%onnx::Reshape_10371)
  %onnx::Reshape_11827 : Long(3, strides=[1], requires_grad=0, device=cpu) = onnx::Identity[onnx_name="Identity_54"](%onnx::Reshape_10331)
  %onnx::Reshape_11809 : Long(3, strides=[1], requires_grad=0, device=cpu) = onnx::Identity[onnx_name="Identity_55"](%onnx::Reshape_10349)
  %onnx::Reshape_11805 : Long(2, strides=[1], requires_grad=0, device=cpu) = onnx::Identity[onnx_name="Identity_56"](%onnx::Reshape_10345)
  %onnx::Mul_11800 : Float(requires_grad=0, device=cpu) = onnx::Identity[onnx_name="Identity_57"](%onnx::Mul_10340)
  %onnx::Reshape_11799 : Long(3, strides=[1], requires_grad=0, device=cpu) = onnx::Identity[onnx_name="Identity_58"](%onnx::Reshape_11795)
  %onnx::Reshape_11791 : Long(3, strides=[1], requires_grad=0, device=cpu) = onnx::Identity[onnx_name="Identity_59"](%onnx::Reshape_10331)
  %onnx::Reshape_11769 : Long(3, strides=[1], requires_grad=0, device=cpu) = onnx::Identity[onnx_name="Identity_60"](%onnx::Reshape_10349)
  %onnx::Reshape_11765 : Long(2, strides=[1], requires_grad=0, device=cpu) = onnx::Identity[onnx_name="Identity_61"](%onnx::Reshape_10345)
  %onnx::Reshape_11762 : Long(3, strides=[1], requires_grad=0, device=cpu) = onnx::Identity[onnx_name="Identity_62"](%onnx::Reshape_10371)
  %onnx::Reshape_11758 : Long(3, strides=[1], requires_grad=0, device=cpu) = onnx::Identity[onnx_name="Identity_63"](%onnx::Reshape_10371)
  %onnx::Reshape_11754 : Long(3, strides=[1], requires_grad=0, device=cpu) = onnx::Identity[onnx_name="Identity_64"](%onnx::Reshape_10331)
  %onnx::Reshape_11736 : Long(3, strides=[1], requires_grad=0, device=cpu) = onnx::Identity[onnx_name="Identity_65"](%onnx::Reshape_10349)
  %onnx::Reshape_11732 : Long(2, strides=[1], requires_grad=0, device=cpu) = onnx::Identity[onnx_name="Identity_66"](%onnx::Reshape_10345)
  %onnx::Mul_11727 : Float(requires_grad=0, device=cpu) = onnx::Identity[onnx_name="Identity_67"](%onnx::Mul_10340)
  %onnx::Reshape_11726 : Long(3, strides=[1], requires_grad=0, device=cpu) = onnx::Identity[onnx_name="Identity_68"](%onnx::Reshape_11722)
  %onnx::Reshape_11718 : Long(3, strides=[1], requires_grad=0, device=cpu) = onnx::Identity[onnx_name="Identity_69"](%onnx::Reshape_10331)
  %onnx::Reshape_11696 : Long(3, strides=[1], requires_grad=0, device=cpu) = onnx::Identity[onnx_name="Identity_70"](%onnx::Reshape_10349)
  %onnx::Reshape_11692 : Long(2, strides=[1], requires_grad=0, device=cpu) = onnx::Identity[onnx_name="Identity_71"](%onnx::Reshape_10345)
  %onnx::Reshape_11689 : Long(3, strides=[1], requires_grad=0, device=cpu) = onnx::Identity[onnx_name="Identity_72"](%onnx::Reshape_10371)
  %onnx::Reshape_11685 : Long(3, strides=[1], requires_grad=0, device=cpu) = onnx::Identity[onnx_name="Identity_73"](%onnx::Reshape_10371)
  %onnx::Reshape_11681 : Long(3, strides=[1], requires_grad=0, device=cpu) = onnx::Identity[onnx_name="Identity_74"](%onnx::Reshape_10331)
  %onnx::Reshape_11663 : Long(3, strides=[1], requires_grad=0, device=cpu) = onnx::Identity[onnx_name="Identity_75"](%onnx::Reshape_10349)
  %onnx::Reshape_11659 : Long(2, strides=[1], requires_grad=0, device=cpu) = onnx::Identity[onnx_name="Identity_76"](%onnx::Reshape_10345)
  %onnx::Mul_11654 : Float(requires_grad=0, device=cpu) = onnx::Identity[onnx_name="Identity_77"](%onnx::Mul_10340)
  %onnx::Reshape_11653 : Long(3, strides=[1], requires_grad=0, device=cpu) = onnx::Identity[onnx_name="Identity_78"](%onnx::Reshape_11649)
  %onnx::Reshape_11645 : Long(3, strides=[1], requires_grad=0, device=cpu) = onnx::Identity[onnx_name="Identity_79"](%onnx::Reshape_10331)
  %onnx::Reshape_11623 : Long(3, strides=[1], requires_grad=0, device=cpu) = onnx::Identity[onnx_name="Identity_80"](%onnx::Reshape_10349)
  %onnx::Reshape_11619 : Long(2, strides=[1], requires_grad=0, device=cpu) = onnx::Identity[onnx_name="Identity_81"](%onnx::Reshape_10345)
  %onnx::Reshape_11616 : Long(3, strides=[1], requires_grad=0, device=cpu) = onnx::Identity[onnx_name="Identity_82"](%onnx::Reshape_10371)
  %onnx::Reshape_11612 : Long(3, strides=[1], requires_grad=0, device=cpu) = onnx::Identity[onnx_name="Identity_83"](%onnx::Reshape_10371)
  %onnx::Reshape_11608 : Long(3, strides=[1], requires_grad=0, device=cpu) = onnx::Identity[onnx_name="Identity_84"](%onnx::Reshape_10331)
  %onnx::Reshape_11590 : Long(3, strides=[1], requires_grad=0, device=cpu) = onnx::Identity[onnx_name="Identity_85"](%onnx::Reshape_10349)
  %onnx::Reshape_11586 : Long(2, strides=[1], requires_grad=0, device=cpu) = onnx::Identity[onnx_name="Identity_86"](%onnx::Reshape_10345)
  %onnx::Mul_11581 : Float(requires_grad=0, device=cpu) = onnx::Identity[onnx_name="Identity_87"](%onnx::Mul_10340)
  %onnx::Reshape_11580 : Long(3, strides=[1], requires_grad=0, device=cpu) = onnx::Identity[onnx_name="Identity_88"](%onnx::Reshape_11576)
  %onnx::Reshape_11572 : Long(3, strides=[1], requires_grad=0, device=cpu) = onnx::Identity[onnx_name="Identity_89"](%onnx::Reshape_10331)
  %onnx::Reshape_11550 : Long(3, strides=[1], requires_grad=0, device=cpu) = onnx::Identity[onnx_name="Identity_90"](%onnx::Reshape_10349)
  %onnx::Reshape_11546 : Long(2, strides=[1], requires_grad=0, device=cpu) = onnx::Identity[onnx_name="Identity_91"](%onnx::Reshape_10345)
  %onnx::Reshape_11543 : Long(3, strides=[1], requires_grad=0, device=cpu) = onnx::Identity[onnx_name="Identity_92"](%onnx::Reshape_10371)
  %onnx::Reshape_11539 : Long(3, strides=[1], requires_grad=0, device=cpu) = onnx::Identity[onnx_name="Identity_93"](%onnx::Reshape_10371)
  %onnx::Reshape_11535 : Long(3, strides=[1], requires_grad=0, device=cpu) = onnx::Identity[onnx_name="Identity_94"](%onnx::Reshape_10331)
  %onnx::Reshape_11517 : Long(3, strides=[1], requires_grad=0, device=cpu) = onnx::Identity[onnx_name="Identity_95"](%onnx::Reshape_10349)
  %onnx::Reshape_11513 : Long(2, strides=[1], requires_grad=0, device=cpu) = onnx::Identity[onnx_name="Identity_96"](%onnx::Reshape_10345)
  %onnx::Mul_11508 : Float(requires_grad=0, device=cpu) = onnx::Identity[onnx_name="Identity_97"](%onnx::Mul_10340)
  %onnx::Reshape_11507 : Long(3, strides=[1], requires_grad=0, device=cpu) = onnx::Identity[onnx_name="Identity_98"](%onnx::Reshape_11503)
  %onnx::Reshape_11499 : Long(3, strides=[1], requires_grad=0, device=cpu) = onnx::Identity[onnx_name="Identity_99"](%onnx::Reshape_10331)
  %onnx::Reshape_11477 : Long(3, strides=[1], requires_grad=0, device=cpu) = onnx::Identity[onnx_name="Identity_100"](%onnx::Reshape_10349)
  %onnx::Reshape_11473 : Long(2, strides=[1], requires_grad=0, device=cpu) = onnx::Identity[onnx_name="Identity_101"](%onnx::Reshape_10345)
  %onnx::Reshape_11470 : Long(3, strides=[1], requires_grad=0, device=cpu) = onnx::Identity[onnx_name="Identity_102"](%onnx::Reshape_10371)
  %onnx::Reshape_11466 : Long(3, strides=[1], requires_grad=0, device=cpu) = onnx::Identity[onnx_name="Identity_103"](%onnx::Reshape_10371)
  %onnx::Reshape_11462 : Long(3, strides=[1], requires_grad=0, device=cpu) = onnx::Identity[onnx_name="Identity_104"](%onnx::Reshape_10331)
  %onnx::Reshape_11444 : Long(3, strides=[1], requires_grad=0, device=cpu) = onnx::Identity[onnx_name="Identity_105"](%onnx::Reshape_10349)
  %onnx::Reshape_11440 : Long(2, strides=[1], requires_grad=0, device=cpu) = onnx::Identity[onnx_name="Identity_106"](%onnx::Reshape_10345)
  %onnx::Mul_11435 : Float(requires_grad=0, device=cpu) = onnx::Identity[onnx_name="Identity_107"](%onnx::Mul_10340)
  %onnx::Reshape_11434 : Long(3, strides=[1], requires_grad=0, device=cpu) = onnx::Identity[onnx_name="Identity_108"](%onnx::Reshape_11430)
  %onnx::Reshape_11426 : Long(3, strides=[1], requires_grad=0, device=cpu) = onnx::Identity[onnx_name="Identity_109"](%onnx::Reshape_10331)
  %onnx::Reshape_11404 : Long(3, strides=[1], requires_grad=0, device=cpu) = onnx::Identity[onnx_name="Identity_110"](%onnx::Reshape_10349)
  %onnx::Reshape_11400 : Long(2, strides=[1], requires_grad=0, device=cpu) = onnx::Identity[onnx_name="Identity_111"](%onnx::Reshape_10345)
  %onnx::Reshape_11397 : Long(3, strides=[1], requires_grad=0, device=cpu) = onnx::Identity[onnx_name="Identity_112"](%onnx::Reshape_10371)
  %onnx::Reshape_11393 : Long(3, strides=[1], requires_grad=0, device=cpu) = onnx::Identity[onnx_name="Identity_113"](%onnx::Reshape_10371)
  %onnx::Reshape_11389 : Long(3, strides=[1], requires_grad=0, device=cpu) = onnx::Identity[onnx_name="Identity_114"](%onnx::Reshape_10331)
  %onnx::Reshape_11371 : Long(3, strides=[1], requires_grad=0, device=cpu) = onnx::Identity[onnx_name="Identity_115"](%onnx::Reshape_10349)
  %onnx::Reshape_11367 : Long(2, strides=[1], requires_grad=0, device=cpu) = onnx::Identity[onnx_name="Identity_116"](%onnx::Reshape_10345)
  %onnx::Mul_11362 : Float(requires_grad=0, device=cpu) = onnx::Identity[onnx_name="Identity_117"](%onnx::Mul_10340)
  %onnx::Reshape_11361 : Long(3, strides=[1], requires_grad=0, device=cpu) = onnx::Identity[onnx_name="Identity_118"](%onnx::Reshape_11357)
  %onnx::Reshape_11353 : Long(3, strides=[1], requires_grad=0, device=cpu) = onnx::Identity[onnx_name="Identity_119"](%onnx::Reshape_10331)
  %onnx::Reshape_11331 : Long(3, strides=[1], requires_grad=0, device=cpu) = onnx::Identity[onnx_name="Identity_120"](%onnx::Reshape_10349)
  %onnx::Reshape_11327 : Long(2, strides=[1], requires_grad=0, device=cpu) = onnx::Identity[onnx_name="Identity_121"](%onnx::Reshape_10345)
  %onnx::Reshape_11324 : Long(3, strides=[1], requires_grad=0, device=cpu) = onnx::Identity[onnx_name="Identity_122"](%onnx::Reshape_10371)
  %onnx::Reshape_11320 : Long(3, strides=[1], requires_grad=0, device=cpu) = onnx::Identity[onnx_name="Identity_123"](%onnx::Reshape_10371)
  %onnx::Reshape_11316 : Long(3, strides=[1], requires_grad=0, device=cpu) = onnx::Identity[onnx_name="Identity_124"](%onnx::Reshape_10331)
  %onnx::Reshape_11298 : Long(3, strides=[1], requires_grad=0, device=cpu) = onnx::Identity[onnx_name="Identity_125"](%onnx::Reshape_10349)
  %onnx::Reshape_11294 : Long(2, strides=[1], requires_grad=0, device=cpu) = onnx::Identity[onnx_name="Identity_126"](%onnx::Reshape_10345)
  %onnx::Mul_11289 : Float(requires_grad=0, device=cpu) = onnx::Identity[onnx_name="Identity_127"](%onnx::Mul_10340)
  %onnx::Reshape_11288 : Long(3, strides=[1], requires_grad=0, device=cpu) = onnx::Identity[onnx_name="Identity_128"](%onnx::Reshape_11284)
  %onnx::Reshape_11280 : Long(3, strides=[1], requires_grad=0, device=cpu) = onnx::Identity[onnx_name="Identity_129"](%onnx::Reshape_10331)
  %onnx::Reshape_11258 : Long(3, strides=[1], requires_grad=0, device=cpu) = onnx::Identity[onnx_name="Identity_130"](%onnx::Reshape_10349)
  %onnx::Reshape_11254 : Long(2, strides=[1], requires_grad=0, device=cpu) = onnx::Identity[onnx_name="Identity_131"](%onnx::Reshape_10345)
  %onnx::Reshape_11251 : Long(3, strides=[1], requires_grad=0, device=cpu) = onnx::Identity[onnx_name="Identity_132"](%onnx::Reshape_10371)
  %onnx::Reshape_11247 : Long(3, strides=[1], requires_grad=0, device=cpu) = onnx::Identity[onnx_name="Identity_133"](%onnx::Reshape_10371)
  %onnx::Reshape_11243 : Long(3, strides=[1], requires_grad=0, device=cpu) = onnx::Identity[onnx_name="Identity_134"](%onnx::Reshape_10331)
  %onnx::Reshape_11225 : Long(3, strides=[1], requires_grad=0, device=cpu) = onnx::Identity[onnx_name="Identity_135"](%onnx::Reshape_10349)
  %onnx::Reshape_11221 : Long(2, strides=[1], requires_grad=0, device=cpu) = onnx::Identity[onnx_name="Identity_136"](%onnx::Reshape_10345)
  %onnx::Mul_11216 : Float(requires_grad=0, device=cpu) = onnx::Identity[onnx_name="Identity_137"](%onnx::Mul_10340)
  %onnx::Reshape_11215 : Long(3, strides=[1], requires_grad=0, device=cpu) = onnx::Identity[onnx_name="Identity_138"](%onnx::Reshape_11211)
  %onnx::Reshape_11207 : Long(3, strides=[1], requires_grad=0, device=cpu) = onnx::Identity[onnx_name="Identity_139"](%onnx::Reshape_10331)
  %onnx::Reshape_11185 : Long(3, strides=[1], requires_grad=0, device=cpu) = onnx::Identity[onnx_name="Identity_140"](%onnx::Reshape_10349)
  %onnx::Reshape_11181 : Long(2, strides=[1], requires_grad=0, device=cpu) = onnx::Identity[onnx_name="Identity_141"](%onnx::Reshape_10345)
  %onnx::Reshape_11178 : Long(3, strides=[1], requires_grad=0, device=cpu) = onnx::Identity[onnx_name="Identity_142"](%onnx::Reshape_10371)
  %onnx::Reshape_11174 : Long(3, strides=[1], requires_grad=0, device=cpu) = onnx::Identity[onnx_name="Identity_143"](%onnx::Reshape_10371)
  %onnx::Reshape_11170 : Long(3, strides=[1], requires_grad=0, device=cpu) = onnx::Identity[onnx_name="Identity_144"](%onnx::Reshape_10331)
  %onnx::Reshape_11152 : Long(3, strides=[1], requires_grad=0, device=cpu) = onnx::Identity[onnx_name="Identity_145"](%onnx::Reshape_10349)
  %onnx::Reshape_11148 : Long(2, strides=[1], requires_grad=0, device=cpu) = onnx::Identity[onnx_name="Identity_146"](%onnx::Reshape_10345)
  %onnx::Mul_11143 : Float(requires_grad=0, device=cpu) = onnx::Identity[onnx_name="Identity_147"](%onnx::Mul_10340)
  %onnx::Reshape_11142 : Long(3, strides=[1], requires_grad=0, device=cpu) = onnx::Identity[onnx_name="Identity_148"](%onnx::Reshape_11138)
  %onnx::Reshape_11134 : Long(3, strides=[1], requires_grad=0, device=cpu) = onnx::Identity[onnx_name="Identity_149"](%onnx::Reshape_10331)
  %onnx::Reshape_11112 : Long(3, strides=[1], requires_grad=0, device=cpu) = onnx::Identity[onnx_name="Identity_150"](%onnx::Reshape_10349)
  %onnx::Reshape_11108 : Long(2, strides=[1], requires_grad=0, device=cpu) = onnx::Identity[onnx_name="Identity_151"](%onnx::Reshape_10345)
  %onnx::Reshape_11105 : Long(3, strides=[1], requires_grad=0, device=cpu) = onnx::Identity[onnx_name="Identity_152"](%onnx::Reshape_10371)
  %onnx::Reshape_11101 : Long(3, strides=[1], requires_grad=0, device=cpu) = onnx::Identity[onnx_name="Identity_153"](%onnx::Reshape_10371)
  %onnx::Reshape_11097 : Long(3, strides=[1], requires_grad=0, device=cpu) = onnx::Identity[onnx_name="Identity_154"](%onnx::Reshape_10331)
  %onnx::Reshape_11079 : Long(3, strides=[1], requires_grad=0, device=cpu) = onnx::Identity[onnx_name="Identity_155"](%onnx::Reshape_10349)
  %onnx::Reshape_11075 : Long(2, strides=[1], requires_grad=0, device=cpu) = onnx::Identity[onnx_name="Identity_156"](%onnx::Reshape_10345)
  %onnx::Mul_11070 : Float(requires_grad=0, device=cpu) = onnx::Identity[onnx_name="Identity_157"](%onnx::Mul_10340)
  %onnx::Reshape_11069 : Long(3, strides=[1], requires_grad=0, device=cpu) = onnx::Identity[onnx_name="Identity_158"](%onnx::Reshape_11065)
  %onnx::Reshape_11061 : Long(3, strides=[1], requires_grad=0, device=cpu) = onnx::Identity[onnx_name="Identity_159"](%onnx::Reshape_10331)
  %onnx::Reshape_11039 : Long(3, strides=[1], requires_grad=0, device=cpu) = onnx::Identity[onnx_name="Identity_160"](%onnx::Reshape_10349)
  %onnx::Reshape_11035 : Long(2, strides=[1], requires_grad=0, device=cpu) = onnx::Identity[onnx_name="Identity_161"](%onnx::Reshape_10345)
  %onnx::Reshape_11032 : Long(3, strides=[1], requires_grad=0, device=cpu) = onnx::Identity[onnx_name="Identity_162"](%onnx::Reshape_10371)
  %onnx::Reshape_11028 : Long(3, strides=[1], requires_grad=0, device=cpu) = onnx::Identity[onnx_name="Identity_163"](%onnx::Reshape_10371)
  %onnx::Reshape_11024 : Long(3, strides=[1], requires_grad=0, device=cpu) = onnx::Identity[onnx_name="Identity_164"](%onnx::Reshape_10331)
  %onnx::Reshape_11006 : Long(3, strides=[1], requires_grad=0, device=cpu) = onnx::Identity[onnx_name="Identity_165"](%onnx::Reshape_10349)
  %onnx::Reshape_11002 : Long(2, strides=[1], requires_grad=0, device=cpu) = onnx::Identity[onnx_name="Identity_166"](%onnx::Reshape_10345)
  %onnx::Mul_10997 : Float(requires_grad=0, device=cpu) = onnx::Identity[onnx_name="Identity_167"](%onnx::Mul_10340)
  %onnx::Reshape_10996 : Long(3, strides=[1], requires_grad=0, device=cpu) = onnx::Identity[onnx_name="Identity_168"](%onnx::Reshape_10992)
  %onnx::Reshape_10988 : Long(3, strides=[1], requires_grad=0, device=cpu) = onnx::Identity[onnx_name="Identity_169"](%onnx::Reshape_10331)
  %onnx::Reshape_10966 : Long(3, strides=[1], requires_grad=0, device=cpu) = onnx::Identity[onnx_name="Identity_170"](%onnx::Reshape_10349)
  %onnx::Reshape_10962 : Long(2, strides=[1], requires_grad=0, device=cpu) = onnx::Identity[onnx_name="Identity_171"](%onnx::Reshape_10345)
  %onnx::Reshape_10959 : Long(3, strides=[1], requires_grad=0, device=cpu) = onnx::Identity[onnx_name="Identity_172"](%onnx::Reshape_10371)
  %onnx::Reshape_10955 : Long(3, strides=[1], requires_grad=0, device=cpu) = onnx::Identity[onnx_name="Identity_173"](%onnx::Reshape_10371)
  %onnx::Reshape_10951 : Long(3, strides=[1], requires_grad=0, device=cpu) = onnx::Identity[onnx_name="Identity_174"](%onnx::Reshape_10331)
  %onnx::Reshape_10933 : Long(3, strides=[1], requires_grad=0, device=cpu) = onnx::Identity[onnx_name="Identity_175"](%onnx::Reshape_10349)
  %onnx::Reshape_10929 : Long(2, strides=[1], requires_grad=0, device=cpu) = onnx::Identity[onnx_name="Identity_176"](%onnx::Reshape_10345)
  %onnx::Mul_10924 : Float(requires_grad=0, device=cpu) = onnx::Identity[onnx_name="Identity_177"](%onnx::Mul_10340)
  %onnx::Reshape_10923 : Long(3, strides=[1], requires_grad=0, device=cpu) = onnx::Identity[onnx_name="Identity_178"](%onnx::Reshape_10919)
  %onnx::Reshape_10915 : Long(3, strides=[1], requires_grad=0, device=cpu) = onnx::Identity[onnx_name="Identity_179"](%onnx::Reshape_10331)
  %onnx::Reshape_10893 : Long(3, strides=[1], requires_grad=0, device=cpu) = onnx::Identity[onnx_name="Identity_180"](%onnx::Reshape_10349)
  %onnx::Reshape_10889 : Long(2, strides=[1], requires_grad=0, device=cpu) = onnx::Identity[onnx_name="Identity_181"](%onnx::Reshape_10345)
  %onnx::Reshape_10886 : Long(3, strides=[1], requires_grad=0, device=cpu) = onnx::Identity[onnx_name="Identity_182"](%onnx::Reshape_10371)
  %onnx::Reshape_10882 : Long(3, strides=[1], requires_grad=0, device=cpu) = onnx::Identity[onnx_name="Identity_183"](%onnx::Reshape_10371)
  %onnx::Reshape_10878 : Long(3, strides=[1], requires_grad=0, device=cpu) = onnx::Identity[onnx_name="Identity_184"](%onnx::Reshape_10331)
  %onnx::Reshape_10860 : Long(3, strides=[1], requires_grad=0, device=cpu) = onnx::Identity[onnx_name="Identity_185"](%onnx::Reshape_10349)
  %onnx::Reshape_10856 : Long(2, strides=[1], requires_grad=0, device=cpu) = onnx::Identity[onnx_name="Identity_186"](%onnx::Reshape_10345)
  %onnx::Mul_10851 : Float(requires_grad=0, device=cpu) = onnx::Identity[onnx_name="Identity_187"](%onnx::Mul_10340)
  %onnx::Reshape_10850 : Long(3, strides=[1], requires_grad=0, device=cpu) = onnx::Identity[onnx_name="Identity_188"](%onnx::Reshape_10846)
  %onnx::Reshape_10842 : Long(3, strides=[1], requires_grad=0, device=cpu) = onnx::Identity[onnx_name="Identity_189"](%onnx::Reshape_10331)
  %onnx::Reshape_10820 : Long(3, strides=[1], requires_grad=0, device=cpu) = onnx::Identity[onnx_name="Identity_190"](%onnx::Reshape_10349)
  %onnx::Reshape_10816 : Long(2, strides=[1], requires_grad=0, device=cpu) = onnx::Identity[onnx_name="Identity_191"](%onnx::Reshape_10345)
  %onnx::Reshape_10813 : Long(3, strides=[1], requires_grad=0, device=cpu) = onnx::Identity[onnx_name="Identity_192"](%onnx::Reshape_10371)
  %onnx::Reshape_10809 : Long(3, strides=[1], requires_grad=0, device=cpu) = onnx::Identity[onnx_name="Identity_193"](%onnx::Reshape_10371)
  %onnx::Reshape_10805 : Long(3, strides=[1], requires_grad=0, device=cpu) = onnx::Identity[onnx_name="Identity_194"](%onnx::Reshape_10331)
  %onnx::Reshape_10787 : Long(3, strides=[1], requires_grad=0, device=cpu) = onnx::Identity[onnx_name="Identity_195"](%onnx::Reshape_10349)
  %onnx::Reshape_10783 : Long(2, strides=[1], requires_grad=0, device=cpu) = onnx::Identity[onnx_name="Identity_196"](%onnx::Reshape_10345)
  %onnx::Mul_10778 : Float(requires_grad=0, device=cpu) = onnx::Identity[onnx_name="Identity_197"](%onnx::Mul_10340)
  %onnx::Reshape_10777 : Long(3, strides=[1], requires_grad=0, device=cpu) = onnx::Identity[onnx_name="Identity_198"](%onnx::Reshape_10773)
  %onnx::Reshape_10769 : Long(3, strides=[1], requires_grad=0, device=cpu) = onnx::Identity[onnx_name="Identity_199"](%onnx::Reshape_10331)
  %onnx::Reshape_10747 : Long(3, strides=[1], requires_grad=0, device=cpu) = onnx::Identity[onnx_name="Identity_200"](%onnx::Reshape_10349)
  %onnx::Reshape_10743 : Long(2, strides=[1], requires_grad=0, device=cpu) = onnx::Identity[onnx_name="Identity_201"](%onnx::Reshape_10345)
  %onnx::Reshape_10740 : Long(3, strides=[1], requires_grad=0, device=cpu) = onnx::Identity[onnx_name="Identity_202"](%onnx::Reshape_10371)
  %onnx::Reshape_10736 : Long(3, strides=[1], requires_grad=0, device=cpu) = onnx::Identity[onnx_name="Identity_203"](%onnx::Reshape_10371)
  %onnx::Reshape_10732 : Long(3, strides=[1], requires_grad=0, device=cpu) = onnx::Identity[onnx_name="Identity_204"](%onnx::Reshape_10331)
  %onnx::Reshape_10714 : Long(3, strides=[1], requires_grad=0, device=cpu) = onnx::Identity[onnx_name="Identity_205"](%onnx::Reshape_10349)
  %onnx::Reshape_10710 : Long(2, strides=[1], requires_grad=0, device=cpu) = onnx::Identity[onnx_name="Identity_206"](%onnx::Reshape_10345)
  %onnx::Mul_10705 : Float(requires_grad=0, device=cpu) = onnx::Identity[onnx_name="Identity_207"](%onnx::Mul_10340)
  %onnx::Reshape_10704 : Long(3, strides=[1], requires_grad=0, device=cpu) = onnx::Identity[onnx_name="Identity_208"](%onnx::Reshape_10700)
  %onnx::Reshape_10696 : Long(3, strides=[1], requires_grad=0, device=cpu) = onnx::Identity[onnx_name="Identity_209"](%onnx::Reshape_10331)
  %onnx::Reshape_10674 : Long(3, strides=[1], requires_grad=0, device=cpu) = onnx::Identity[onnx_name="Identity_210"](%onnx::Reshape_10349)
  %onnx::Reshape_10670 : Long(2, strides=[1], requires_grad=0, device=cpu) = onnx::Identity[onnx_name="Identity_211"](%onnx::Reshape_10345)
  %onnx::Reshape_10667 : Long(3, strides=[1], requires_grad=0, device=cpu) = onnx::Identity[onnx_name="Identity_212"](%onnx::Reshape_10371)
  %onnx::Reshape_10663 : Long(3, strides=[1], requires_grad=0, device=cpu) = onnx::Identity[onnx_name="Identity_213"](%onnx::Reshape_10371)
  %onnx::Reshape_10659 : Long(3, strides=[1], requires_grad=0, device=cpu) = onnx::Identity[onnx_name="Identity_214"](%onnx::Reshape_10331)
  %onnx::Reshape_10641 : Long(3, strides=[1], requires_grad=0, device=cpu) = onnx::Identity[onnx_name="Identity_215"](%onnx::Reshape_10349)
  %onnx::Reshape_10637 : Long(2, strides=[1], requires_grad=0, device=cpu) = onnx::Identity[onnx_name="Identity_216"](%onnx::Reshape_10345)
  %onnx::Mul_10632 : Float(requires_grad=0, device=cpu) = onnx::Identity[onnx_name="Identity_217"](%onnx::Mul_10340)
  %onnx::Reshape_10631 : Long(3, strides=[1], requires_grad=0, device=cpu) = onnx::Identity[onnx_name="Identity_218"](%onnx::Reshape_10627)
  %onnx::Reshape_10623 : Long(3, strides=[1], requires_grad=0, device=cpu) = onnx::Identity[onnx_name="Identity_219"](%onnx::Reshape_10331)
  %onnx::Reshape_10601 : Long(3, strides=[1], requires_grad=0, device=cpu) = onnx::Identity[onnx_name="Identity_220"](%onnx::Reshape_10349)
  %onnx::Reshape_10597 : Long(2, strides=[1], requires_grad=0, device=cpu) = onnx::Identity[onnx_name="Identity_221"](%onnx::Reshape_10345)
  %onnx::Reshape_10594 : Long(3, strides=[1], requires_grad=0, device=cpu) = onnx::Identity[onnx_name="Identity_222"](%onnx::Reshape_10371)
  %onnx::Reshape_10590 : Long(3, strides=[1], requires_grad=0, device=cpu) = onnx::Identity[onnx_name="Identity_223"](%onnx::Reshape_10371)
  %onnx::Reshape_10586 : Long(3, strides=[1], requires_grad=0, device=cpu) = onnx::Identity[onnx_name="Identity_224"](%onnx::Reshape_10331)
  %onnx::Reshape_10568 : Long(3, strides=[1], requires_grad=0, device=cpu) = onnx::Identity[onnx_name="Identity_225"](%onnx::Reshape_10349)
  %onnx::Reshape_10564 : Long(2, strides=[1], requires_grad=0, device=cpu) = onnx::Identity[onnx_name="Identity_226"](%onnx::Reshape_10345)
  %onnx::Mul_10559 : Float(requires_grad=0, device=cpu) = onnx::Identity[onnx_name="Identity_227"](%onnx::Mul_10340)
  %onnx::Reshape_10558 : Long(3, strides=[1], requires_grad=0, device=cpu) = onnx::Identity[onnx_name="Identity_228"](%onnx::Reshape_10554)
  %onnx::Reshape_10550 : Long(3, strides=[1], requires_grad=0, device=cpu) = onnx::Identity[onnx_name="Identity_229"](%onnx::Reshape_10331)
  %onnx::Reshape_10528 : Long(3, strides=[1], requires_grad=0, device=cpu) = onnx::Identity[onnx_name="Identity_230"](%onnx::Reshape_10349)
  %onnx::Reshape_10524 : Long(2, strides=[1], requires_grad=0, device=cpu) = onnx::Identity[onnx_name="Identity_231"](%onnx::Reshape_10345)
  %onnx::Reshape_10521 : Long(3, strides=[1], requires_grad=0, device=cpu) = onnx::Identity[onnx_name="Identity_232"](%onnx::Reshape_10371)
  %onnx::Reshape_10517 : Long(3, strides=[1], requires_grad=0, device=cpu) = onnx::Identity[onnx_name="Identity_233"](%onnx::Reshape_10371)
  %onnx::Reshape_10513 : Long(3, strides=[1], requires_grad=0, device=cpu) = onnx::Identity[onnx_name="Identity_234"](%onnx::Reshape_10331)
  %onnx::Reshape_10495 : Long(3, strides=[1], requires_grad=0, device=cpu) = onnx::Identity[onnx_name="Identity_235"](%onnx::Reshape_10349)
  %onnx::Reshape_10491 : Long(2, strides=[1], requires_grad=0, device=cpu) = onnx::Identity[onnx_name="Identity_236"](%onnx::Reshape_10345)
  %onnx::Mul_10486 : Float(requires_grad=0, device=cpu) = onnx::Identity[onnx_name="Identity_237"](%onnx::Mul_10340)
  %onnx::Reshape_10485 : Long(3, strides=[1], requires_grad=0, device=cpu) = onnx::Identity[onnx_name="Identity_238"](%onnx::Reshape_10481)
  %onnx::Reshape_10477 : Long(3, strides=[1], requires_grad=0, device=cpu) = onnx::Identity[onnx_name="Identity_239"](%onnx::Reshape_10331)
  %onnx::Reshape_10455 : Long(3, strides=[1], requires_grad=0, device=cpu) = onnx::Identity[onnx_name="Identity_240"](%onnx::Reshape_10349)
  %onnx::Reshape_10451 : Long(2, strides=[1], requires_grad=0, device=cpu) = onnx::Identity[onnx_name="Identity_241"](%onnx::Reshape_10345)
  %onnx::Reshape_10448 : Long(3, strides=[1], requires_grad=0, device=cpu) = onnx::Identity[onnx_name="Identity_242"](%onnx::Reshape_10371)
  %onnx::Reshape_10444 : Long(3, strides=[1], requires_grad=0, device=cpu) = onnx::Identity[onnx_name="Identity_243"](%onnx::Reshape_10371)
  %onnx::Reshape_10440 : Long(3, strides=[1], requires_grad=0, device=cpu) = onnx::Identity[onnx_name="Identity_244"](%onnx::Reshape_10331)
  %onnx::Reshape_10422 : Long(3, strides=[1], requires_grad=0, device=cpu) = onnx::Identity[onnx_name="Identity_245"](%onnx::Reshape_10349)
  %onnx::Reshape_10418 : Long(2, strides=[1], requires_grad=0, device=cpu) = onnx::Identity[onnx_name="Identity_246"](%onnx::Reshape_10345)
  %onnx::Mul_10413 : Float(requires_grad=0, device=cpu) = onnx::Identity[onnx_name="Identity_247"](%onnx::Mul_10340)
  %onnx::Reshape_10412 : Long(3, strides=[1], requires_grad=0, device=cpu) = onnx::Identity[onnx_name="Identity_248"](%onnx::Reshape_10408)
  %onnx::Reshape_10404 : Long(3, strides=[1], requires_grad=0, device=cpu) = onnx::Identity[onnx_name="Identity_249"](%onnx::Reshape_10331)
  %onnx::Reshape_10382 : Long(3, strides=[1], requires_grad=0, device=cpu) = onnx::Identity[onnx_name="Identity_250"](%onnx::Reshape_10349)
  %onnx::Reshape_10378 : Long(2, strides=[1], requires_grad=0, device=cpu) = onnx::Identity[onnx_name="Identity_251"](%onnx::Reshape_10345)
  %onnx::Reshape_10375 : Long(3, strides=[1], requires_grad=0, device=cpu) = onnx::Identity[onnx_name="Identity_252"](%onnx::Reshape_10371)
  %onnx::Reshape_10367 : Long(3, strides=[1], requires_grad=0, device=cpu) = onnx::Identity[onnx_name="Identity_253"](%onnx::Reshape_10331)
  %onnx::Reshape_10339 : Long(3, strides=[1], requires_grad=0, device=cpu) = onnx::Identity[onnx_name="Identity_254"](%onnx::Reshape_10331)
  %onnx::Reshape_10335 : Long(3, strides=[1], requires_grad=0, device=cpu) = onnx::Identity[onnx_name="Identity_255"](%onnx::Reshape_10331)
  %onnx::Reshape_10302 : Long(3, strides=[1], requires_grad=0, device=cpu) = onnx::Identity[onnx_name="Identity_256"](%onnx::Reshape_10148)
  %onnx::Reshape_10298 : Long(5, strides=[1], requires_grad=0, device=cpu) = onnx::Identity[onnx_name="Identity_257"](%onnx::Reshape_10144)
  %onnx::Reshape_10288 : Long(3, strides=[1], requires_grad=0, device=cpu) = onnx::Identity[onnx_name="Identity_258"](%onnx::Reshape_10148)
  %onnx::Reshape_10284 : Long(5, strides=[1], requires_grad=0, device=cpu) = onnx::Identity[onnx_name="Identity_259"](%onnx::Reshape_10144)
  %onnx::Reshape_10274 : Long(3, strides=[1], requires_grad=0, device=cpu) = onnx::Identity[onnx_name="Identity_260"](%onnx::Reshape_10148)
  %onnx::Reshape_10270 : Long(5, strides=[1], requires_grad=0, device=cpu) = onnx::Identity[onnx_name="Identity_261"](%onnx::Reshape_10144)
  %onnx::Reshape_10260 : Long(3, strides=[1], requires_grad=0, device=cpu) = onnx::Identity[onnx_name="Identity_262"](%onnx::Reshape_10148)
  %onnx::Reshape_10256 : Long(5, strides=[1], requires_grad=0, device=cpu) = onnx::Identity[onnx_name="Identity_263"](%onnx::Reshape_10144)
  %onnx::Reshape_10246 : Long(3, strides=[1], requires_grad=0, device=cpu) = onnx::Identity[onnx_name="Identity_264"](%onnx::Reshape_10148)
  %onnx::Reshape_10242 : Long(5, strides=[1], requires_grad=0, device=cpu) = onnx::Identity[onnx_name="Identity_265"](%onnx::Reshape_10144)
  %onnx::Reshape_10232 : Long(3, strides=[1], requires_grad=0, device=cpu) = onnx::Identity[onnx_name="Identity_266"](%onnx::Reshape_10148)
  %onnx::Reshape_10228 : Long(5, strides=[1], requires_grad=0, device=cpu) = onnx::Identity[onnx_name="Identity_267"](%onnx::Reshape_10144)
  %onnx::Reshape_10218 : Long(3, strides=[1], requires_grad=0, device=cpu) = onnx::Identity[onnx_name="Identity_268"](%onnx::Reshape_10148)
  %onnx::Reshape_10214 : Long(5, strides=[1], requires_grad=0, device=cpu) = onnx::Identity[onnx_name="Identity_269"](%onnx::Reshape_10144)
  %onnx::Reshape_10204 : Long(3, strides=[1], requires_grad=0, device=cpu) = onnx::Identity[onnx_name="Identity_270"](%onnx::Reshape_10148)
  %onnx::Reshape_10200 : Long(5, strides=[1], requires_grad=0, device=cpu) = onnx::Identity[onnx_name="Identity_271"](%onnx::Reshape_10144)
  %onnx::Reshape_10190 : Long(3, strides=[1], requires_grad=0, device=cpu) = onnx::Identity[onnx_name="Identity_272"](%onnx::Reshape_10148)
  %onnx::Reshape_10186 : Long(5, strides=[1], requires_grad=0, device=cpu) = onnx::Identity[onnx_name="Identity_273"](%onnx::Reshape_10144)
  %onnx::Reshape_10176 : Long(3, strides=[1], requires_grad=0, device=cpu) = onnx::Identity[onnx_name="Identity_274"](%onnx::Reshape_10148)
  %onnx::Reshape_10172 : Long(5, strides=[1], requires_grad=0, device=cpu) = onnx::Identity[onnx_name="Identity_275"](%onnx::Reshape_10144)
  %onnx::Reshape_10162 : Long(3, strides=[1], requires_grad=0, device=cpu) = onnx::Identity[onnx_name="Identity_276"](%onnx::Reshape_10148)
  %onnx::Reshape_10158 : Long(5, strides=[1], requires_grad=0, device=cpu) = onnx::Identity[onnx_name="Identity_277"](%onnx::Reshape_10144)
  %onnx::MatMul_12210 : Float(384, 95, strides=[1, 384], requires_grad=0, device=cpu) = onnx::Identity[onnx_name="Identity_278"](%onnx::MatMul_10385)
  %onnx::MatMul_12209 : Float(1536, 384, strides=[1, 1536], requires_grad=0, device=cpu) = onnx::Identity[onnx_name="Identity_279"](%onnx::MatMul_10384)
  %onnx::MatMul_12208 : Float(384, 1536, strides=[1, 384], requires_grad=0, device=cpu) = onnx::Identity[onnx_name="Identity_280"](%onnx::MatMul_10383)
  %onnx::MatMul_12188 : Float(384, 768, strides=[1, 384], requires_grad=0, device=cpu) = onnx::Identity[onnx_name="Identity_281"](%onnx::MatMul_10363)
  %onnx::MatMul_12187 : Float(384, 384, strides=[1, 384], requires_grad=0, device=cpu) = onnx::Identity[onnx_name="Identity_282"](%onnx::MatMul_10362)
  %onnx::Add_12186 : Float(768, strides=[1], requires_grad=0, device=cpu) = onnx::Identity[onnx_name="Identity_283"](%onnx::Add_10361)
  %onnx::Add_12184 : Float(384, strides=[1], requires_grad=0, device=cpu) = onnx::Identity[onnx_name="Identity_284"](%onnx::Add_10359)
  %onnx::MatMul_12152 : Float(384, 768, strides=[1, 384], requires_grad=0, device=cpu) = onnx::Identity[onnx_name="Identity_285"](%onnx::MatMul_10327)
  %onnx::MatMul_12151 : Float(384, 384, strides=[1, 384], requires_grad=0, device=cpu) = onnx::Identity[onnx_name="Identity_286"](%onnx::MatMul_10326)
  %onnx::Add_12150 : Float(768, strides=[1], requires_grad=0, device=cpu) = onnx::Identity[onnx_name="Identity_287"](%onnx::Add_10325)
  %onnx::Add_12148 : Float(384, strides=[1], requires_grad=0, device=cpu) = onnx::Identity[onnx_name="Identity_288"](%onnx::Add_10323)
  %onnx::MatMul_12137 : Float(384, 95, strides=[1, 384], requires_grad=0, device=cpu) = onnx::Identity[onnx_name="Identity_289"](%onnx::MatMul_10385)
  %onnx::MatMul_12136 : Float(1536, 384, strides=[1, 1536], requires_grad=0, device=cpu) = onnx::Identity[onnx_name="Identity_290"](%onnx::MatMul_10384)
  %onnx::MatMul_12135 : Float(384, 1536, strides=[1, 384], requires_grad=0, device=cpu) = onnx::Identity[onnx_name="Identity_291"](%onnx::MatMul_10383)
  %onnx::MatMul_12115 : Float(384, 768, strides=[1, 384], requires_grad=0, device=cpu) = onnx::Identity[onnx_name="Identity_292"](%onnx::MatMul_10363)
  %onnx::MatMul_12114 : Float(384, 384, strides=[1, 384], requires_grad=0, device=cpu) = onnx::Identity[onnx_name="Identity_293"](%onnx::MatMul_10362)
  %onnx::Add_12113 : Float(768, strides=[1], requires_grad=0, device=cpu) = onnx::Identity[onnx_name="Identity_294"](%onnx::Add_10361)
  %onnx::Add_12111 : Float(384, strides=[1], requires_grad=0, device=cpu) = onnx::Identity[onnx_name="Identity_295"](%onnx::Add_10359)
  %onnx::MatMul_12079 : Float(384, 768, strides=[1, 384], requires_grad=0, device=cpu) = onnx::Identity[onnx_name="Identity_296"](%onnx::MatMul_10327)
  %onnx::MatMul_12078 : Float(384, 384, strides=[1, 384], requires_grad=0, device=cpu) = onnx::Identity[onnx_name="Identity_297"](%onnx::MatMul_10326)
  %onnx::Add_12077 : Float(768, strides=[1], requires_grad=0, device=cpu) = onnx::Identity[onnx_name="Identity_298"](%onnx::Add_10325)
  %onnx::Add_12075 : Float(384, strides=[1], requires_grad=0, device=cpu) = onnx::Identity[onnx_name="Identity_299"](%onnx::Add_10323)
  %onnx::MatMul_12064 : Float(384, 95, strides=[1, 384], requires_grad=0, device=cpu) = onnx::Identity[onnx_name="Identity_300"](%onnx::MatMul_10385)
  %onnx::MatMul_12063 : Float(1536, 384, strides=[1, 1536], requires_grad=0, device=cpu) = onnx::Identity[onnx_name="Identity_301"](%onnx::MatMul_10384)
  %onnx::MatMul_12062 : Float(384, 1536, strides=[1, 384], requires_grad=0, device=cpu) = onnx::Identity[onnx_name="Identity_302"](%onnx::MatMul_10383)
  %onnx::MatMul_12042 : Float(384, 768, strides=[1, 384], requires_grad=0, device=cpu) = onnx::Identity[onnx_name="Identity_303"](%onnx::MatMul_10363)
  %onnx::MatMul_12041 : Float(384, 384, strides=[1, 384], requires_grad=0, device=cpu) = onnx::Identity[onnx_name="Identity_304"](%onnx::MatMul_10362)
  %onnx::Add_12040 : Float(768, strides=[1], requires_grad=0, device=cpu) = onnx::Identity[onnx_name="Identity_305"](%onnx::Add_10361)
  %onnx::Add_12038 : Float(384, strides=[1], requires_grad=0, device=cpu) = onnx::Identity[onnx_name="Identity_306"](%onnx::Add_10359)
  %onnx::MatMul_12006 : Float(384, 768, strides=[1, 384], requires_grad=0, device=cpu) = onnx::Identity[onnx_name="Identity_307"](%onnx::MatMul_10327)
  %onnx::MatMul_12005 : Float(384, 384, strides=[1, 384], requires_grad=0, device=cpu) = onnx::Identity[onnx_name="Identity_308"](%onnx::MatMul_10326)
  %onnx::Add_12004 : Float(768, strides=[1], requires_grad=0, device=cpu) = onnx::Identity[onnx_name="Identity_309"](%onnx::Add_10325)
  %onnx::Add_12002 : Float(384, strides=[1], requires_grad=0, device=cpu) = onnx::Identity[onnx_name="Identity_310"](%onnx::Add_10323)
  %onnx::MatMul_11991 : Float(384, 95, strides=[1, 384], requires_grad=0, device=cpu) = onnx::Identity[onnx_name="Identity_311"](%onnx::MatMul_10385)
  %onnx::MatMul_11990 : Float(1536, 384, strides=[1, 1536], requires_grad=0, device=cpu) = onnx::Identity[onnx_name="Identity_312"](%onnx::MatMul_10384)
  %onnx::MatMul_11989 : Float(384, 1536, strides=[1, 384], requires_grad=0, device=cpu) = onnx::Identity[onnx_name="Identity_313"](%onnx::MatMul_10383)
  %onnx::MatMul_11969 : Float(384, 768, strides=[1, 384], requires_grad=0, device=cpu) = onnx::Identity[onnx_name="Identity_314"](%onnx::MatMul_10363)
  %onnx::MatMul_11968 : Float(384, 384, strides=[1, 384], requires_grad=0, device=cpu) = onnx::Identity[onnx_name="Identity_315"](%onnx::MatMul_10362)
  %onnx::Add_11967 : Float(768, strides=[1], requires_grad=0, device=cpu) = onnx::Identity[onnx_name="Identity_316"](%onnx::Add_10361)
  %onnx::Add_11965 : Float(384, strides=[1], requires_grad=0, device=cpu) = onnx::Identity[onnx_name="Identity_317"](%onnx::Add_10359)
  %onnx::MatMul_11933 : Float(384, 768, strides=[1, 384], requires_grad=0, device=cpu) = onnx::Identity[onnx_name="Identity_318"](%onnx::MatMul_10327)
  %onnx::MatMul_11932 : Float(384, 384, strides=[1, 384], requires_grad=0, device=cpu) = onnx::Identity[onnx_name="Identity_319"](%onnx::MatMul_10326)
  %onnx::Add_11931 : Float(768, strides=[1], requires_grad=0, device=cpu) = onnx::Identity[onnx_name="Identity_320"](%onnx::Add_10325)
  %onnx::Add_11929 : Float(384, strides=[1], requires_grad=0, device=cpu) = onnx::Identity[onnx_name="Identity_321"](%onnx::Add_10323)
  %onnx::MatMul_11918 : Float(384, 95, strides=[1, 384], requires_grad=0, device=cpu) = onnx::Identity[onnx_name="Identity_322"](%onnx::MatMul_10385)
  %onnx::MatMul_11917 : Float(1536, 384, strides=[1, 1536], requires_grad=0, device=cpu) = onnx::Identity[onnx_name="Identity_323"](%onnx::MatMul_10384)
  %onnx::MatMul_11916 : Float(384, 1536, strides=[1, 384], requires_grad=0, device=cpu) = onnx::Identity[onnx_name="Identity_324"](%onnx::MatMul_10383)
  %onnx::MatMul_11896 : Float(384, 768, strides=[1, 384], requires_grad=0, device=cpu) = onnx::Identity[onnx_name="Identity_325"](%onnx::MatMul_10363)
  %onnx::MatMul_11895 : Float(384, 384, strides=[1, 384], requires_grad=0, device=cpu) = onnx::Identity[onnx_name="Identity_326"](%onnx::MatMul_10362)
  %onnx::Add_11894 : Float(768, strides=[1], requires_grad=0, device=cpu) = onnx::Identity[onnx_name="Identity_327"](%onnx::Add_10361)
  %onnx::Add_11892 : Float(384, strides=[1], requires_grad=0, device=cpu) = onnx::Identity[onnx_name="Identity_328"](%onnx::Add_10359)
  %onnx::MatMul_11860 : Float(384, 768, strides=[1, 384], requires_grad=0, device=cpu) = onnx::Identity[onnx_name="Identity_329"](%onnx::MatMul_10327)
  %onnx::MatMul_11859 : Float(384, 384, strides=[1, 384], requires_grad=0, device=cpu) = onnx::Identity[onnx_name="Identity_330"](%onnx::MatMul_10326)
  %onnx::Add_11858 : Float(768, strides=[1], requires_grad=0, device=cpu) = onnx::Identity[onnx_name="Identity_331"](%onnx::Add_10325)
  %onnx::Add_11856 : Float(384, strides=[1], requires_grad=0, device=cpu) = onnx::Identity[onnx_name="Identity_332"](%onnx::Add_10323)
  %onnx::MatMul_11845 : Float(384, 95, strides=[1, 384], requires_grad=0, device=cpu) = onnx::Identity[onnx_name="Identity_333"](%onnx::MatMul_10385)
  %onnx::MatMul_11844 : Float(1536, 384, strides=[1, 1536], requires_grad=0, device=cpu) = onnx::Identity[onnx_name="Identity_334"](%onnx::MatMul_10384)
  %onnx::MatMul_11843 : Float(384, 1536, strides=[1, 384], requires_grad=0, device=cpu) = onnx::Identity[onnx_name="Identity_335"](%onnx::MatMul_10383)
  %onnx::MatMul_11823 : Float(384, 768, strides=[1, 384], requires_grad=0, device=cpu) = onnx::Identity[onnx_name="Identity_336"](%onnx::MatMul_10363)
  %onnx::MatMul_11822 : Float(384, 384, strides=[1, 384], requires_grad=0, device=cpu) = onnx::Identity[onnx_name="Identity_337"](%onnx::MatMul_10362)
  %onnx::Add_11821 : Float(768, strides=[1], requires_grad=0, device=cpu) = onnx::Identity[onnx_name="Identity_338"](%onnx::Add_10361)
  %onnx::Add_11819 : Float(384, strides=[1], requires_grad=0, device=cpu) = onnx::Identity[onnx_name="Identity_339"](%onnx::Add_10359)
  %onnx::MatMul_11787 : Float(384, 768, strides=[1, 384], requires_grad=0, device=cpu) = onnx::Identity[onnx_name="Identity_340"](%onnx::MatMul_10327)
  %onnx::MatMul_11786 : Float(384, 384, strides=[1, 384], requires_grad=0, device=cpu) = onnx::Identity[onnx_name="Identity_341"](%onnx::MatMul_10326)
  %onnx::Add_11785 : Float(768, strides=[1], requires_grad=0, device=cpu) = onnx::Identity[onnx_name="Identity_342"](%onnx::Add_10325)
  %onnx::Add_11783 : Float(384, strides=[1], requires_grad=0, device=cpu) = onnx::Identity[onnx_name="Identity_343"](%onnx::Add_10323)
  %onnx::MatMul_11772 : Float(384, 95, strides=[1, 384], requires_grad=0, device=cpu) = onnx::Identity[onnx_name="Identity_344"](%onnx::MatMul_10385)
  %onnx::MatMul_11771 : Float(1536, 384, strides=[1, 1536], requires_grad=0, device=cpu) = onnx::Identity[onnx_name="Identity_345"](%onnx::MatMul_10384)
  %onnx::MatMul_11770 : Float(384, 1536, strides=[1, 384], requires_grad=0, device=cpu) = onnx::Identity[onnx_name="Identity_346"](%onnx::MatMul_10383)
  %onnx::MatMul_11750 : Float(384, 768, strides=[1, 384], requires_grad=0, device=cpu) = onnx::Identity[onnx_name="Identity_347"](%onnx::MatMul_10363)
  %onnx::MatMul_11749 : Float(384, 384, strides=[1, 384], requires_grad=0, device=cpu) = onnx::Identity[onnx_name="Identity_348"](%onnx::MatMul_10362)
  %onnx::Add_11748 : Float(768, strides=[1], requires_grad=0, device=cpu) = onnx::Identity[onnx_name="Identity_349"](%onnx::Add_10361)
  %onnx::Add_11746 : Float(384, strides=[1], requires_grad=0, device=cpu) = onnx::Identity[onnx_name="Identity_350"](%onnx::Add_10359)
  %onnx::MatMul_11714 : Float(384, 768, strides=[1, 384], requires_grad=0, device=cpu) = onnx::Identity[onnx_name="Identity_351"](%onnx::MatMul_10327)
  %onnx::MatMul_11713 : Float(384, 384, strides=[1, 384], requires_grad=0, device=cpu) = onnx::Identity[onnx_name="Identity_352"](%onnx::MatMul_10326)
  %onnx::Add_11712 : Float(768, strides=[1], requires_grad=0, device=cpu) = onnx::Identity[onnx_name="Identity_353"](%onnx::Add_10325)
  %onnx::Add_11710 : Float(384, strides=[1], requires_grad=0, device=cpu) = onnx::Identity[onnx_name="Identity_354"](%onnx::Add_10323)
  %onnx::MatMul_11699 : Float(384, 95, strides=[1, 384], requires_grad=0, device=cpu) = onnx::Identity[onnx_name="Identity_355"](%onnx::MatMul_10385)
  %onnx::MatMul_11698 : Float(1536, 384, strides=[1, 1536], requires_grad=0, device=cpu) = onnx::Identity[onnx_name="Identity_356"](%onnx::MatMul_10384)
  %onnx::MatMul_11697 : Float(384, 1536, strides=[1, 384], requires_grad=0, device=cpu) = onnx::Identity[onnx_name="Identity_357"](%onnx::MatMul_10383)
  %onnx::MatMul_11677 : Float(384, 768, strides=[1, 384], requires_grad=0, device=cpu) = onnx::Identity[onnx_name="Identity_358"](%onnx::MatMul_10363)
  %onnx::MatMul_11676 : Float(384, 384, strides=[1, 384], requires_grad=0, device=cpu) = onnx::Identity[onnx_name="Identity_359"](%onnx::MatMul_10362)
  %onnx::Add_11675 : Float(768, strides=[1], requires_grad=0, device=cpu) = onnx::Identity[onnx_name="Identity_360"](%onnx::Add_10361)
  %onnx::Add_11673 : Float(384, strides=[1], requires_grad=0, device=cpu) = onnx::Identity[onnx_name="Identity_361"](%onnx::Add_10359)
  %onnx::MatMul_11641 : Float(384, 768, strides=[1, 384], requires_grad=0, device=cpu) = onnx::Identity[onnx_name="Identity_362"](%onnx::MatMul_10327)
  %onnx::MatMul_11640 : Float(384, 384, strides=[1, 384], requires_grad=0, device=cpu) = onnx::Identity[onnx_name="Identity_363"](%onnx::MatMul_10326)
  %onnx::Add_11639 : Float(768, strides=[1], requires_grad=0, device=cpu) = onnx::Identity[onnx_name="Identity_364"](%onnx::Add_10325)
  %onnx::Add_11637 : Float(384, strides=[1], requires_grad=0, device=cpu) = onnx::Identity[onnx_name="Identity_365"](%onnx::Add_10323)
  %onnx::MatMul_11626 : Float(384, 95, strides=[1, 384], requires_grad=0, device=cpu) = onnx::Identity[onnx_name="Identity_366"](%onnx::MatMul_10385)
  %onnx::MatMul_11625 : Float(1536, 384, strides=[1, 1536], requires_grad=0, device=cpu) = onnx::Identity[onnx_name="Identity_367"](%onnx::MatMul_10384)
  %onnx::MatMul_11624 : Float(384, 1536, strides=[1, 384], requires_grad=0, device=cpu) = onnx::Identity[onnx_name="Identity_368"](%onnx::MatMul_10383)
  %onnx::MatMul_11604 : Float(384, 768, strides=[1, 384], requires_grad=0, device=cpu) = onnx::Identity[onnx_name="Identity_369"](%onnx::MatMul_10363)
  %onnx::MatMul_11603 : Float(384, 384, strides=[1, 384], requires_grad=0, device=cpu) = onnx::Identity[onnx_name="Identity_370"](%onnx::MatMul_10362)
  %onnx::Add_11602 : Float(768, strides=[1], requires_grad=0, device=cpu) = onnx::Identity[onnx_name="Identity_371"](%onnx::Add_10361)
  %onnx::Add_11600 : Float(384, strides=[1], requires_grad=0, device=cpu) = onnx::Identity[onnx_name="Identity_372"](%onnx::Add_10359)
  %onnx::MatMul_11568 : Float(384, 768, strides=[1, 384], requires_grad=0, device=cpu) = onnx::Identity[onnx_name="Identity_373"](%onnx::MatMul_10327)
  %onnx::MatMul_11567 : Float(384, 384, strides=[1, 384], requires_grad=0, device=cpu) = onnx::Identity[onnx_name="Identity_374"](%onnx::MatMul_10326)
  %onnx::Add_11566 : Float(768, strides=[1], requires_grad=0, device=cpu) = onnx::Identity[onnx_name="Identity_375"](%onnx::Add_10325)
  %onnx::Add_11564 : Float(384, strides=[1], requires_grad=0, device=cpu) = onnx::Identity[onnx_name="Identity_376"](%onnx::Add_10323)
  %onnx::MatMul_11553 : Float(384, 95, strides=[1, 384], requires_grad=0, device=cpu) = onnx::Identity[onnx_name="Identity_377"](%onnx::MatMul_10385)
  %onnx::MatMul_11552 : Float(1536, 384, strides=[1, 1536], requires_grad=0, device=cpu) = onnx::Identity[onnx_name="Identity_378"](%onnx::MatMul_10384)
  %onnx::MatMul_11551 : Float(384, 1536, strides=[1, 384], requires_grad=0, device=cpu) = onnx::Identity[onnx_name="Identity_379"](%onnx::MatMul_10383)
  %onnx::MatMul_11531 : Float(384, 768, strides=[1, 384], requires_grad=0, device=cpu) = onnx::Identity[onnx_name="Identity_380"](%onnx::MatMul_10363)
  %onnx::MatMul_11530 : Float(384, 384, strides=[1, 384], requires_grad=0, device=cpu) = onnx::Identity[onnx_name="Identity_381"](%onnx::MatMul_10362)
  %onnx::Add_11529 : Float(768, strides=[1], requires_grad=0, device=cpu) = onnx::Identity[onnx_name="Identity_382"](%onnx::Add_10361)
  %onnx::Add_11527 : Float(384, strides=[1], requires_grad=0, device=cpu) = onnx::Identity[onnx_name="Identity_383"](%onnx::Add_10359)
  %onnx::MatMul_11495 : Float(384, 768, strides=[1, 384], requires_grad=0, device=cpu) = onnx::Identity[onnx_name="Identity_384"](%onnx::MatMul_10327)
  %onnx::MatMul_11494 : Float(384, 384, strides=[1, 384], requires_grad=0, device=cpu) = onnx::Identity[onnx_name="Identity_385"](%onnx::MatMul_10326)
  %onnx::Add_11493 : Float(768, strides=[1], requires_grad=0, device=cpu) = onnx::Identity[onnx_name="Identity_386"](%onnx::Add_10325)
  %onnx::Add_11491 : Float(384, strides=[1], requires_grad=0, device=cpu) = onnx::Identity[onnx_name="Identity_387"](%onnx::Add_10323)
  %onnx::MatMul_11480 : Float(384, 95, strides=[1, 384], requires_grad=0, device=cpu) = onnx::Identity[onnx_name="Identity_388"](%onnx::MatMul_10385)
  %onnx::MatMul_11479 : Float(1536, 384, strides=[1, 1536], requires_grad=0, device=cpu) = onnx::Identity[onnx_name="Identity_389"](%onnx::MatMul_10384)
  %onnx::MatMul_11478 : Float(384, 1536, strides=[1, 384], requires_grad=0, device=cpu) = onnx::Identity[onnx_name="Identity_390"](%onnx::MatMul_10383)
  %onnx::MatMul_11458 : Float(384, 768, strides=[1, 384], requires_grad=0, device=cpu) = onnx::Identity[onnx_name="Identity_391"](%onnx::MatMul_10363)
  %onnx::MatMul_11457 : Float(384, 384, strides=[1, 384], requires_grad=0, device=cpu) = onnx::Identity[onnx_name="Identity_392"](%onnx::MatMul_10362)
  %onnx::Add_11456 : Float(768, strides=[1], requires_grad=0, device=cpu) = onnx::Identity[onnx_name="Identity_393"](%onnx::Add_10361)
  %onnx::Add_11454 : Float(384, strides=[1], requires_grad=0, device=cpu) = onnx::Identity[onnx_name="Identity_394"](%onnx::Add_10359)
  %onnx::MatMul_11422 : Float(384, 768, strides=[1, 384], requires_grad=0, device=cpu) = onnx::Identity[onnx_name="Identity_395"](%onnx::MatMul_10327)
  %onnx::MatMul_11421 : Float(384, 384, strides=[1, 384], requires_grad=0, device=cpu) = onnx::Identity[onnx_name="Identity_396"](%onnx::MatMul_10326)
  %onnx::Add_11420 : Float(768, strides=[1], requires_grad=0, device=cpu) = onnx::Identity[onnx_name="Identity_397"](%onnx::Add_10325)
  %onnx::Add_11418 : Float(384, strides=[1], requires_grad=0, device=cpu) = onnx::Identity[onnx_name="Identity_398"](%onnx::Add_10323)
  %onnx::MatMul_11407 : Float(384, 95, strides=[1, 384], requires_grad=0, device=cpu) = onnx::Identity[onnx_name="Identity_399"](%onnx::MatMul_10385)
  %onnx::MatMul_11406 : Float(1536, 384, strides=[1, 1536], requires_grad=0, device=cpu) = onnx::Identity[onnx_name="Identity_400"](%onnx::MatMul_10384)
  %onnx::MatMul_11405 : Float(384, 1536, strides=[1, 384], requires_grad=0, device=cpu) = onnx::Identity[onnx_name="Identity_401"](%onnx::MatMul_10383)
  %onnx::MatMul_11385 : Float(384, 768, strides=[1, 384], requires_grad=0, device=cpu) = onnx::Identity[onnx_name="Identity_402"](%onnx::MatMul_10363)
  %onnx::MatMul_11384 : Float(384, 384, strides=[1, 384], requires_grad=0, device=cpu) = onnx::Identity[onnx_name="Identity_403"](%onnx::MatMul_10362)
  %onnx::Add_11383 : Float(768, strides=[1], requires_grad=0, device=cpu) = onnx::Identity[onnx_name="Identity_404"](%onnx::Add_10361)
  %onnx::Add_11381 : Float(384, strides=[1], requires_grad=0, device=cpu) = onnx::Identity[onnx_name="Identity_405"](%onnx::Add_10359)
  %onnx::MatMul_11349 : Float(384, 768, strides=[1, 384], requires_grad=0, device=cpu) = onnx::Identity[onnx_name="Identity_406"](%onnx::MatMul_10327)
  %onnx::MatMul_11348 : Float(384, 384, strides=[1, 384], requires_grad=0, device=cpu) = onnx::Identity[onnx_name="Identity_407"](%onnx::MatMul_10326)
  %onnx::Add_11347 : Float(768, strides=[1], requires_grad=0, device=cpu) = onnx::Identity[onnx_name="Identity_408"](%onnx::Add_10325)
  %onnx::Add_11345 : Float(384, strides=[1], requires_grad=0, device=cpu) = onnx::Identity[onnx_name="Identity_409"](%onnx::Add_10323)
  %onnx::MatMul_11334 : Float(384, 95, strides=[1, 384], requires_grad=0, device=cpu) = onnx::Identity[onnx_name="Identity_410"](%onnx::MatMul_10385)
  %onnx::MatMul_11333 : Float(1536, 384, strides=[1, 1536], requires_grad=0, device=cpu) = onnx::Identity[onnx_name="Identity_411"](%onnx::MatMul_10384)
  %onnx::MatMul_11332 : Float(384, 1536, strides=[1, 384], requires_grad=0, device=cpu) = onnx::Identity[onnx_name="Identity_412"](%onnx::MatMul_10383)
  %onnx::MatMul_11312 : Float(384, 768, strides=[1, 384], requires_grad=0, device=cpu) = onnx::Identity[onnx_name="Identity_413"](%onnx::MatMul_10363)
  %onnx::MatMul_11311 : Float(384, 384, strides=[1, 384], requires_grad=0, device=cpu) = onnx::Identity[onnx_name="Identity_414"](%onnx::MatMul_10362)
  %onnx::Add_11310 : Float(768, strides=[1], requires_grad=0, device=cpu) = onnx::Identity[onnx_name="Identity_415"](%onnx::Add_10361)
  %onnx::Add_11308 : Float(384, strides=[1], requires_grad=0, device=cpu) = onnx::Identity[onnx_name="Identity_416"](%onnx::Add_10359)
  %onnx::MatMul_11276 : Float(384, 768, strides=[1, 384], requires_grad=0, device=cpu) = onnx::Identity[onnx_name="Identity_417"](%onnx::MatMul_10327)
  %onnx::MatMul_11275 : Float(384, 384, strides=[1, 384], requires_grad=0, device=cpu) = onnx::Identity[onnx_name="Identity_418"](%onnx::MatMul_10326)
  %onnx::Add_11274 : Float(768, strides=[1], requires_grad=0, device=cpu) = onnx::Identity[onnx_name="Identity_419"](%onnx::Add_10325)
  %onnx::Add_11272 : Float(384, strides=[1], requires_grad=0, device=cpu) = onnx::Identity[onnx_name="Identity_420"](%onnx::Add_10323)
  %onnx::MatMul_11261 : Float(384, 95, strides=[1, 384], requires_grad=0, device=cpu) = onnx::Identity[onnx_name="Identity_421"](%onnx::MatMul_10385)
  %onnx::MatMul_11260 : Float(1536, 384, strides=[1, 1536], requires_grad=0, device=cpu) = onnx::Identity[onnx_name="Identity_422"](%onnx::MatMul_10384)
  %onnx::MatMul_11259 : Float(384, 1536, strides=[1, 384], requires_grad=0, device=cpu) = onnx::Identity[onnx_name="Identity_423"](%onnx::MatMul_10383)
  %onnx::MatMul_11239 : Float(384, 768, strides=[1, 384], requires_grad=0, device=cpu) = onnx::Identity[onnx_name="Identity_424"](%onnx::MatMul_10363)
  %onnx::MatMul_11238 : Float(384, 384, strides=[1, 384], requires_grad=0, device=cpu) = onnx::Identity[onnx_name="Identity_425"](%onnx::MatMul_10362)
  %onnx::Add_11237 : Float(768, strides=[1], requires_grad=0, device=cpu) = onnx::Identity[onnx_name="Identity_426"](%onnx::Add_10361)
  %onnx::Add_11235 : Float(384, strides=[1], requires_grad=0, device=cpu) = onnx::Identity[onnx_name="Identity_427"](%onnx::Add_10359)
  %onnx::MatMul_11203 : Float(384, 768, strides=[1, 384], requires_grad=0, device=cpu) = onnx::Identity[onnx_name="Identity_428"](%onnx::MatMul_10327)
  %onnx::MatMul_11202 : Float(384, 384, strides=[1, 384], requires_grad=0, device=cpu) = onnx::Identity[onnx_name="Identity_429"](%onnx::MatMul_10326)
  %onnx::Add_11201 : Float(768, strides=[1], requires_grad=0, device=cpu) = onnx::Identity[onnx_name="Identity_430"](%onnx::Add_10325)
  %onnx::Add_11199 : Float(384, strides=[1], requires_grad=0, device=cpu) = onnx::Identity[onnx_name="Identity_431"](%onnx::Add_10323)
  %onnx::MatMul_11188 : Float(384, 95, strides=[1, 384], requires_grad=0, device=cpu) = onnx::Identity[onnx_name="Identity_432"](%onnx::MatMul_10385)
  %onnx::MatMul_11187 : Float(1536, 384, strides=[1, 1536], requires_grad=0, device=cpu) = onnx::Identity[onnx_name="Identity_433"](%onnx::MatMul_10384)
  %onnx::MatMul_11186 : Float(384, 1536, strides=[1, 384], requires_grad=0, device=cpu) = onnx::Identity[onnx_name="Identity_434"](%onnx::MatMul_10383)
  %onnx::MatMul_11166 : Float(384, 768, strides=[1, 384], requires_grad=0, device=cpu) = onnx::Identity[onnx_name="Identity_435"](%onnx::MatMul_10363)
  %onnx::MatMul_11165 : Float(384, 384, strides=[1, 384], requires_grad=0, device=cpu) = onnx::Identity[onnx_name="Identity_436"](%onnx::MatMul_10362)
  %onnx::Add_11164 : Float(768, strides=[1], requires_grad=0, device=cpu) = onnx::Identity[onnx_name="Identity_437"](%onnx::Add_10361)
  %onnx::Add_11162 : Float(384, strides=[1], requires_grad=0, device=cpu) = onnx::Identity[onnx_name="Identity_438"](%onnx::Add_10359)
  %onnx::MatMul_11130 : Float(384, 768, strides=[1, 384], requires_grad=0, device=cpu) = onnx::Identity[onnx_name="Identity_439"](%onnx::MatMul_10327)
  %onnx::MatMul_11129 : Float(384, 384, strides=[1, 384], requires_grad=0, device=cpu) = onnx::Identity[onnx_name="Identity_440"](%onnx::MatMul_10326)
  %onnx::Add_11128 : Float(768, strides=[1], requires_grad=0, device=cpu) = onnx::Identity[onnx_name="Identity_441"](%onnx::Add_10325)
  %onnx::Add_11126 : Float(384, strides=[1], requires_grad=0, device=cpu) = onnx::Identity[onnx_name="Identity_442"](%onnx::Add_10323)
  %onnx::MatMul_11115 : Float(384, 95, strides=[1, 384], requires_grad=0, device=cpu) = onnx::Identity[onnx_name="Identity_443"](%onnx::MatMul_10385)
  %onnx::MatMul_11114 : Float(1536, 384, strides=[1, 1536], requires_grad=0, device=cpu) = onnx::Identity[onnx_name="Identity_444"](%onnx::MatMul_10384)
  %onnx::MatMul_11113 : Float(384, 1536, strides=[1, 384], requires_grad=0, device=cpu) = onnx::Identity[onnx_name="Identity_445"](%onnx::MatMul_10383)
  %onnx::MatMul_11093 : Float(384, 768, strides=[1, 384], requires_grad=0, device=cpu) = onnx::Identity[onnx_name="Identity_446"](%onnx::MatMul_10363)
  %onnx::MatMul_11092 : Float(384, 384, strides=[1, 384], requires_grad=0, device=cpu) = onnx::Identity[onnx_name="Identity_447"](%onnx::MatMul_10362)
  %onnx::Add_11091 : Float(768, strides=[1], requires_grad=0, device=cpu) = onnx::Identity[onnx_name="Identity_448"](%onnx::Add_10361)
  %onnx::Add_11089 : Float(384, strides=[1], requires_grad=0, device=cpu) = onnx::Identity[onnx_name="Identity_449"](%onnx::Add_10359)
  %onnx::MatMul_11057 : Float(384, 768, strides=[1, 384], requires_grad=0, device=cpu) = onnx::Identity[onnx_name="Identity_450"](%onnx::MatMul_10327)
  %onnx::MatMul_11056 : Float(384, 384, strides=[1, 384], requires_grad=0, device=cpu) = onnx::Identity[onnx_name="Identity_451"](%onnx::MatMul_10326)
  %onnx::Add_11055 : Float(768, strides=[1], requires_grad=0, device=cpu) = onnx::Identity[onnx_name="Identity_452"](%onnx::Add_10325)
  %onnx::Add_11053 : Float(384, strides=[1], requires_grad=0, device=cpu) = onnx::Identity[onnx_name="Identity_453"](%onnx::Add_10323)
  %onnx::MatMul_11042 : Float(384, 95, strides=[1, 384], requires_grad=0, device=cpu) = onnx::Identity[onnx_name="Identity_454"](%onnx::MatMul_10385)
  %onnx::MatMul_11041 : Float(1536, 384, strides=[1, 1536], requires_grad=0, device=cpu) = onnx::Identity[onnx_name="Identity_455"](%onnx::MatMul_10384)
  %onnx::MatMul_11040 : Float(384, 1536, strides=[1, 384], requires_grad=0, device=cpu) = onnx::Identity[onnx_name="Identity_456"](%onnx::MatMul_10383)
  %onnx::MatMul_11020 : Float(384, 768, strides=[1, 384], requires_grad=0, device=cpu) = onnx::Identity[onnx_name="Identity_457"](%onnx::MatMul_10363)
  %onnx::MatMul_11019 : Float(384, 384, strides=[1, 384], requires_grad=0, device=cpu) = onnx::Identity[onnx_name="Identity_458"](%onnx::MatMul_10362)
  %onnx::Add_11018 : Float(768, strides=[1], requires_grad=0, device=cpu) = onnx::Identity[onnx_name="Identity_459"](%onnx::Add_10361)
  %onnx::Add_11016 : Float(384, strides=[1], requires_grad=0, device=cpu) = onnx::Identity[onnx_name="Identity_460"](%onnx::Add_10359)
  %onnx::MatMul_10984 : Float(384, 768, strides=[1, 384], requires_grad=0, device=cpu) = onnx::Identity[onnx_name="Identity_461"](%onnx::MatMul_10327)
  %onnx::MatMul_10983 : Float(384, 384, strides=[1, 384], requires_grad=0, device=cpu) = onnx::Identity[onnx_name="Identity_462"](%onnx::MatMul_10326)
  %onnx::Add_10982 : Float(768, strides=[1], requires_grad=0, device=cpu) = onnx::Identity[onnx_name="Identity_463"](%onnx::Add_10325)
  %onnx::Add_10980 : Float(384, strides=[1], requires_grad=0, device=cpu) = onnx::Identity[onnx_name="Identity_464"](%onnx::Add_10323)
  %onnx::MatMul_10969 : Float(384, 95, strides=[1, 384], requires_grad=0, device=cpu) = onnx::Identity[onnx_name="Identity_465"](%onnx::MatMul_10385)
  %onnx::MatMul_10968 : Float(1536, 384, strides=[1, 1536], requires_grad=0, device=cpu) = onnx::Identity[onnx_name="Identity_466"](%onnx::MatMul_10384)
  %onnx::MatMul_10967 : Float(384, 1536, strides=[1, 384], requires_grad=0, device=cpu) = onnx::Identity[onnx_name="Identity_467"](%onnx::MatMul_10383)
  %onnx::MatMul_10947 : Float(384, 768, strides=[1, 384], requires_grad=0, device=cpu) = onnx::Identity[onnx_name="Identity_468"](%onnx::MatMul_10363)
  %onnx::MatMul_10946 : Float(384, 384, strides=[1, 384], requires_grad=0, device=cpu) = onnx::Identity[onnx_name="Identity_469"](%onnx::MatMul_10362)
  %onnx::Add_10945 : Float(768, strides=[1], requires_grad=0, device=cpu) = onnx::Identity[onnx_name="Identity_470"](%onnx::Add_10361)
  %onnx::Add_10943 : Float(384, strides=[1], requires_grad=0, device=cpu) = onnx::Identity[onnx_name="Identity_471"](%onnx::Add_10359)
  %onnx::MatMul_10911 : Float(384, 768, strides=[1, 384], requires_grad=0, device=cpu) = onnx::Identity[onnx_name="Identity_472"](%onnx::MatMul_10327)
  %onnx::MatMul_10910 : Float(384, 384, strides=[1, 384], requires_grad=0, device=cpu) = onnx::Identity[onnx_name="Identity_473"](%onnx::MatMul_10326)
  %onnx::Add_10909 : Float(768, strides=[1], requires_grad=0, device=cpu) = onnx::Identity[onnx_name="Identity_474"](%onnx::Add_10325)
  %onnx::Add_10907 : Float(384, strides=[1], requires_grad=0, device=cpu) = onnx::Identity[onnx_name="Identity_475"](%onnx::Add_10323)
  %onnx::MatMul_10896 : Float(384, 95, strides=[1, 384], requires_grad=0, device=cpu) = onnx::Identity[onnx_name="Identity_476"](%onnx::MatMul_10385)
  %onnx::MatMul_10895 : Float(1536, 384, strides=[1, 1536], requires_grad=0, device=cpu) = onnx::Identity[onnx_name="Identity_477"](%onnx::MatMul_10384)
  %onnx::MatMul_10894 : Float(384, 1536, strides=[1, 384], requires_grad=0, device=cpu) = onnx::Identity[onnx_name="Identity_478"](%onnx::MatMul_10383)
  %onnx::MatMul_10874 : Float(384, 768, strides=[1, 384], requires_grad=0, device=cpu) = onnx::Identity[onnx_name="Identity_479"](%onnx::MatMul_10363)
  %onnx::MatMul_10873 : Float(384, 384, strides=[1, 384], requires_grad=0, device=cpu) = onnx::Identity[onnx_name="Identity_480"](%onnx::MatMul_10362)
  %onnx::Add_10872 : Float(768, strides=[1], requires_grad=0, device=cpu) = onnx::Identity[onnx_name="Identity_481"](%onnx::Add_10361)
  %onnx::Add_10870 : Float(384, strides=[1], requires_grad=0, device=cpu) = onnx::Identity[onnx_name="Identity_482"](%onnx::Add_10359)
  %onnx::MatMul_10838 : Float(384, 768, strides=[1, 384], requires_grad=0, device=cpu) = onnx::Identity[onnx_name="Identity_483"](%onnx::MatMul_10327)
  %onnx::MatMul_10837 : Float(384, 384, strides=[1, 384], requires_grad=0, device=cpu) = onnx::Identity[onnx_name="Identity_484"](%onnx::MatMul_10326)
  %onnx::Add_10836 : Float(768, strides=[1], requires_grad=0, device=cpu) = onnx::Identity[onnx_name="Identity_485"](%onnx::Add_10325)
  %onnx::Add_10834 : Float(384, strides=[1], requires_grad=0, device=cpu) = onnx::Identity[onnx_name="Identity_486"](%onnx::Add_10323)
  %onnx::MatMul_10823 : Float(384, 95, strides=[1, 384], requires_grad=0, device=cpu) = onnx::Identity[onnx_name="Identity_487"](%onnx::MatMul_10385)
  %onnx::MatMul_10822 : Float(1536, 384, strides=[1, 1536], requires_grad=0, device=cpu) = onnx::Identity[onnx_name="Identity_488"](%onnx::MatMul_10384)
  %onnx::MatMul_10821 : Float(384, 1536, strides=[1, 384], requires_grad=0, device=cpu) = onnx::Identity[onnx_name="Identity_489"](%onnx::MatMul_10383)
  %onnx::MatMul_10801 : Float(384, 768, strides=[1, 384], requires_grad=0, device=cpu) = onnx::Identity[onnx_name="Identity_490"](%onnx::MatMul_10363)
  %onnx::MatMul_10800 : Float(384, 384, strides=[1, 384], requires_grad=0, device=cpu) = onnx::Identity[onnx_name="Identity_491"](%onnx::MatMul_10362)
  %onnx::Add_10799 : Float(768, strides=[1], requires_grad=0, device=cpu) = onnx::Identity[onnx_name="Identity_492"](%onnx::Add_10361)
  %onnx::Add_10797 : Float(384, strides=[1], requires_grad=0, device=cpu) = onnx::Identity[onnx_name="Identity_493"](%onnx::Add_10359)
  %onnx::MatMul_10765 : Float(384, 768, strides=[1, 384], requires_grad=0, device=cpu) = onnx::Identity[onnx_name="Identity_494"](%onnx::MatMul_10327)
  %onnx::MatMul_10764 : Float(384, 384, strides=[1, 384], requires_grad=0, device=cpu) = onnx::Identity[onnx_name="Identity_495"](%onnx::MatMul_10326)
  %onnx::Add_10763 : Float(768, strides=[1], requires_grad=0, device=cpu) = onnx::Identity[onnx_name="Identity_496"](%onnx::Add_10325)
  %onnx::Add_10761 : Float(384, strides=[1], requires_grad=0, device=cpu) = onnx::Identity[onnx_name="Identity_497"](%onnx::Add_10323)
  %onnx::MatMul_10750 : Float(384, 95, strides=[1, 384], requires_grad=0, device=cpu) = onnx::Identity[onnx_name="Identity_498"](%onnx::MatMul_10385)
  %onnx::MatMul_10749 : Float(1536, 384, strides=[1, 1536], requires_grad=0, device=cpu) = onnx::Identity[onnx_name="Identity_499"](%onnx::MatMul_10384)
  %onnx::MatMul_10748 : Float(384, 1536, strides=[1, 384], requires_grad=0, device=cpu) = onnx::Identity[onnx_name="Identity_500"](%onnx::MatMul_10383)
  %onnx::MatMul_10728 : Float(384, 768, strides=[1, 384], requires_grad=0, device=cpu) = onnx::Identity[onnx_name="Identity_501"](%onnx::MatMul_10363)
  %onnx::MatMul_10727 : Float(384, 384, strides=[1, 384], requires_grad=0, device=cpu) = onnx::Identity[onnx_name="Identity_502"](%onnx::MatMul_10362)
  %onnx::Add_10726 : Float(768, strides=[1], requires_grad=0, device=cpu) = onnx::Identity[onnx_name="Identity_503"](%onnx::Add_10361)
  %onnx::Add_10724 : Float(384, strides=[1], requires_grad=0, device=cpu) = onnx::Identity[onnx_name="Identity_504"](%onnx::Add_10359)
  %onnx::MatMul_10692 : Float(384, 768, strides=[1, 384], requires_grad=0, device=cpu) = onnx::Identity[onnx_name="Identity_505"](%onnx::MatMul_10327)
  %onnx::MatMul_10691 : Float(384, 384, strides=[1, 384], requires_grad=0, device=cpu) = onnx::Identity[onnx_name="Identity_506"](%onnx::MatMul_10326)
  %onnx::Add_10690 : Float(768, strides=[1], requires_grad=0, device=cpu) = onnx::Identity[onnx_name="Identity_507"](%onnx::Add_10325)
  %onnx::Add_10688 : Float(384, strides=[1], requires_grad=0, device=cpu) = onnx::Identity[onnx_name="Identity_508"](%onnx::Add_10323)
  %onnx::MatMul_10677 : Float(384, 95, strides=[1, 384], requires_grad=0, device=cpu) = onnx::Identity[onnx_name="Identity_509"](%onnx::MatMul_10385)
  %onnx::MatMul_10676 : Float(1536, 384, strides=[1, 1536], requires_grad=0, device=cpu) = onnx::Identity[onnx_name="Identity_510"](%onnx::MatMul_10384)
  %onnx::MatMul_10675 : Float(384, 1536, strides=[1, 384], requires_grad=0, device=cpu) = onnx::Identity[onnx_name="Identity_511"](%onnx::MatMul_10383)
  %onnx::MatMul_10655 : Float(384, 768, strides=[1, 384], requires_grad=0, device=cpu) = onnx::Identity[onnx_name="Identity_512"](%onnx::MatMul_10363)
  %onnx::MatMul_10654 : Float(384, 384, strides=[1, 384], requires_grad=0, device=cpu) = onnx::Identity[onnx_name="Identity_513"](%onnx::MatMul_10362)
  %onnx::Add_10653 : Float(768, strides=[1], requires_grad=0, device=cpu) = onnx::Identity[onnx_name="Identity_514"](%onnx::Add_10361)
  %onnx::Add_10651 : Float(384, strides=[1], requires_grad=0, device=cpu) = onnx::Identity[onnx_name="Identity_515"](%onnx::Add_10359)
  %onnx::MatMul_10619 : Float(384, 768, strides=[1, 384], requires_grad=0, device=cpu) = onnx::Identity[onnx_name="Identity_516"](%onnx::MatMul_10327)
  %onnx::MatMul_10618 : Float(384, 384, strides=[1, 384], requires_grad=0, device=cpu) = onnx::Identity[onnx_name="Identity_517"](%onnx::MatMul_10326)
  %onnx::Add_10617 : Float(768, strides=[1], requires_grad=0, device=cpu) = onnx::Identity[onnx_name="Identity_518"](%onnx::Add_10325)
  %onnx::Add_10615 : Float(384, strides=[1], requires_grad=0, device=cpu) = onnx::Identity[onnx_name="Identity_519"](%onnx::Add_10323)
  %onnx::MatMul_10604 : Float(384, 95, strides=[1, 384], requires_grad=0, device=cpu) = onnx::Identity[onnx_name="Identity_520"](%onnx::MatMul_10385)
  %onnx::MatMul_10603 : Float(1536, 384, strides=[1, 1536], requires_grad=0, device=cpu) = onnx::Identity[onnx_name="Identity_521"](%onnx::MatMul_10384)
  %onnx::MatMul_10602 : Float(384, 1536, strides=[1, 384], requires_grad=0, device=cpu) = onnx::Identity[onnx_name="Identity_522"](%onnx::MatMul_10383)
  %onnx::MatMul_10582 : Float(384, 768, strides=[1, 384], requires_grad=0, device=cpu) = onnx::Identity[onnx_name="Identity_523"](%onnx::MatMul_10363)
  %onnx::MatMul_10581 : Float(384, 384, strides=[1, 384], requires_grad=0, device=cpu) = onnx::Identity[onnx_name="Identity_524"](%onnx::MatMul_10362)
  %onnx::Add_10580 : Float(768, strides=[1], requires_grad=0, device=cpu) = onnx::Identity[onnx_name="Identity_525"](%onnx::Add_10361)
  %onnx::Add_10578 : Float(384, strides=[1], requires_grad=0, device=cpu) = onnx::Identity[onnx_name="Identity_526"](%onnx::Add_10359)
  %onnx::MatMul_10546 : Float(384, 768, strides=[1, 384], requires_grad=0, device=cpu) = onnx::Identity[onnx_name="Identity_527"](%onnx::MatMul_10327)
  %onnx::MatMul_10545 : Float(384, 384, strides=[1, 384], requires_grad=0, device=cpu) = onnx::Identity[onnx_name="Identity_528"](%onnx::MatMul_10326)
  %onnx::Add_10544 : Float(768, strides=[1], requires_grad=0, device=cpu) = onnx::Identity[onnx_name="Identity_529"](%onnx::Add_10325)
  %onnx::Add_10542 : Float(384, strides=[1], requires_grad=0, device=cpu) = onnx::Identity[onnx_name="Identity_530"](%onnx::Add_10323)
  %onnx::MatMul_10531 : Float(384, 95, strides=[1, 384], requires_grad=0, device=cpu) = onnx::Identity[onnx_name="Identity_531"](%onnx::MatMul_10385)
  %onnx::MatMul_10530 : Float(1536, 384, strides=[1, 1536], requires_grad=0, device=cpu) = onnx::Identity[onnx_name="Identity_532"](%onnx::MatMul_10384)
  %onnx::MatMul_10529 : Float(384, 1536, strides=[1, 384], requires_grad=0, device=cpu) = onnx::Identity[onnx_name="Identity_533"](%onnx::MatMul_10383)
  %onnx::MatMul_10509 : Float(384, 768, strides=[1, 384], requires_grad=0, device=cpu) = onnx::Identity[onnx_name="Identity_534"](%onnx::MatMul_10363)
  %onnx::MatMul_10508 : Float(384, 384, strides=[1, 384], requires_grad=0, device=cpu) = onnx::Identity[onnx_name="Identity_535"](%onnx::MatMul_10362)
  %onnx::Add_10507 : Float(768, strides=[1], requires_grad=0, device=cpu) = onnx::Identity[onnx_name="Identity_536"](%onnx::Add_10361)
  %onnx::Add_10505 : Float(384, strides=[1], requires_grad=0, device=cpu) = onnx::Identity[onnx_name="Identity_537"](%onnx::Add_10359)
  %onnx::MatMul_10473 : Float(384, 768, strides=[1, 384], requires_grad=0, device=cpu) = onnx::Identity[onnx_name="Identity_538"](%onnx::MatMul_10327)
  %onnx::MatMul_10472 : Float(384, 384, strides=[1, 384], requires_grad=0, device=cpu) = onnx::Identity[onnx_name="Identity_539"](%onnx::MatMul_10326)
  %onnx::Add_10471 : Float(768, strides=[1], requires_grad=0, device=cpu) = onnx::Identity[onnx_name="Identity_540"](%onnx::Add_10325)
  %onnx::Add_10469 : Float(384, strides=[1], requires_grad=0, device=cpu) = onnx::Identity[onnx_name="Identity_541"](%onnx::Add_10323)
  %onnx::MatMul_10458 : Float(384, 95, strides=[1, 384], requires_grad=0, device=cpu) = onnx::Identity[onnx_name="Identity_542"](%onnx::MatMul_10385)
  %onnx::MatMul_10457 : Float(1536, 384, strides=[1, 1536], requires_grad=0, device=cpu) = onnx::Identity[onnx_name="Identity_543"](%onnx::MatMul_10384)
  %onnx::MatMul_10456 : Float(384, 1536, strides=[1, 384], requires_grad=0, device=cpu) = onnx::Identity[onnx_name="Identity_544"](%onnx::MatMul_10383)
  %onnx::MatMul_10436 : Float(384, 768, strides=[1, 384], requires_grad=0, device=cpu) = onnx::Identity[onnx_name="Identity_545"](%onnx::MatMul_10363)
  %onnx::MatMul_10435 : Float(384, 384, strides=[1, 384], requires_grad=0, device=cpu) = onnx::Identity[onnx_name="Identity_546"](%onnx::MatMul_10362)
  %onnx::Add_10434 : Float(768, strides=[1], requires_grad=0, device=cpu) = onnx::Identity[onnx_name="Identity_547"](%onnx::Add_10361)
  %onnx::Add_10432 : Float(384, strides=[1], requires_grad=0, device=cpu) = onnx::Identity[onnx_name="Identity_548"](%onnx::Add_10359)
  %onnx::MatMul_10400 : Float(384, 768, strides=[1, 384], requires_grad=0, device=cpu) = onnx::Identity[onnx_name="Identity_549"](%onnx::MatMul_10327)
  %onnx::MatMul_10399 : Float(384, 384, strides=[1, 384], requires_grad=0, device=cpu) = onnx::Identity[onnx_name="Identity_550"](%onnx::MatMul_10326)
  %onnx::Add_10398 : Float(768, strides=[1], requires_grad=0, device=cpu) = onnx::Identity[onnx_name="Identity_551"](%onnx::Add_10325)
  %onnx::Add_10396 : Float(384, strides=[1], requires_grad=0, device=cpu) = onnx::Identity[onnx_name="Identity_552"](%onnx::Add_10323)
  %onnx::Shape_177 : Float(1, 384, 8, 16, strides=[49152, 128, 16, 1], requires_grad=0, device=cpu) = onnx::Conv[dilations=[1, 1], group=1, kernel_shape=[4, 8], pads=[0, 0, 0, 0], strides=[4, 8], onnx_name="Conv_553"](%input, %encoder.patch_embed.proj.weight, %encoder.patch_embed.proj.bias) # /home/ashishpapanai/miniconda3/envs/parseq/lib/python3.7/site-packages/torch/nn/modules/conv.py:454:0
  %onnx::Slice_178 : Long(4, strides=[1], device=cpu) = onnx::Shape[onnx_name="Shape_554"](%onnx::Shape_177) # /home/ashishpapanai/miniconda3/envs/parseq/lib/python3.7/site-packages/timm/models/layers/patch_embed.py:46:0
  %onnx::Slice_179 : Long(1, strides=[1], device=cpu) = onnx::Constant[value={0}, onnx_name="Constant_555"]() # /home/ashishpapanai/miniconda3/envs/parseq/lib/python3.7/site-packages/timm/models/layers/patch_embed.py:46:0
  %onnx::Slice_180 : Long(1, strides=[1], device=cpu) = onnx::Constant[value={0}, onnx_name="Constant_556"]() # /home/ashishpapanai/miniconda3/envs/parseq/lib/python3.7/site-packages/timm/models/layers/patch_embed.py:46:0
  %onnx::Slice_181 : Long(1, strides=[1], device=cpu) = onnx::Constant[value={2}, onnx_name="Constant_557"]() # /home/ashishpapanai/miniconda3/envs/parseq/lib/python3.7/site-packages/timm/models/layers/patch_embed.py:46:0
  %onnx::Concat_182 : Long(2, strides=[1], device=cpu) = onnx::Slice[onnx_name="Slice_558"](%onnx::Slice_178, %onnx::Slice_180, %onnx::Slice_181, %onnx::Slice_179) # /home/ashishpapanai/miniconda3/envs/parseq/lib/python3.7/site-packages/timm/models/layers/patch_embed.py:46:0
  %onnx::Concat_183 : Long(1, strides=[1], requires_grad=0, device=cpu) = onnx::Constant[value={-1}, onnx_name="Constant_559"]() # /home/ashishpapanai/miniconda3/envs/parseq/lib/python3.7/site-packages/timm/models/layers/patch_embed.py:46:0
  %onnx::Reshape_184 : Long(3, strides=[1], device=cpu) = onnx::Concat[axis=0, onnx_name="Concat_560"](%onnx::Concat_182, %onnx::Concat_183) # /home/ashishpapanai/miniconda3/envs/parseq/lib/python3.7/site-packages/timm/models/layers/patch_embed.py:46:0
  %onnx::Transpose_185 : Float(1, 384, 128, strides=[49152, 128, 1], requires_grad=0, device=cpu) = onnx::Reshape[allowzero=0, onnx_name="Reshape_561"](%onnx::Shape_177, %onnx::Reshape_184) # /home/ashishpapanai/miniconda3/envs/parseq/lib/python3.7/site-packages/timm/models/layers/patch_embed.py:46:0
  %x : Float(1, 128, 384, strides=[49152, 1, 128], requires_grad=0, device=cpu) = onnx::Transpose[perm=[0, 2, 1], onnx_name="Transpose_562"](%onnx::Transpose_185) # /home/ashishpapanai/miniconda3/envs/parseq/lib/python3.7/site-packages/timm/models/layers/patch_embed.py:46:0
  %input.1 : Float(1, 128, 384, strides=[49152, 1, 128], requires_grad=0, device=cpu) = onnx::Add[onnx_name="Add_563"](%x, %encoder.pos_embed) # /home/ashishpapanai/miniconda3/envs/parseq/lib/python3.7/site-packages/timm/models/vision_transformer.py:528:0
  %onnx::Sub_188 : Float(1, 128, 1, strides=[128, 1, 1], device=cpu) = onnx::ReduceMean[axes=[-1], onnx_name="ReduceMean_564"](%input.1) # /home/ashishpapanai/miniconda3/envs/parseq/lib/python3.7/site-packages/torch/nn/functional.py:2503:0
  %onnx::Pow_189 : Float(1, 128, 384, strides=[49152, 384, 1], device=cpu) = onnx::Sub[onnx_name="Sub_565"](%input.1, %onnx::Sub_188) # /home/ashishpapanai/miniconda3/envs/parseq/lib/python3.7/site-packages/torch/nn/functional.py:2503:0
  %onnx::Pow_190 : Float(requires_grad=0, device=cpu) = onnx::Constant[value={2}, onnx_name="Constant_566"]() # /home/ashishpapanai/miniconda3/envs/parseq/lib/python3.7/site-packages/torch/nn/functional.py:2503:0
  %onnx::ReduceMean_191 : Float(1, 128, 384, strides=[49152, 384, 1], device=cpu) = onnx::Pow[onnx_name="Pow_567"](%onnx::Pow_189, %onnx::Pow_190) # /home/ashishpapanai/miniconda3/envs/parseq/lib/python3.7/site-packages/torch/nn/functional.py:2503:0
  %onnx::Add_192 : Float(1, 128, 1, strides=[128, 1, 1], device=cpu) = onnx::ReduceMean[axes=[-1], onnx_name="ReduceMean_568"](%onnx::ReduceMean_191) # /home/ashishpapanai/miniconda3/envs/parseq/lib/python3.7/site-packages/torch/nn/functional.py:2503:0
  %onnx::Add_193 : Float(requires_grad=0, device=cpu) = onnx::Constant[value={1e-06}, onnx_name="Constant_569"]() # /home/ashishpapanai/miniconda3/envs/parseq/lib/python3.7/site-packages/torch/nn/functional.py:2503:0
  %onnx::Sqrt_194 : Float(1, 128, 1, strides=[128, 1, 1], device=cpu) = onnx::Add[onnx_name="Add_570"](%onnx::Add_192, %onnx::Add_193) # /home/ashishpapanai/miniconda3/envs/parseq/lib/python3.7/site-packages/torch/nn/functional.py:2503:0
  %onnx::Div_195 : Float(1, 128, 1, strides=[128, 1, 1], device=cpu) = onnx::Sqrt[onnx_name="Sqrt_571"](%onnx::Sqrt_194) # /home/ashishpapanai/miniconda3/envs/parseq/lib/python3.7/site-packages/torch/nn/functional.py:2503:0
  %onnx::Mul_196 : Float(1, 128, 384, strides=[49152, 384, 1], device=cpu) = onnx::Div[onnx_name="Div_572"](%onnx::Pow_189, %onnx::Div_195) # /home/ashishpapanai/miniconda3/envs/parseq/lib/python3.7/site-packages/torch/nn/functional.py:2503:0
  %onnx::Add_197 : Float(1, 128, 384, strides=[49152, 384, 1], device=cpu) = onnx::Mul[onnx_name="Mul_573"](%onnx::Mul_196, %encoder.blocks.0.norm1.weight) # /home/ashishpapanai/miniconda3/envs/parseq/lib/python3.7/site-packages/torch/nn/functional.py:2503:0
  %onnx::MatMul_198 : Float(1, 128, 384, strides=[49152, 384, 1], requires_grad=0, device=cpu) = onnx::Add[onnx_name="Add_574"](%onnx::Add_197, %encoder.blocks.0.norm1.bias) # /home/ashishpapanai/miniconda3/envs/parseq/lib/python3.7/site-packages/torch/nn/functional.py:2503:0
  %onnx::Add_203 : Float(1, 128, 1152, strides=[147456, 1152, 1], device=cpu) = onnx::MatMul[onnx_name="MatMul_575"](%onnx::MatMul_198, %onnx::MatMul_10138) # /home/ashishpapanai/miniconda3/envs/parseq/lib/python3.7/site-packages/torch/nn/modules/linear.py:114:0
  %onnx::Reshape_204 : Float(1, 128, 1152, strides=[147456, 1152, 1], requires_grad=0, device=cpu) = onnx::Add[onnx_name="Add_576"](%encoder.blocks.0.attn.qkv.bias, %onnx::Add_203) # /home/ashishpapanai/miniconda3/envs/parseq/lib/python3.7/site-packages/torch/nn/modules/linear.py:114:0
  %onnx::Transpose_219 : Float(1, 128, 3, 6, 64, strides=[147456, 1152, 384, 64, 1], requires_grad=0, device=cpu) = onnx::Reshape[allowzero=0, onnx_name="Reshape_577"](%onnx::Reshape_204, %onnx::Reshape_10144) # /home/ashishpapanai/miniconda3/envs/parseq/lib/python3.7/site-packages/timm/models/vision_transformer.py:217:0
  %onnx::Split_220 : Float(3, 1, 6, 128, 64, strides=[384, 147456, 64, 1152, 1], requires_grad=0, device=cpu) = onnx::Transpose[perm=[2, 0, 3, 1, 4], onnx_name="Transpose_578"](%onnx::Transpose_219) # /home/ashishpapanai/miniconda3/envs/parseq/lib/python3.7/site-packages/timm/models/vision_transformer.py:217:0
  %onnx::Split_221 : Long(3, strides=[1], device=cpu) = onnx::Constant[value= 1  1  1 [ CPULongType{3} ], onnx_name="Constant_579"]() # /home/ashishpapanai/miniconda3/envs/parseq/lib/python3.7/site-packages/timm/models/vision_transformer.py:218:0
  %onnx::Squeeze_222 : Float(1, 1, 6, 128, 64, strides=[49152, 49152, 8192, 64, 1], device=cpu), %onnx::Squeeze_223 : Float(1, 1, 6, 128, 64, strides=[49152, 49152, 8192, 64, 1], device=cpu), %onnx::Squeeze_224 : Float(1, 1, 6, 128, 64, strides=[49152, 49152, 8192, 64, 1], device=cpu) = onnx::Split[axis=0, onnx_name="Split_580"](%onnx::Split_220, %onnx::Split_221) # /home/ashishpapanai/miniconda3/envs/parseq/lib/python3.7/site-packages/timm/models/vision_transformer.py:218:0
  %onnx::Squeeze_225 : Long(1, strides=[1], device=cpu) = onnx::Constant[value={0}, onnx_name="Constant_581"]() # /home/ashishpapanai/miniconda3/envs/parseq/lib/python3.7/site-packages/timm/models/vision_transformer.py:218:0
  %onnx::MatMul_226 : Float(1, 6, 128, 64, strides=[147456, 64, 1152, 1], requires_grad=0, device=cpu) = onnx::Squeeze[onnx_name="Squeeze_582"](%onnx::Squeeze_222, %onnx::Squeeze_225) # /home/ashishpapanai/miniconda3/envs/parseq/lib/python3.7/site-packages/timm/models/vision_transformer.py:218:0
  %onnx::Squeeze_227 : Long(1, strides=[1], device=cpu) = onnx::Constant[value={0}, onnx_name="Constant_583"]() # /home/ashishpapanai/miniconda3/envs/parseq/lib/python3.7/site-packages/timm/models/vision_transformer.py:218:0
  %onnx::Transpose_228 : Float(1, 6, 128, 64, strides=[147456, 64, 1152, 1], requires_grad=0, device=cpu) = onnx::Squeeze[onnx_name="Squeeze_584"](%onnx::Squeeze_223, %onnx::Squeeze_227) # /home/ashishpapanai/miniconda3/envs/parseq/lib/python3.7/site-packages/timm/models/vision_transformer.py:218:0
  %onnx::Squeeze_229 : Long(1, strides=[1], device=cpu) = onnx::Constant[value={0}, onnx_name="Constant_585"]() # /home/ashishpapanai/miniconda3/envs/parseq/lib/python3.7/site-packages/timm/models/vision_transformer.py:218:0
  %onnx::MatMul_230 : Float(1, 6, 128, 64, strides=[147456, 64, 1152, 1], requires_grad=0, device=cpu) = onnx::Squeeze[onnx_name="Squeeze_586"](%onnx::Squeeze_224, %onnx::Squeeze_229) # /home/ashishpapanai/miniconda3/envs/parseq/lib/python3.7/site-packages/timm/models/vision_transformer.py:218:0
  %onnx::MatMul_231 : Float(1, 6, 64, 128, strides=[147456, 64, 1, 1152], requires_grad=0, device=cpu) = onnx::Transpose[perm=[0, 1, 3, 2], onnx_name="Transpose_587"](%onnx::Transpose_228) # /home/ashishpapanai/miniconda3/envs/parseq/lib/python3.7/site-packages/timm/models/vision_transformer.py:220:0
  %onnx::Mul_232 : Float(1, 6, 128, 128, strides=[98304, 16384, 128, 1], requires_grad=0, device=cpu) = onnx::MatMul[onnx_name="MatMul_588"](%onnx::MatMul_226, %onnx::MatMul_231) # /home/ashishpapanai/miniconda3/envs/parseq/lib/python3.7/site-packages/timm/models/vision_transformer.py:220:0
  %onnx::Mul_233 : Float(requires_grad=0, device=cpu) = onnx::Constant[value={0.125}, onnx_name="Constant_589"]()
  %onnx::Softmax_234 : Float(1, 6, 128, 128, strides=[98304, 16384, 128, 1], requires_grad=0, device=cpu) = onnx::Mul[onnx_name="Mul_590"](%onnx::Mul_232, %onnx::Mul_233) # /home/ashishpapanai/miniconda3/envs/parseq/lib/python3.7/site-packages/timm/models/vision_transformer.py:220:0
  %input.4 : Float(1, 6, 128, 128, strides=[98304, 16384, 128, 1], requires_grad=0, device=cpu) = onnx::Softmax[axis=-1, onnx_name="Softmax_591"](%onnx::Softmax_234) # /home/ashishpapanai/miniconda3/envs/parseq/lib/python3.7/site-packages/timm/models/vision_transformer.py:221:0
  %onnx::Transpose_236 : Float(1, 6, 128, 64, strides=[49152, 8192, 64, 1], requires_grad=0, device=cpu) = onnx::MatMul[onnx_name="MatMul_592"](%input.4, %onnx::MatMul_230) # /home/ashishpapanai/miniconda3/envs/parseq/lib/python3.7/site-packages/timm/models/vision_transformer.py:224:0
  %onnx::Reshape_237 : Float(1, 128, 6, 64, strides=[49152, 64, 8192, 1], requires_grad=0, device=cpu) = onnx::Transpose[perm=[0, 2, 1, 3], onnx_name="Transpose_593"](%onnx::Transpose_236) # /home/ashishpapanai/miniconda3/envs/parseq/lib/python3.7/site-packages/timm/models/vision_transformer.py:224:0
  %onnx::MatMul_245 : Float(1, 128, 384, strides=[49152, 384, 1], requires_grad=0, device=cpu) = onnx::Reshape[allowzero=0, onnx_name="Reshape_594"](%onnx::Reshape_237, %onnx::Reshape_10148) # /home/ashishpapanai/miniconda3/envs/parseq/lib/python3.7/site-packages/timm/models/vision_transformer.py:224:0
  %onnx::Add_247 : Float(1, 128, 384, strides=[49152, 384, 1], device=cpu) = onnx::MatMul[onnx_name="MatMul_595"](%onnx::MatMul_245, %onnx::MatMul_10149) # /home/ashishpapanai/miniconda3/envs/parseq/lib/python3.7/site-packages/torch/nn/modules/linear.py:114:0
  %input.8 : Float(1, 128, 384, strides=[49152, 384, 1], requires_grad=0, device=cpu) = onnx::Add[onnx_name="Add_596"](%encoder.blocks.0.attn.proj.bias, %onnx::Add_247) # /home/ashishpapanai/miniconda3/envs/parseq/lib/python3.7/site-packages/torch/nn/modules/linear.py:114:0
  %input.12 : Float(1, 128, 384, strides=[49152, 1, 128], requires_grad=0, device=cpu) = onnx::Add[onnx_name="Add_597"](%input.1, %input.8) # /home/ashishpapanai/miniconda3/envs/parseq/lib/python3.7/site-packages/timm/models/vision_transformer.py:268:0
  %onnx::Sub_250 : Float(1, 128, 1, strides=[128, 1, 1], device=cpu) = onnx::ReduceMean[axes=[-1], onnx_name="ReduceMean_598"](%input.12) # /home/ashishpapanai/miniconda3/envs/parseq/lib/python3.7/site-packages/torch/nn/functional.py:2503:0
  %onnx::Pow_251 : Float(1, 128, 384, strides=[49152, 384, 1], device=cpu) = onnx::Sub[onnx_name="Sub_599"](%input.12, %onnx::Sub_250) # /home/ashishpapanai/miniconda3/envs/parseq/lib/python3.7/site-packages/torch/nn/functional.py:2503:0
  %onnx::Pow_252 : Float(requires_grad=0, device=cpu) = onnx::Constant[value={2}, onnx_name="Constant_600"]() # /home/ashishpapanai/miniconda3/envs/parseq/lib/python3.7/site-packages/torch/nn/functional.py:2503:0
  %onnx::ReduceMean_253 : Float(1, 128, 384, strides=[49152, 384, 1], device=cpu) = onnx::Pow[onnx_name="Pow_601"](%onnx::Pow_251, %onnx::Pow_252) # /home/ashishpapanai/miniconda3/envs/parseq/lib/python3.7/site-packages/torch/nn/functional.py:2503:0
  %onnx::Add_254 : Float(1, 128, 1, strides=[128, 1, 1], device=cpu) = onnx::ReduceMean[axes=[-1], onnx_name="ReduceMean_602"](%onnx::ReduceMean_253) # /home/ashishpapanai/miniconda3/envs/parseq/lib/python3.7/site-packages/torch/nn/functional.py:2503:0
  %onnx::Add_255 : Float(requires_grad=0, device=cpu) = onnx::Constant[value={1e-06}, onnx_name="Constant_603"]() # /home/ashishpapanai/miniconda3/envs/parseq/lib/python3.7/site-packages/torch/nn/functional.py:2503:0
  %onnx::Sqrt_256 : Float(1, 128, 1, strides=[128, 1, 1], device=cpu) = onnx::Add[onnx_name="Add_604"](%onnx::Add_254, %onnx::Add_255) # /home/ashishpapanai/miniconda3/envs/parseq/lib/python3.7/site-packages/torch/nn/functional.py:2503:0
  %onnx::Div_257 : Float(1, 128, 1, strides=[128, 1, 1], device=cpu) = onnx::Sqrt[onnx_name="Sqrt_605"](%onnx::Sqrt_256) # /home/ashishpapanai/miniconda3/envs/parseq/lib/python3.7/site-packages/torch/nn/functional.py:2503:0
  %onnx::Mul_258 : Float(1, 128, 384, strides=[49152, 384, 1], device=cpu) = onnx::Div[onnx_name="Div_606"](%onnx::Pow_251, %onnx::Div_257) # /home/ashishpapanai/miniconda3/envs/parseq/lib/python3.7/site-packages/torch/nn/functional.py:2503:0
  %onnx::Add_259 : Float(1, 128, 384, strides=[49152, 384, 1], device=cpu) = onnx::Mul[onnx_name="Mul_607"](%onnx::Mul_258, %encoder.blocks.0.norm2.weight) # /home/ashishpapanai/miniconda3/envs/parseq/lib/python3.7/site-packages/torch/nn/functional.py:2503:0
  %onnx::MatMul_260 : Float(1, 128, 384, strides=[49152, 384, 1], requires_grad=0, device=cpu) = onnx::Add[onnx_name="Add_608"](%onnx::Add_259, %encoder.blocks.0.norm2.bias) # /home/ashishpapanai/miniconda3/envs/parseq/lib/python3.7/site-packages/torch/nn/functional.py:2503:0
  %onnx::Add_262 : Float(1, 128, 1536, strides=[196608, 1536, 1], device=cpu) = onnx::MatMul[onnx_name="MatMul_609"](%onnx::MatMul_260, %onnx::MatMul_10150) # /home/ashishpapanai/miniconda3/envs/parseq/lib/python3.7/site-packages/torch/nn/modules/linear.py:114:0
  %onnx::Div_263 : Float(1, 128, 1536, strides=[196608, 1536, 1], requires_grad=0, device=cpu) = onnx::Add[onnx_name="Add_610"](%encoder.blocks.0.mlp.fc1.bias, %onnx::Add_262) # /home/ashishpapanai/miniconda3/envs/parseq/lib/python3.7/site-packages/torch/nn/modules/linear.py:114:0
  %onnx::Div_264 : Float(requires_grad=0, device=cpu) = onnx::Constant[value={1.41421}, onnx_name="Constant_611"]() # /home/ashishpapanai/miniconda3/envs/parseq/lib/python3.7/site-packages/torch/nn/modules/activation.py:681:0
  %onnx::Erf_265 : Float(1, 128, 1536, strides=[196608, 1536, 1], device=cpu) = onnx::Div[onnx_name="Div_612"](%onnx::Div_263, %onnx::Div_264) # /home/ashishpapanai/miniconda3/envs/parseq/lib/python3.7/site-packages/torch/nn/modules/activation.py:681:0
  %onnx::Add_266 : Float(1, 128, 1536, strides=[196608, 1536, 1], device=cpu) = onnx::Erf[onnx_name="Erf_613"](%onnx::Erf_265) # /home/ashishpapanai/miniconda3/envs/parseq/lib/python3.7/site-packages/torch/nn/modules/activation.py:681:0
  %onnx::Add_267 : Float(requires_grad=0, device=cpu) = onnx::Constant[value={1}, onnx_name="Constant_614"]() # /home/ashishpapanai/miniconda3/envs/parseq/lib/python3.7/site-packages/torch/nn/modules/activation.py:681:0
  %onnx::Mul_268 : Float(1, 128, 1536, strides=[196608, 1536, 1], device=cpu) = onnx::Add[onnx_name="Add_615"](%onnx::Add_266, %onnx::Add_267) # /home/ashishpapanai/miniconda3/envs/parseq/lib/python3.7/site-packages/torch/nn/modules/activation.py:681:0
  %onnx::Mul_269 : Float(1, 128, 1536, strides=[196608, 1536, 1], device=cpu) = onnx::Mul[onnx_name="Mul_616"](%onnx::Div_263, %onnx::Mul_268) # /home/ashishpapanai/miniconda3/envs/parseq/lib/python3.7/site-packages/torch/nn/modules/activation.py:681:0
  %onnx::Mul_270 : Float(requires_grad=0, device=cpu) = onnx::Constant[value={0.5}, onnx_name="Constant_617"]() # /home/ashishpapanai/miniconda3/envs/parseq/lib/python3.7/site-packages/torch/nn/modules/activation.py:681:0
  %input.16 : Float(1, 128, 1536, strides=[196608, 1536, 1], requires_grad=0, device=cpu) = onnx::Mul[onnx_name="Mul_618"](%onnx::Mul_269, %onnx::Mul_270) # /home/ashishpapanai/miniconda3/envs/parseq/lib/python3.7/site-packages/torch/nn/modules/activation.py:681:0
  %onnx::Add_273 : Float(1, 128, 384, strides=[49152, 384, 1], device=cpu) = onnx::MatMul[onnx_name="MatMul_619"](%input.16, %onnx::MatMul_10151) # /home/ashishpapanai/miniconda3/envs/parseq/lib/python3.7/site-packages/torch/nn/modules/linear.py:114:0
  %input.20 : Float(1, 128, 384, strides=[49152, 384, 1], requires_grad=0, device=cpu) = onnx::Add[onnx_name="Add_620"](%encoder.blocks.0.mlp.fc2.bias, %onnx::Add_273) # /home/ashishpapanai/miniconda3/envs/parseq/lib/python3.7/site-packages/torch/nn/modules/linear.py:114:0
  %input.24 : Float(1, 128, 384, strides=[49152, 1, 128], requires_grad=0, device=cpu) = onnx::Add[onnx_name="Add_621"](%input.12, %input.20) # /home/ashishpapanai/miniconda3/envs/parseq/lib/python3.7/site-packages/timm/models/vision_transformer.py:269:0
  %onnx::Sub_276 : Float(1, 128, 1, strides=[128, 1, 1], device=cpu) = onnx::ReduceMean[axes=[-1], onnx_name="ReduceMean_622"](%input.24) # /home/ashishpapanai/miniconda3/envs/parseq/lib/python3.7/site-packages/torch/nn/functional.py:2503:0
  %onnx::Pow_277 : Float(1, 128, 384, strides=[49152, 384, 1], device=cpu) = onnx::Sub[onnx_name="Sub_623"](%input.24, %onnx::Sub_276) # /home/ashishpapanai/miniconda3/envs/parseq/lib/python3.7/site-packages/torch/nn/functional.py:2503:0
  %onnx::Pow_278 : Float(requires_grad=0, device=cpu) = onnx::Constant[value={2}, onnx_name="Constant_624"]() # /home/ashishpapanai/miniconda3/envs/parseq/lib/python3.7/site-packages/torch/nn/functional.py:2503:0
  %onnx::ReduceMean_279 : Float(1, 128, 384, strides=[49152, 384, 1], device=cpu) = onnx::Pow[onnx_name="Pow_625"](%onnx::Pow_277, %onnx::Pow_278) # /home/ashishpapanai/miniconda3/envs/parseq/lib/python3.7/site-packages/torch/nn/functional.py:2503:0
  %onnx::Add_280 : Float(1, 128, 1, strides=[128, 1, 1], device=cpu) = onnx::ReduceMean[axes=[-1], onnx_name="ReduceMean_626"](%onnx::ReduceMean_279) # /home/ashishpapanai/miniconda3/envs/parseq/lib/python3.7/site-packages/torch/nn/functional.py:2503:0
  %onnx::Add_281 : Float(requires_grad=0, device=cpu) = onnx::Constant[value={1e-06}, onnx_name="Constant_627"]() # /home/ashishpapanai/miniconda3/envs/parseq/lib/python3.7/site-packages/torch/nn/functional.py:2503:0
  %onnx::Sqrt_282 : Float(1, 128, 1, strides=[128, 1, 1], device=cpu) = onnx::Add[onnx_name="Add_628"](%onnx::Add_280, %onnx::Add_281) # /home/ashishpapanai/miniconda3/envs/parseq/lib/python3.7/site-packages/torch/nn/functional.py:2503:0
  %onnx::Div_283 : Float(1, 128, 1, strides=[128, 1, 1], device=cpu) = onnx::Sqrt[onnx_name="Sqrt_629"](%onnx::Sqrt_282) # /home/ashishpapanai/miniconda3/envs/parseq/lib/python3.7/site-packages/torch/nn/functional.py:2503:0
  %onnx::Mul_284 : Float(1, 128, 384, strides=[49152, 384, 1], device=cpu) = onnx::Div[onnx_name="Div_630"](%onnx::Pow_277, %onnx::Div_283) # /home/ashishpapanai/miniconda3/envs/parseq/lib/python3.7/site-packages/torch/nn/functional.py:2503:0
  %onnx::Add_285 : Float(1, 128, 384, strides=[49152, 384, 1], device=cpu) = onnx::Mul[onnx_name="Mul_631"](%onnx::Mul_284, %encoder.blocks.1.norm1.weight) # /home/ashishpapanai/miniconda3/envs/parseq/lib/python3.7/site-packages/torch/nn/functional.py:2503:0
  %onnx::MatMul_286 : Float(1, 128, 384, strides=[49152, 384, 1], requires_grad=0, device=cpu) = onnx::Add[onnx_name="Add_632"](%onnx::Add_285, %encoder.blocks.1.norm1.bias) # /home/ashishpapanai/miniconda3/envs/parseq/lib/python3.7/site-packages/torch/nn/functional.py:2503:0
  %onnx::Add_291 : Float(1, 128, 1152, strides=[147456, 1152, 1], device=cpu) = onnx::MatMul[onnx_name="MatMul_633"](%onnx::MatMul_286, %onnx::MatMul_10152) # /home/ashishpapanai/miniconda3/envs/parseq/lib/python3.7/site-packages/torch/nn/modules/linear.py:114:0
  %onnx::Reshape_292 : Float(1, 128, 1152, strides=[147456, 1152, 1], requires_grad=0, device=cpu) = onnx::Add[onnx_name="Add_634"](%encoder.blocks.1.attn.qkv.bias, %onnx::Add_291) # /home/ashishpapanai/miniconda3/envs/parseq/lib/python3.7/site-packages/torch/nn/modules/linear.py:114:0
  %onnx::Transpose_307 : Float(1, 128, 3, 6, 64, strides=[147456, 1152, 384, 64, 1], requires_grad=0, device=cpu) = onnx::Reshape[allowzero=0, onnx_name="Reshape_635"](%onnx::Reshape_292, %onnx::Reshape_10158) # /home/ashishpapanai/miniconda3/envs/parseq/lib/python3.7/site-packages/timm/models/vision_transformer.py:217:0
  %onnx::Split_308 : Float(3, 1, 6, 128, 64, strides=[384, 147456, 64, 1152, 1], requires_grad=0, device=cpu) = onnx::Transpose[perm=[2, 0, 3, 1, 4], onnx_name="Transpose_636"](%onnx::Transpose_307) # /home/ashishpapanai/miniconda3/envs/parseq/lib/python3.7/site-packages/timm/models/vision_transformer.py:217:0
  %onnx::Split_309 : Long(3, strides=[1], device=cpu) = onnx::Constant[value= 1  1  1 [ CPULongType{3} ], onnx_name="Constant_637"]() # /home/ashishpapanai/miniconda3/envs/parseq/lib/python3.7/site-packages/timm/models/vision_transformer.py:218:0
  %onnx::Squeeze_310 : Float(1, 1, 6, 128, 64, strides=[49152, 49152, 8192, 64, 1], device=cpu), %onnx::Squeeze_311 : Float(1, 1, 6, 128, 64, strides=[49152, 49152, 8192, 64, 1], device=cpu), %onnx::Squeeze_312 : Float(1, 1, 6, 128, 64, strides=[49152, 49152, 8192, 64, 1], device=cpu) = onnx::Split[axis=0, onnx_name="Split_638"](%onnx::Split_308, %onnx::Split_309) # /home/ashishpapanai/miniconda3/envs/parseq/lib/python3.7/site-packages/timm/models/vision_transformer.py:218:0
  %onnx::Squeeze_313 : Long(1, strides=[1], device=cpu) = onnx::Constant[value={0}, onnx_name="Constant_639"]() # /home/ashishpapanai/miniconda3/envs/parseq/lib/python3.7/site-packages/timm/models/vision_transformer.py:218:0
  %onnx::MatMul_314 : Float(1, 6, 128, 64, strides=[147456, 64, 1152, 1], requires_grad=0, device=cpu) = onnx::Squeeze[onnx_name="Squeeze_640"](%onnx::Squeeze_310, %onnx::Squeeze_313) # /home/ashishpapanai/miniconda3/envs/parseq/lib/python3.7/site-packages/timm/models/vision_transformer.py:218:0
  %onnx::Squeeze_315 : Long(1, strides=[1], device=cpu) = onnx::Constant[value={0}, onnx_name="Constant_641"]() # /home/ashishpapanai/miniconda3/envs/parseq/lib/python3.7/site-packages/timm/models/vision_transformer.py:218:0
  %onnx::Transpose_316 : Float(1, 6, 128, 64, strides=[147456, 64, 1152, 1], requires_grad=0, device=cpu) = onnx::Squeeze[onnx_name="Squeeze_642"](%onnx::Squeeze_311, %onnx::Squeeze_315) # /home/ashishpapanai/miniconda3/envs/parseq/lib/python3.7/site-packages/timm/models/vision_transformer.py:218:0
  %onnx::Squeeze_317 : Long(1, strides=[1], device=cpu) = onnx::Constant[value={0}, onnx_name="Constant_643"]() # /home/ashishpapanai/miniconda3/envs/parseq/lib/python3.7/site-packages/timm/models/vision_transformer.py:218:0
  %onnx::MatMul_318 : Float(1, 6, 128, 64, strides=[147456, 64, 1152, 1], requires_grad=0, device=cpu) = onnx::Squeeze[onnx_name="Squeeze_644"](%onnx::Squeeze_312, %onnx::Squeeze_317) # /home/ashishpapanai/miniconda3/envs/parseq/lib/python3.7/site-packages/timm/models/vision_transformer.py:218:0
  %onnx::MatMul_319 : Float(1, 6, 64, 128, strides=[147456, 64, 1, 1152], requires_grad=0, device=cpu) = onnx::Transpose[perm=[0, 1, 3, 2], onnx_name="Transpose_645"](%onnx::Transpose_316) # /home/ashishpapanai/miniconda3/envs/parseq/lib/python3.7/site-packages/timm/models/vision_transformer.py:220:0
  %onnx::Mul_320 : Float(1, 6, 128, 128, strides=[98304, 16384, 128, 1], requires_grad=0, device=cpu) = onnx::MatMul[onnx_name="MatMul_646"](%onnx::MatMul_314, %onnx::MatMul_319) # /home/ashishpapanai/miniconda3/envs/parseq/lib/python3.7/site-packages/timm/models/vision_transformer.py:220:0
  %onnx::Mul_321 : Float(requires_grad=0, device=cpu) = onnx::Constant[value={0.125}, onnx_name="Constant_647"]()
  %onnx::Softmax_322 : Float(1, 6, 128, 128, strides=[98304, 16384, 128, 1], requires_grad=0, device=cpu) = onnx::Mul[onnx_name="Mul_648"](%onnx::Mul_320, %onnx::Mul_321) # /home/ashishpapanai/miniconda3/envs/parseq/lib/python3.7/site-packages/timm/models/vision_transformer.py:220:0
  %input.28 : Float(1, 6, 128, 128, strides=[98304, 16384, 128, 1], requires_grad=0, device=cpu) = onnx::Softmax[axis=-1, onnx_name="Softmax_649"](%onnx::Softmax_322) # /home/ashishpapanai/miniconda3/envs/parseq/lib/python3.7/site-packages/timm/models/vision_transformer.py:221:0
  %onnx::Transpose_324 : Float(1, 6, 128, 64, strides=[49152, 8192, 64, 1], requires_grad=0, device=cpu) = onnx::MatMul[onnx_name="MatMul_650"](%input.28, %onnx::MatMul_318) # /home/ashishpapanai/miniconda3/envs/parseq/lib/python3.7/site-packages/timm/models/vision_transformer.py:224:0
  %onnx::Reshape_325 : Float(1, 128, 6, 64, strides=[49152, 64, 8192, 1], requires_grad=0, device=cpu) = onnx::Transpose[perm=[0, 2, 1, 3], onnx_name="Transpose_651"](%onnx::Transpose_324) # /home/ashishpapanai/miniconda3/envs/parseq/lib/python3.7/site-packages/timm/models/vision_transformer.py:224:0
  %onnx::MatMul_333 : Float(1, 128, 384, strides=[49152, 384, 1], requires_grad=0, device=cpu) = onnx::Reshape[allowzero=0, onnx_name="Reshape_652"](%onnx::Reshape_325, %onnx::Reshape_10162) # /home/ashishpapanai/miniconda3/envs/parseq/lib/python3.7/site-packages/timm/models/vision_transformer.py:224:0
  %onnx::Add_335 : Float(1, 128, 384, strides=[49152, 384, 1], device=cpu) = onnx::MatMul[onnx_name="MatMul_653"](%onnx::MatMul_333, %onnx::MatMul_10163) # /home/ashishpapanai/miniconda3/envs/parseq/lib/python3.7/site-packages/torch/nn/modules/linear.py:114:0
  %input.32 : Float(1, 128, 384, strides=[49152, 384, 1], requires_grad=0, device=cpu) = onnx::Add[onnx_name="Add_654"](%encoder.blocks.1.attn.proj.bias, %onnx::Add_335) # /home/ashishpapanai/miniconda3/envs/parseq/lib/python3.7/site-packages/torch/nn/modules/linear.py:114:0
  %input.36 : Float(1, 128, 384, strides=[49152, 1, 128], requires_grad=0, device=cpu) = onnx::Add[onnx_name="Add_655"](%input.24, %input.32) # /home/ashishpapanai/miniconda3/envs/parseq/lib/python3.7/site-packages/timm/models/vision_transformer.py:268:0
  %onnx::Sub_338 : Float(1, 128, 1, strides=[128, 1, 1], device=cpu) = onnx::ReduceMean[axes=[-1], onnx_name="ReduceMean_656"](%input.36) # /home/ashishpapanai/miniconda3/envs/parseq/lib/python3.7/site-packages/torch/nn/functional.py:2503:0
  %onnx::Pow_339 : Float(1, 128, 384, strides=[49152, 384, 1], device=cpu) = onnx::Sub[onnx_name="Sub_657"](%input.36, %onnx::Sub_338) # /home/ashishpapanai/miniconda3/envs/parseq/lib/python3.7/site-packages/torch/nn/functional.py:2503:0
  %onnx::Pow_340 : Float(requires_grad=0, device=cpu) = onnx::Constant[value={2}, onnx_name="Constant_658"]() # /home/ashishpapanai/miniconda3/envs/parseq/lib/python3.7/site-packages/torch/nn/functional.py:2503:0
  %onnx::ReduceMean_341 : Float(1, 128, 384, strides=[49152, 384, 1], device=cpu) = onnx::Pow[onnx_name="Pow_659"](%onnx::Pow_339, %onnx::Pow_340) # /home/ashishpapanai/miniconda3/envs/parseq/lib/python3.7/site-packages/torch/nn/functional.py:2503:0
  %onnx::Add_342 : Float(1, 128, 1, strides=[128, 1, 1], device=cpu) = onnx::ReduceMean[axes=[-1], onnx_name="ReduceMean_660"](%onnx::ReduceMean_341) # /home/ashishpapanai/miniconda3/envs/parseq/lib/python3.7/site-packages/torch/nn/functional.py:2503:0
  %onnx::Add_343 : Float(requires_grad=0, device=cpu) = onnx::Constant[value={1e-06}, onnx_name="Constant_661"]() # /home/ashishpapanai/miniconda3/envs/parseq/lib/python3.7/site-packages/torch/nn/functional.py:2503:0
  %onnx::Sqrt_344 : Float(1, 128, 1, strides=[128, 1, 1], device=cpu) = onnx::Add[onnx_name="Add_662"](%onnx::Add_342, %onnx::Add_343) # /home/ashishpapanai/miniconda3/envs/parseq/lib/python3.7/site-packages/torch/nn/functional.py:2503:0
  %onnx::Div_345 : Float(1, 128, 1, strides=[128, 1, 1], device=cpu) = onnx::Sqrt[onnx_name="Sqrt_663"](%onnx::Sqrt_344) # /home/ashishpapanai/miniconda3/envs/parseq/lib/python3.7/site-packages/torch/nn/functional.py:2503:0
  %onnx::Mul_346 : Float(1, 128, 384, strides=[49152, 384, 1], device=cpu) = onnx::Div[onnx_name="Div_664"](%onnx::Pow_339, %onnx::Div_345) # /home/ashishpapanai/miniconda3/envs/parseq/lib/python3.7/site-packages/torch/nn/functional.py:2503:0
  %onnx::Add_347 : Float(1, 128, 384, strides=[49152, 384, 1], device=cpu) = onnx::Mul[onnx_name="Mul_665"](%onnx::Mul_346, %encoder.blocks.1.norm2.weight) # /home/ashishpapanai/miniconda3/envs/parseq/lib/python3.7/site-packages/torch/nn/functional.py:2503:0
  %onnx::MatMul_348 : Float(1, 128, 384, strides=[49152, 384, 1], requires_grad=0, device=cpu) = onnx::Add[onnx_name="Add_666"](%onnx::Add_347, %encoder.blocks.1.norm2.bias) # /home/ashishpapanai/miniconda3/envs/parseq/lib/python3.7/site-packages/torch/nn/functional.py:2503:0
  %onnx::Add_350 : Float(1, 128, 1536, strides=[196608, 1536, 1], device=cpu) = onnx::MatMul[onnx_name="MatMul_667"](%onnx::MatMul_348, %onnx::MatMul_10164) # /home/ashishpapanai/miniconda3/envs/parseq/lib/python3.7/site-packages/torch/nn/modules/linear.py:114:0
  %onnx::Div_351 : Float(1, 128, 1536, strides=[196608, 1536, 1], requires_grad=0, device=cpu) = onnx::Add[onnx_name="Add_668"](%encoder.blocks.1.mlp.fc1.bias, %onnx::Add_350) # /home/ashishpapanai/miniconda3/envs/parseq/lib/python3.7/site-packages/torch/nn/modules/linear.py:114:0
  %onnx::Div_352 : Float(requires_grad=0, device=cpu) = onnx::Constant[value={1.41421}, onnx_name="Constant_669"]() # /home/ashishpapanai/miniconda3/envs/parseq/lib/python3.7/site-packages/torch/nn/modules/activation.py:681:0
  %onnx::Erf_353 : Float(1, 128, 1536, strides=[196608, 1536, 1], device=cpu) = onnx::Div[onnx_name="Div_670"](%onnx::Div_351, %onnx::Div_352) # /home/ashishpapanai/miniconda3/envs/parseq/lib/python3.7/site-packages/torch/nn/modules/activation.py:681:0
  %onnx::Add_354 : Float(1, 128, 1536, strides=[196608, 1536, 1], device=cpu) = onnx::Erf[onnx_name="Erf_671"](%onnx::Erf_353) # /home/ashishpapanai/miniconda3/envs/parseq/lib/python3.7/site-packages/torch/nn/modules/activation.py:681:0
  %onnx::Add_355 : Float(requires_grad=0, device=cpu) = onnx::Constant[value={1}, onnx_name="Constant_672"]() # /home/ashishpapanai/miniconda3/envs/parseq/lib/python3.7/site-packages/torch/nn/modules/activation.py:681:0
  %onnx::Mul_356 : Float(1, 128, 1536, strides=[196608, 1536, 1], device=cpu) = onnx::Add[onnx_name="Add_673"](%onnx::Add_354, %onnx::Add_355) # /home/ashishpapanai/miniconda3/envs/parseq/lib/python3.7/site-packages/torch/nn/modules/activation.py:681:0
  %onnx::Mul_357 : Float(1, 128, 1536, strides=[196608, 1536, 1], device=cpu) = onnx::Mul[onnx_name="Mul_674"](%onnx::Div_351, %onnx::Mul_356) # /home/ashishpapanai/miniconda3/envs/parseq/lib/python3.7/site-packages/torch/nn/modules/activation.py:681:0
  %onnx::Mul_358 : Float(requires_grad=0, device=cpu) = onnx::Constant[value={0.5}, onnx_name="Constant_675"]() # /home/ashishpapanai/miniconda3/envs/parseq/lib/python3.7/site-packages/torch/nn/modules/activation.py:681:0
  %input.40 : Float(1, 128, 1536, strides=[196608, 1536, 1], requires_grad=0, device=cpu) = onnx::Mul[onnx_name="Mul_676"](%onnx::Mul_357, %onnx::Mul_358) # /home/ashishpapanai/miniconda3/envs/parseq/lib/python3.7/site-packages/torch/nn/modules/activation.py:681:0
  %onnx::Add_361 : Float(1, 128, 384, strides=[49152, 384, 1], device=cpu) = onnx::MatMul[onnx_name="MatMul_677"](%input.40, %onnx::MatMul_10165) # /home/ashishpapanai/miniconda3/envs/parseq/lib/python3.7/site-packages/torch/nn/modules/linear.py:114:0
  %input.44 : Float(1, 128, 384, strides=[49152, 384, 1], requires_grad=0, device=cpu) = onnx::Add[onnx_name="Add_678"](%encoder.blocks.1.mlp.fc2.bias, %onnx::Add_361) # /home/ashishpapanai/miniconda3/envs/parseq/lib/python3.7/site-packages/torch/nn/modules/linear.py:114:0
  %input.48 : Float(1, 128, 384, strides=[49152, 1, 128], requires_grad=0, device=cpu) = onnx::Add[onnx_name="Add_679"](%input.36, %input.44) # /home/ashishpapanai/miniconda3/envs/parseq/lib/python3.7/site-packages/timm/models/vision_transformer.py:269:0
  %onnx::Sub_364 : Float(1, 128, 1, strides=[128, 1, 1], device=cpu) = onnx::ReduceMean[axes=[-1], onnx_name="ReduceMean_680"](%input.48) # /home/ashishpapanai/miniconda3/envs/parseq/lib/python3.7/site-packages/torch/nn/functional.py:2503:0
  %onnx::Pow_365 : Float(1, 128, 384, strides=[49152, 384, 1], device=cpu) = onnx::Sub[onnx_name="Sub_681"](%input.48, %onnx::Sub_364) # /home/ashishpapanai/miniconda3/envs/parseq/lib/python3.7/site-packages/torch/nn/functional.py:2503:0
  %onnx::Pow_366 : Float(requires_grad=0, device=cpu) = onnx::Constant[value={2}, onnx_name="Constant_682"]() # /home/ashishpapanai/miniconda3/envs/parseq/lib/python3.7/site-packages/torch/nn/functional.py:2503:0
  %onnx::ReduceMean_367 : Float(1, 128, 384, strides=[49152, 384, 1], device=cpu) = onnx::Pow[onnx_name="Pow_683"](%onnx::Pow_365, %onnx::Pow_366) # /home/ashishpapanai/miniconda3/envs/parseq/lib/python3.7/site-packages/torch/nn/functional.py:2503:0
  %onnx::Add_368 : Float(1, 128, 1, strides=[128, 1, 1], device=cpu) = onnx::ReduceMean[axes=[-1], onnx_name="ReduceMean_684"](%onnx::ReduceMean_367) # /home/ashishpapanai/miniconda3/envs/parseq/lib/python3.7/site-packages/torch/nn/functional.py:2503:0
  %onnx::Add_369 : Float(requires_grad=0, device=cpu) = onnx::Constant[value={1e-06}, onnx_name="Constant_685"]() # /home/ashishpapanai/miniconda3/envs/parseq/lib/python3.7/site-packages/torch/nn/functional.py:2503:0
  %onnx::Sqrt_370 : Float(1, 128, 1, strides=[128, 1, 1], device=cpu) = onnx::Add[onnx_name="Add_686"](%onnx::Add_368, %onnx::Add_369) # /home/ashishpapanai/miniconda3/envs/parseq/lib/python3.7/site-packages/torch/nn/functional.py:2503:0
  %onnx::Div_371 : Float(1, 128, 1, strides=[128, 1, 1], device=cpu) = onnx::Sqrt[onnx_name="Sqrt_687"](%onnx::Sqrt_370) # /home/ashishpapanai/miniconda3/envs/parseq/lib/python3.7/site-packages/torch/nn/functional.py:2503:0
  %onnx::Mul_372 : Float(1, 128, 384, strides=[49152, 384, 1], device=cpu) = onnx::Div[onnx_name="Div_688"](%onnx::Pow_365, %onnx::Div_371) # /home/ashishpapanai/miniconda3/envs/parseq/lib/python3.7/site-packages/torch/nn/functional.py:2503:0
  %onnx::Add_373 : Float(1, 128, 384, strides=[49152, 384, 1], device=cpu) = onnx::Mul[onnx_name="Mul_689"](%onnx::Mul_372, %encoder.blocks.2.norm1.weight) # /home/ashishpapanai/miniconda3/envs/parseq/lib/python3.7/site-packages/torch/nn/functional.py:2503:0
  %onnx::MatMul_374 : Float(1, 128, 384, strides=[49152, 384, 1], requires_grad=0, device=cpu) = onnx::Add[onnx_name="Add_690"](%onnx::Add_373, %encoder.blocks.2.norm1.bias) # /home/ashishpapanai/miniconda3/envs/parseq/lib/python3.7/site-packages/torch/nn/functional.py:2503:0
  %onnx::Add_379 : Float(1, 128, 1152, strides=[147456, 1152, 1], device=cpu) = onnx::MatMul[onnx_name="MatMul_691"](%onnx::MatMul_374, %onnx::MatMul_10166) # /home/ashishpapanai/miniconda3/envs/parseq/lib/python3.7/site-packages/torch/nn/modules/linear.py:114:0
  %onnx::Reshape_380 : Float(1, 128, 1152, strides=[147456, 1152, 1], requires_grad=0, device=cpu) = onnx::Add[onnx_name="Add_692"](%encoder.blocks.2.attn.qkv.bias, %onnx::Add_379) # /home/ashishpapanai/miniconda3/envs/parseq/lib/python3.7/site-packages/torch/nn/modules/linear.py:114:0
  %onnx::Transpose_395 : Float(1, 128, 3, 6, 64, strides=[147456, 1152, 384, 64, 1], requires_grad=0, device=cpu) = onnx::Reshape[allowzero=0, onnx_name="Reshape_693"](%onnx::Reshape_380, %onnx::Reshape_10172) # /home/ashishpapanai/miniconda3/envs/parseq/lib/python3.7/site-packages/timm/models/vision_transformer.py:217:0
  %onnx::Split_396 : Float(3, 1, 6, 128, 64, strides=[384, 147456, 64, 1152, 1], requires_grad=0, device=cpu) = onnx::Transpose[perm=[2, 0, 3, 1, 4], onnx_name="Transpose_694"](%onnx::Transpose_395) # /home/ashishpapanai/miniconda3/envs/parseq/lib/python3.7/site-packages/timm/models/vision_transformer.py:217:0
  %onnx::Split_397 : Long(3, strides=[1], device=cpu) = onnx::Constant[value= 1  1  1 [ CPULongType{3} ], onnx_name="Constant_695"]() # /home/ashishpapanai/miniconda3/envs/parseq/lib/python3.7/site-packages/timm/models/vision_transformer.py:218:0
  %onnx::Squeeze_398 : Float(1, 1, 6, 128, 64, strides=[49152, 49152, 8192, 64, 1], device=cpu), %onnx::Squeeze_399 : Float(1, 1, 6, 128, 64, strides=[49152, 49152, 8192, 64, 1], device=cpu), %onnx::Squeeze_400 : Float(1, 1, 6, 128, 64, strides=[49152, 49152, 8192, 64, 1], device=cpu) = onnx::Split[axis=0, onnx_name="Split_696"](%onnx::Split_396, %onnx::Split_397) # /home/ashishpapanai/miniconda3/envs/parseq/lib/python3.7/site-packages/timm/models/vision_transformer.py:218:0
  %onnx::Squeeze_401 : Long(1, strides=[1], device=cpu) = onnx::Constant[value={0}, onnx_name="Constant_697"]() # /home/ashishpapanai/miniconda3/envs/parseq/lib/python3.7/site-packages/timm/models/vision_transformer.py:218:0
  %onnx::MatMul_402 : Float(1, 6, 128, 64, strides=[147456, 64, 1152, 1], requires_grad=0, device=cpu) = onnx::Squeeze[onnx_name="Squeeze_698"](%onnx::Squeeze_398, %onnx::Squeeze_401) # /home/ashishpapanai/miniconda3/envs/parseq/lib/python3.7/site-packages/timm/models/vision_transformer.py:218:0
  %onnx::Squeeze_403 : Long(1, strides=[1], device=cpu) = onnx::Constant[value={0}, onnx_name="Constant_699"]() # /home/ashishpapanai/miniconda3/envs/parseq/lib/python3.7/site-packages/timm/models/vision_transformer.py:218:0
  %onnx::Transpose_404 : Float(1, 6, 128, 64, strides=[147456, 64, 1152, 1], requires_grad=0, device=cpu) = onnx::Squeeze[onnx_name="Squeeze_700"](%onnx::Squeeze_399, %onnx::Squeeze_403) # /home/ashishpapanai/miniconda3/envs/parseq/lib/python3.7/site-packages/timm/models/vision_transformer.py:218:0
  %onnx::Squeeze_405 : Long(1, strides=[1], device=cpu) = onnx::Constant[value={0}, onnx_name="Constant_701"]() # /home/ashishpapanai/miniconda3/envs/parseq/lib/python3.7/site-packages/timm/models/vision_transformer.py:218:0
  %onnx::MatMul_406 : Float(1, 6, 128, 64, strides=[147456, 64, 1152, 1], requires_grad=0, device=cpu) = onnx::Squeeze[onnx_name="Squeeze_702"](%onnx::Squeeze_400, %onnx::Squeeze_405) # /home/ashishpapanai/miniconda3/envs/parseq/lib/python3.7/site-packages/timm/models/vision_transformer.py:218:0
  %onnx::MatMul_407 : Float(1, 6, 64, 128, strides=[147456, 64, 1, 1152], requires_grad=0, device=cpu) = onnx::Transpose[perm=[0, 1, 3, 2], onnx_name="Transpose_703"](%onnx::Transpose_404) # /home/ashishpapanai/miniconda3/envs/parseq/lib/python3.7/site-packages/timm/models/vision_transformer.py:220:0
  %onnx::Mul_408 : Float(1, 6, 128, 128, strides=[98304, 16384, 128, 1], requires_grad=0, device=cpu) = onnx::MatMul[onnx_name="MatMul_704"](%onnx::MatMul_402, %onnx::MatMul_407) # /home/ashishpapanai/miniconda3/envs/parseq/lib/python3.7/site-packages/timm/models/vision_transformer.py:220:0
  %onnx::Mul_409 : Float(requires_grad=0, device=cpu) = onnx::Constant[value={0.125}, onnx_name="Constant_705"]()
  %onnx::Softmax_410 : Float(1, 6, 128, 128, strides=[98304, 16384, 128, 1], requires_grad=0, device=cpu) = onnx::Mul[onnx_name="Mul_706"](%onnx::Mul_408, %onnx::Mul_409) # /home/ashishpapanai/miniconda3/envs/parseq/lib/python3.7/site-packages/timm/models/vision_transformer.py:220:0
  %input.52 : Float(1, 6, 128, 128, strides=[98304, 16384, 128, 1], requires_grad=0, device=cpu) = onnx::Softmax[axis=-1, onnx_name="Softmax_707"](%onnx::Softmax_410) # /home/ashishpapanai/miniconda3/envs/parseq/lib/python3.7/site-packages/timm/models/vision_transformer.py:221:0
  %onnx::Transpose_412 : Float(1, 6, 128, 64, strides=[49152, 8192, 64, 1], requires_grad=0, device=cpu) = onnx::MatMul[onnx_name="MatMul_708"](%input.52, %onnx::MatMul_406) # /home/ashishpapanai/miniconda3/envs/parseq/lib/python3.7/site-packages/timm/models/vision_transformer.py:224:0
  %onnx::Reshape_413 : Float(1, 128, 6, 64, strides=[49152, 64, 8192, 1], requires_grad=0, device=cpu) = onnx::Transpose[perm=[0, 2, 1, 3], onnx_name="Transpose_709"](%onnx::Transpose_412) # /home/ashishpapanai/miniconda3/envs/parseq/lib/python3.7/site-packages/timm/models/vision_transformer.py:224:0
  %onnx::MatMul_421 : Float(1, 128, 384, strides=[49152, 384, 1], requires_grad=0, device=cpu) = onnx::Reshape[allowzero=0, onnx_name="Reshape_710"](%onnx::Reshape_413, %onnx::Reshape_10176) # /home/ashishpapanai/miniconda3/envs/parseq/lib/python3.7/site-packages/timm/models/vision_transformer.py:224:0
  %onnx::Add_423 : Float(1, 128, 384, strides=[49152, 384, 1], device=cpu) = onnx::MatMul[onnx_name="MatMul_711"](%onnx::MatMul_421, %onnx::MatMul_10177) # /home/ashishpapanai/miniconda3/envs/parseq/lib/python3.7/site-packages/torch/nn/modules/linear.py:114:0
  %input.56 : Float(1, 128, 384, strides=[49152, 384, 1], requires_grad=0, device=cpu) = onnx::Add[onnx_name="Add_712"](%encoder.blocks.2.attn.proj.bias, %onnx::Add_423) # /home/ashishpapanai/miniconda3/envs/parseq/lib/python3.7/site-packages/torch/nn/modules/linear.py:114:0
  %input.60 : Float(1, 128, 384, strides=[49152, 1, 128], requires_grad=0, device=cpu) = onnx::Add[onnx_name="Add_713"](%input.48, %input.56) # /home/ashishpapanai/miniconda3/envs/parseq/lib/python3.7/site-packages/timm/models/vision_transformer.py:268:0
  %onnx::Sub_426 : Float(1, 128, 1, strides=[128, 1, 1], device=cpu) = onnx::ReduceMean[axes=[-1], onnx_name="ReduceMean_714"](%input.60) # /home/ashishpapanai/miniconda3/envs/parseq/lib/python3.7/site-packages/torch/nn/functional.py:2503:0
  %onnx::Pow_427 : Float(1, 128, 384, strides=[49152, 384, 1], device=cpu) = onnx::Sub[onnx_name="Sub_715"](%input.60, %onnx::Sub_426) # /home/ashishpapanai/miniconda3/envs/parseq/lib/python3.7/site-packages/torch/nn/functional.py:2503:0
  %onnx::Pow_428 : Float(requires_grad=0, device=cpu) = onnx::Constant[value={2}, onnx_name="Constant_716"]() # /home/ashishpapanai/miniconda3/envs/parseq/lib/python3.7/site-packages/torch/nn/functional.py:2503:0
  %onnx::ReduceMean_429 : Float(1, 128, 384, strides=[49152, 384, 1], device=cpu) = onnx::Pow[onnx_name="Pow_717"](%onnx::Pow_427, %onnx::Pow_428) # /home/ashishpapanai/miniconda3/envs/parseq/lib/python3.7/site-packages/torch/nn/functional.py:2503:0
  %onnx::Add_430 : Float(1, 128, 1, strides=[128, 1, 1], device=cpu) = onnx::ReduceMean[axes=[-1], onnx_name="ReduceMean_718"](%onnx::ReduceMean_429) # /home/ashishpapanai/miniconda3/envs/parseq/lib/python3.7/site-packages/torch/nn/functional.py:2503:0
  %onnx::Add_431 : Float(requires_grad=0, device=cpu) = onnx::Constant[value={1e-06}, onnx_name="Constant_719"]() # /home/ashishpapanai/miniconda3/envs/parseq/lib/python3.7/site-packages/torch/nn/functional.py:2503:0
  %onnx::Sqrt_432 : Float(1, 128, 1, strides=[128, 1, 1], device=cpu) = onnx::Add[onnx_name="Add_720"](%onnx::Add_430, %onnx::Add_431) # /home/ashishpapanai/miniconda3/envs/parseq/lib/python3.7/site-packages/torch/nn/functional.py:2503:0
  %onnx::Div_433 : Float(1, 128, 1, strides=[128, 1, 1], device=cpu) = onnx::Sqrt[onnx_name="Sqrt_721"](%onnx::Sqrt_432) # /home/ashishpapanai/miniconda3/envs/parseq/lib/python3.7/site-packages/torch/nn/functional.py:2503:0
  %onnx::Mul_434 : Float(1, 128, 384, strides=[49152, 384, 1], device=cpu) = onnx::Div[onnx_name="Div_722"](%onnx::Pow_427, %onnx::Div_433) # /home/ashishpapanai/miniconda3/envs/parseq/lib/python3.7/site-packages/torch/nn/functional.py:2503:0
  %onnx::Add_435 : Float(1, 128, 384, strides=[49152, 384, 1], device=cpu) = onnx::Mul[onnx_name="Mul_723"](%onnx::Mul_434, %encoder.blocks.2.norm2.weight) # /home/ashishpapanai/miniconda3/envs/parseq/lib/python3.7/site-packages/torch/nn/functional.py:2503:0
  %onnx::MatMul_436 : Float(1, 128, 384, strides=[49152, 384, 1], requires_grad=0, device=cpu) = onnx::Add[onnx_name="Add_724"](%onnx::Add_435, %encoder.blocks.2.norm2.bias) # /home/ashishpapanai/miniconda3/envs/parseq/lib/python3.7/site-packages/torch/nn/functional.py:2503:0
  %onnx::Add_438 : Float(1, 128, 1536, strides=[196608, 1536, 1], device=cpu) = onnx::MatMul[onnx_name="MatMul_725"](%onnx::MatMul_436, %onnx::MatMul_10178) # /home/ashishpapanai/miniconda3/envs/parseq/lib/python3.7/site-packages/torch/nn/modules/linear.py:114:0
  %onnx::Div_439 : Float(1, 128, 1536, strides=[196608, 1536, 1], requires_grad=0, device=cpu) = onnx::Add[onnx_name="Add_726"](%encoder.blocks.2.mlp.fc1.bias, %onnx::Add_438) # /home/ashishpapanai/miniconda3/envs/parseq/lib/python3.7/site-packages/torch/nn/modules/linear.py:114:0
  %onnx::Div_440 : Float(requires_grad=0, device=cpu) = onnx::Constant[value={1.41421}, onnx_name="Constant_727"]() # /home/ashishpapanai/miniconda3/envs/parseq/lib/python3.7/site-packages/torch/nn/modules/activation.py:681:0
  %onnx::Erf_441 : Float(1, 128, 1536, strides=[196608, 1536, 1], device=cpu) = onnx::Div[onnx_name="Div_728"](%onnx::Div_439, %onnx::Div_440) # /home/ashishpapanai/miniconda3/envs/parseq/lib/python3.7/site-packages/torch/nn/modules/activation.py:681:0
  %onnx::Add_442 : Float(1, 128, 1536, strides=[196608, 1536, 1], device=cpu) = onnx::Erf[onnx_name="Erf_729"](%onnx::Erf_441) # /home/ashishpapanai/miniconda3/envs/parseq/lib/python3.7/site-packages/torch/nn/modules/activation.py:681:0
  %onnx::Add_443 : Float(requires_grad=0, device=cpu) = onnx::Constant[value={1}, onnx_name="Constant_730"]() # /home/ashishpapanai/miniconda3/envs/parseq/lib/python3.7/site-packages/torch/nn/modules/activation.py:681:0
  %onnx::Mul_444 : Float(1, 128, 1536, strides=[196608, 1536, 1], device=cpu) = onnx::Add[onnx_name="Add_731"](%onnx::Add_442, %onnx::Add_443) # /home/ashishpapanai/miniconda3/envs/parseq/lib/python3.7/site-packages/torch/nn/modules/activation.py:681:0
  %onnx::Mul_445 : Float(1, 128, 1536, strides=[196608, 1536, 1], device=cpu) = onnx::Mul[onnx_name="Mul_732"](%onnx::Div_439, %onnx::Mul_444) # /home/ashishpapanai/miniconda3/envs/parseq/lib/python3.7/site-packages/torch/nn/modules/activation.py:681:0
  %onnx::Mul_446 : Float(requires_grad=0, device=cpu) = onnx::Constant[value={0.5}, onnx_name="Constant_733"]() # /home/ashishpapanai/miniconda3/envs/parseq/lib/python3.7/site-packages/torch/nn/modules/activation.py:681:0
  %input.64 : Float(1, 128, 1536, strides=[196608, 1536, 1], requires_grad=0, device=cpu) = onnx::Mul[onnx_name="Mul_734"](%onnx::Mul_445, %onnx::Mul_446) # /home/ashishpapanai/miniconda3/envs/parseq/lib/python3.7/site-packages/torch/nn/modules/activation.py:681:0
  %onnx::Add_449 : Float(1, 128, 384, strides=[49152, 384, 1], device=cpu) = onnx::MatMul[onnx_name="MatMul_735"](%input.64, %onnx::MatMul_10179) # /home/ashishpapanai/miniconda3/envs/parseq/lib/python3.7/site-packages/torch/nn/modules/linear.py:114:0
…
  %onnx::Mul_9775 : Float(requires_grad=0, device=cpu) = onnx::Constant[value={0.5}, onnx_name="Constant_5876"]() # /home/ashishpapanai/Desktop/MAVI/parseq/strhub/models/parseq/modules.py:70:0
  %input.1380 : Float(1, 1, 1536, strides=[1536, 1536, 1], requires_grad=0, device=cpu) = onnx::Mul[onnx_name="Mul_5877"](%onnx::Mul_9774, %onnx::Mul_9775) # /home/ashishpapanai/Desktop/MAVI/parseq/strhub/models/parseq/modules.py:70:0
  %onnx::Add_9778 : Float(1, 1, 384, strides=[384, 384, 1], device=cpu) = onnx::MatMul[onnx_name="MatMul_5878"](%input.1380, %onnx::MatMul_12136) # /home/ashishpapanai/miniconda3/envs/parseq/lib/python3.7/site-packages/torch/nn/modules/linear.py:114:0
  %input.1384 : Float(1, 1, 384, strides=[384, 384, 1], requires_grad=0, device=cpu) = onnx::Add[onnx_name="Add_5879"](%decoder.layers.0.linear2.bias, %onnx::Add_9778) # /home/ashishpapanai/miniconda3/envs/parseq/lib/python3.7/site-packages/torch/nn/modules/linear.py:114:0
  %input.1388 : Float(1, 1, 384, strides=[384, 384, 1], requires_grad=0, device=cpu) = onnx::Add[onnx_name="Add_5880"](%input.1376, %input.1384) # /home/ashishpapanai/Desktop/MAVI/parseq/strhub/models/parseq/modules.py:71:0
  %onnx::Sub_9781 : Float(1, 1, 1, strides=[1, 1, 1], device=cpu) = onnx::ReduceMean[axes=[-1], onnx_name="ReduceMean_5881"](%input.1388) # /home/ashishpapanai/miniconda3/envs/parseq/lib/python3.7/site-packages/torch/nn/functional.py:2503:0
  %onnx::Pow_9782 : Float(1, 1, 384, strides=[384, 384, 1], device=cpu) = onnx::Sub[onnx_name="Sub_5882"](%input.1388, %onnx::Sub_9781) # /home/ashishpapanai/miniconda3/envs/parseq/lib/python3.7/site-packages/torch/nn/functional.py:2503:0
  %onnx::Pow_9783 : Float(requires_grad=0, device=cpu) = onnx::Constant[value={2}, onnx_name="Constant_5883"]() # /home/ashishpapanai/miniconda3/envs/parseq/lib/python3.7/site-packages/torch/nn/functional.py:2503:0
  %onnx::ReduceMean_9784 : Float(1, 1, 384, strides=[384, 384, 1], device=cpu) = onnx::Pow[onnx_name="Pow_5884"](%onnx::Pow_9782, %onnx::Pow_9783) # /home/ashishpapanai/miniconda3/envs/parseq/lib/python3.7/site-packages/torch/nn/functional.py:2503:0
  %onnx::Add_9785 : Float(1, 1, 1, strides=[1, 1, 1], device=cpu) = onnx::ReduceMean[axes=[-1], onnx_name="ReduceMean_5885"](%onnx::ReduceMean_9784) # /home/ashishpapanai/miniconda3/envs/parseq/lib/python3.7/site-packages/torch/nn/functional.py:2503:0
  %onnx::Add_9786 : Float(requires_grad=0, device=cpu) = onnx::Constant[value={1e-05}, onnx_name="Constant_5886"]() # /home/ashishpapanai/miniconda3/envs/parseq/lib/python3.7/site-packages/torch/nn/functional.py:2503:0
  %onnx::Sqrt_9787 : Float(1, 1, 1, strides=[1, 1, 1], device=cpu) = onnx::Add[onnx_name="Add_5887"](%onnx::Add_9785, %onnx::Add_9786) # /home/ashishpapanai/miniconda3/envs/parseq/lib/python3.7/site-packages/torch/nn/functional.py:2503:0
  %onnx::Div_9788 : Float(1, 1, 1, strides=[1, 1, 1], device=cpu) = onnx::Sqrt[onnx_name="Sqrt_5888"](%onnx::Sqrt_9787) # /home/ashishpapanai/miniconda3/envs/parseq/lib/python3.7/site-packages/torch/nn/functional.py:2503:0
  %onnx::Mul_9789 : Float(1, 1, 384, strides=[384, 384, 1], device=cpu) = onnx::Div[onnx_name="Div_5889"](%onnx::Pow_9782, %onnx::Div_9788) # /home/ashishpapanai/miniconda3/envs/parseq/lib/python3.7/site-packages/torch/nn/functional.py:2503:0
  %onnx::Add_9790 : Float(1, 1, 384, strides=[384, 384, 1], device=cpu) = onnx::Mul[onnx_name="Mul_5890"](%onnx::Mul_9789, %decoder.norm.weight) # /home/ashishpapanai/miniconda3/envs/parseq/lib/python3.7/site-packages/torch/nn/functional.py:2503:0
  %onnx::MatMul_9791 : Float(1, 1, 384, strides=[384, 384, 1], requires_grad=0, device=cpu) = onnx::Add[onnx_name="Add_5891"](%onnx::Add_9790, %decoder.norm.bias) # /home/ashishpapanai/miniconda3/envs/parseq/lib/python3.7/site-packages/torch/nn/functional.py:2503:0
  %onnx::Add_9793 : Float(1, 1, 95, strides=[95, 95, 1], device=cpu) = onnx::MatMul[onnx_name="MatMul_5892"](%onnx::MatMul_9791, %onnx::MatMul_12137) # /home/ashishpapanai/miniconda3/envs/parseq/lib/python3.7/site-packages/torch/nn/modules/linear.py:114:0
  %onnx::ArgMax_9794 : Float(1, 1, 95, strides=[95, 95, 1], requires_grad=0, device=cpu) = onnx::Add[onnx_name="Add_5893"](%head.bias, %onnx::Add_9793) # /home/ashishpapanai/miniconda3/envs/parseq/lib/python3.7/site-packages/torch/nn/modules/linear.py:114:0
  %onnx::Slice_9795 : Long(1, strides=[1], device=cpu) = onnx::Constant[value={1}, onnx_name="Constant_5894"]() # /home/ashishpapanai/Desktop/MAVI/parseq/strhub/models/parseq/system.py:137:0
  %onnx::Slice_9796 : Long(1, strides=[1], device=cpu) = onnx::Constant[value={0}, onnx_name="Constant_5895"]() # /home/ashishpapanai/Desktop/MAVI/parseq/strhub/models/parseq/system.py:137:0
  %onnx::Slice_9797 : Long(1, strides=[1], device=cpu) = onnx::Constant[value={25}, onnx_name="Constant_5896"]() # /home/ashishpapanai/Desktop/MAVI/parseq/strhub/models/parseq/system.py:137:0
  %onnx::Slice_9798 : Long(1, strides=[1], device=cpu) = onnx::Constant[value={1}, onnx_name="Constant_5897"]() # /home/ashishpapanai/Desktop/MAVI/parseq/strhub/models/parseq/system.py:137:0
  %onnx::Concat_9799 : Long(1, 25, strides=[26, 1], requires_grad=0, device=cpu) = onnx::Slice[onnx_name="Slice_5898"](%onnx::Slice_9464, %onnx::Slice_9796, %onnx::Slice_9797, %onnx::Slice_9795, %onnx::Slice_9798) # /home/ashishpapanai/Desktop/MAVI/parseq/strhub/models/parseq/system.py:137:0
  %onnx::Slice_9800 : Long(1, strides=[1], device=cpu) = onnx::Constant[value={1}, onnx_name="Constant_5899"]() # /home/ashishpapanai/Desktop/MAVI/parseq/strhub/models/parseq/system.py:138:0
  %onnx::Slice_9801 : Long(1, strides=[1], device=cpu) = onnx::Constant[value={26}, onnx_name="Constant_5900"]() # /home/ashishpapanai/Desktop/MAVI/parseq/strhub/models/parseq/system.py:138:0
  %onnx::Slice_9802 : Long(1, strides=[1], device=cpu) = onnx::Constant[value={9223372036854775807}, onnx_name="Constant_5901"]() # /home/ashishpapanai/Desktop/MAVI/parseq/strhub/models/parseq/system.py:138:0
  %onnx::Slice_9803 : Long(1, strides=[1], device=cpu) = onnx::Constant[value={1}, onnx_name="Constant_5902"]() # /home/ashishpapanai/Desktop/MAVI/parseq/strhub/models/parseq/system.py:138:0
  %onnx::Concat_9804 : Long(1, 0, strides=[26, 1], requires_grad=0, device=cpu) = onnx::Slice[onnx_name="Slice_5903"](%onnx::Slice_9464, %onnx::Slice_9801, %onnx::Slice_9802, %onnx::Slice_9800, %onnx::Slice_9803) # /home/ashishpapanai/Desktop/MAVI/parseq/strhub/models/parseq/system.py:138:0
  %onnx::Concat_9805 : Long(1, 1, strides=[1, 1], requires_grad=0, device=cpu) = onnx::ArgMax[axis=-1, keepdims=0, select_last_index=0, onnx_name="ArgMax_5904"](%onnx::ArgMax_9794) # /home/ashishpapanai/Desktop/MAVI/parseq/strhub/models/parseq/system.py:139:0
  %onnx::Slice_9806 : Long(1, 26, strides=[26, 1], requires_grad=0, device=cpu) = onnx::Concat[axis=1, onnx_name="Concat_5905"](%onnx::Concat_9799, %onnx::Concat_9805, %onnx::Concat_9804) # /home/ashishpapanai/Desktop/MAVI/parseq/strhub/models/parseq/system.py:140:0
  %onnx::Slice_9807 : Long(1, strides=[1], device=cpu) = onnx::Constant[value={1}, onnx_name="Constant_5906"]() # /home/ashishpapanai/Desktop/MAVI/parseq/strhub/models/parseq/system.py:128:0
  %onnx::Slice_9808 : Long(1, strides=[1], device=cpu) = onnx::Constant[value={0}, onnx_name="Constant_5907"]() # /home/ashishpapanai/Desktop/MAVI/parseq/strhub/models/parseq/system.py:128:0
  %onnx::Slice_9809 : Long(1, strides=[1], device=cpu) = onnx::Constant[value={26}, onnx_name="Constant_5908"]() # /home/ashishpapanai/Desktop/MAVI/parseq/strhub/models/parseq/system.py:128:0
  %onnx::Slice_9810 : Long(1, strides=[1], device=cpu) = onnx::Constant[value={1}, onnx_name="Constant_5909"]() # /home/ashishpapanai/Desktop/MAVI/parseq/strhub/models/parseq/system.py:128:0
  %onnx::Slice_9811 : Long(1, 26, strides=[26, 1], requires_grad=0, device=cpu) = onnx::Slice[onnx_name="Slice_5910"](%onnx::Slice_9806, %onnx::Slice_9808, %onnx::Slice_9809, %onnx::Slice_9807, %onnx::Slice_9810) # /home/ashishpapanai/Desktop/MAVI/parseq/strhub/models/parseq/system.py:128:0
  %onnx::Slice_9812 : Long(1, strides=[1], device=cpu) = onnx::Constant[value={1}, onnx_name="Constant_5911"]() # /home/ashishpapanai/Desktop/MAVI/parseq/strhub/models/parseq/system.py:128:0
  %onnx::Slice_9813 : Long(1, strides=[1], device=cpu) = onnx::Constant[value={25}, onnx_name="Constant_5912"]() # /home/ashishpapanai/Desktop/MAVI/parseq/strhub/models/parseq/system.py:128:0
  %onnx::Slice_9814 : Long(1, strides=[1], device=cpu) = onnx::Constant[value={26}, onnx_name="Constant_5913"]() # /home/ashishpapanai/Desktop/MAVI/parseq/strhub/models/parseq/system.py:128:0
  %onnx::Slice_9815 : Long(1, strides=[1], device=cpu) = onnx::Constant[value={1}, onnx_name="Constant_5914"]() # /home/ashishpapanai/Desktop/MAVI/parseq/strhub/models/parseq/system.py:128:0
  %input.1392 : Float(1, 1, 384, strides=[9984, 384, 1], requires_grad=0, device=cpu) = onnx::Slice[onnx_name="Slice_5915"](%onnx::Slice_1277, %onnx::Slice_9813, %onnx::Slice_9814, %onnx::Slice_9812, %onnx::Slice_9815) # /home/ashishpapanai/Desktop/MAVI/parseq/strhub/models/parseq/system.py:128:0
  %onnx::Slice_9817 : Long(1, strides=[1], device=cpu) = onnx::Constant[value={1}, onnx_name="Constant_5916"]() # /home/ashishpapanai/Desktop/MAVI/parseq/strhub/models/parseq/system.py:87:0
  %onnx::Slice_9818 : Long(1, strides=[1], device=cpu) = onnx::Constant[value={0}, onnx_name="Constant_5917"]() # /home/ashishpapanai/Desktop/MAVI/parseq/strhub/models/parseq/system.py:87:0
  %onnx::Slice_9819 : Long(1, strides=[1], device=cpu) = onnx::Constant[value={1}, onnx_name="Constant_5918"]() # /home/ashishpapanai/Desktop/MAVI/parseq/strhub/models/parseq/system.py:87:0
  %onnx::Slice_9820 : Long(1, strides=[1], device=cpu) = onnx::Constant[value={1}, onnx_name="Constant_5919"]() # /home/ashishpapanai/Desktop/MAVI/parseq/strhub/models/parseq/system.py:87:0
  %input.1396 : Long(1, 1, strides=[26, 1], requires_grad=0, device=cpu) = onnx::Slice[onnx_name="Slice_5920"](%onnx::Slice_9811, %onnx::Slice_9818, %onnx::Slice_9819, %onnx::Slice_9817, %onnx::Slice_9820) # /home/ashishpapanai/Desktop/MAVI/parseq/strhub/models/parseq/system.py:87:0
  %onnx::Mul_9822 : Float(1, 1, 384, strides=[384, 384, 1], requires_grad=0, device=cpu) = onnx::Gather[onnx_name="Gather_5921"](%text_embed.embedding.weight, %input.1396) # /home/ashishpapanai/miniconda3/envs/parseq/lib/python3.7/site-packages/torch/nn/functional.py:2199:0
  %onnx::Mul_9823 : Float(requires_grad=0, device=cpu) = onnx::Constant[value={19.5959}, onnx_name="Constant_5922"]()
  %onnx::Concat_9824 : Float(1, 1, 384, strides=[384, 384, 1], requires_grad=0, device=cpu) = onnx::Mul[onnx_name="Mul_5923"](%onnx::Mul_9822, %onnx::Mul_9823) # /home/ashishpapanai/Desktop/MAVI/parseq/strhub/models/parseq/modules.py:126:0
  %onnx::Slice_9830 : Long(1, strides=[1], device=cpu) = onnx::Constant[value={1}, onnx_name="Constant_5924"]() # /home/ashishpapanai/Desktop/MAVI/parseq/strhub/models/parseq/system.py:88:0
  %onnx::Slice_9831 : Long(1, strides=[1], device=cpu) = onnx::Constant[value={1}, onnx_name="Constant_5925"]() # /home/ashishpapanai/Desktop/MAVI/parseq/strhub/models/parseq/system.py:88:0
  %onnx::Slice_9832 : Long(1, strides=[1], device=cpu) = onnx::Constant[value={9223372036854775807}, onnx_name="Constant_5926"]() # /home/ashishpapanai/Desktop/MAVI/parseq/strhub/models/parseq/system.py:88:0
  %onnx::Slice_9833 : Long(1, strides=[1], device=cpu) = onnx::Constant[value={1}, onnx_name="Constant_5927"]() # /home/ashishpapanai/Desktop/MAVI/parseq/strhub/models/parseq/system.py:88:0
  %input.1400 : Long(1, 25, strides=[26, 1], requires_grad=0, device=cpu) = onnx::Slice[onnx_name="Slice_5928"](%onnx::Slice_9811, %onnx::Slice_9831, %onnx::Slice_9832, %onnx::Slice_9830, %onnx::Slice_9833) # /home/ashishpapanai/Desktop/MAVI/parseq/strhub/models/parseq/system.py:88:0
  %onnx::Mul_9835 : Float(1, 25, 384, strides=[9600, 384, 1], requires_grad=0, device=cpu) = onnx::Gather[onnx_name="Gather_5929"](%text_embed.embedding.weight, %input.1400) # /home/ashishpapanai/miniconda3/envs/parseq/lib/python3.7/site-packages/torch/nn/functional.py:2199:0
  %onnx::Mul_9836 : Float(requires_grad=0, device=cpu) = onnx::Constant[value={19.5959}, onnx_name="Constant_5930"]()
  %onnx::Add_9837 : Float(1, 25, 384, strides=[9600, 384, 1], requires_grad=0, device=cpu) = onnx::Mul[onnx_name="Mul_5931"](%onnx::Mul_9835, %onnx::Mul_9836) # /home/ashishpapanai/Desktop/MAVI/parseq/strhub/models/parseq/modules.py:126:0
  %onnx::Concat_9838 : Float(1, 25, 384, strides=[9600, 384, 1], requires_grad=0, device=cpu) = onnx::Add[onnx_name="Add_5932"](%onnx::Add_12138, %onnx::Add_9837) # /home/ashishpapanai/Desktop/MAVI/parseq/strhub/models/parseq/system.py:88:0
  %input.1404 : Float(1, 26, 384, strides=[9984, 384, 1], requires_grad=0, device=cpu) = onnx::Concat[axis=1, onnx_name="Concat_5933"](%onnx::Concat_9824, %onnx::Concat_9838) # /home/ashishpapanai/Desktop/MAVI/parseq/strhub/models/parseq/system.py:89:0
  %onnx::Sub_9840 : Float(1, 1, 1, strides=[1, 1, 1], device=cpu) = onnx::ReduceMean[axes=[-1], onnx_name="ReduceMean_5934"](%input.1392) # /home/ashishpapanai/miniconda3/envs/parseq/lib/python3.7/site-packages/torch/nn/functional.py:2503:0
  %onnx::Pow_9841 : Float(1, 1, 384, strides=[384, 384, 1], device=cpu) = onnx::Sub[onnx_name="Sub_5935"](%input.1392, %onnx::Sub_9840) # /home/ashishpapanai/miniconda3/envs/parseq/lib/python3.7/site-packages/torch/nn/functional.py:2503:0
  %onnx::Pow_9842 : Float(requires_grad=0, device=cpu) = onnx::Constant[value={2}, onnx_name="Constant_5936"]() # /home/ashishpapanai/miniconda3/envs/parseq/lib/python3.7/site-packages/torch/nn/functional.py:2503:0
  %onnx::ReduceMean_9843 : Float(1, 1, 384, strides=[384, 384, 1], device=cpu) = onnx::Pow[onnx_name="Pow_5937"](%onnx::Pow_9841, %onnx::Pow_9842) # /home/ashishpapanai/miniconda3/envs/parseq/lib/python3.7/site-packages/torch/nn/functional.py:2503:0
  %onnx::Add_9844 : Float(1, 1, 1, strides=[1, 1, 1], device=cpu) = onnx::ReduceMean[axes=[-1], onnx_name="ReduceMean_5938"](%onnx::ReduceMean_9843) # /home/ashishpapanai/miniconda3/envs/parseq/lib/python3.7/site-packages/torch/nn/functional.py:2503:0
  %onnx::Add_9845 : Float(requires_grad=0, device=cpu) = onnx::Constant[value={1e-05}, onnx_name="Constant_5939"]() # /home/ashishpapanai/miniconda3/envs/parseq/lib/python3.7/site-packages/torch/nn/functional.py:2503:0
  %onnx::Sqrt_9846 : Float(1, 1, 1, strides=[1, 1, 1], device=cpu) = onnx::Add[onnx_name="Add_5940"](%onnx::Add_9844, %onnx::Add_9845) # /home/ashishpapanai/miniconda3/envs/parseq/lib/python3.7/site-packages/torch/nn/functional.py:2503:0
  %onnx::Div_9847 : Float(1, 1, 1, strides=[1, 1, 1], device=cpu) = onnx::Sqrt[onnx_name="Sqrt_5941"](%onnx::Sqrt_9846) # /home/ashishpapanai/miniconda3/envs/parseq/lib/python3.7/site-packages/torch/nn/functional.py:2503:0
  %onnx::Mul_9848 : Float(1, 1, 384, strides=[384, 384, 1], device=cpu) = onnx::Div[onnx_name="Div_5942"](%onnx::Pow_9841, %onnx::Div_9847) # /home/ashishpapanai/miniconda3/envs/parseq/lib/python3.7/site-packages/torch/nn/functional.py:2503:0
  %onnx::Add_9849 : Float(1, 1, 384, strides=[384, 384, 1], device=cpu) = onnx::Mul[onnx_name="Mul_5943"](%onnx::Mul_9848, %decoder.layers.0.norm_q.weight) # /home/ashishpapanai/miniconda3/envs/parseq/lib/python3.7/site-packages/torch/nn/functional.py:2503:0
  %query.399 : Float(1, 1, 384, strides=[384, 384, 1], requires_grad=0, device=cpu) = onnx::Add[onnx_name="Add_5944"](%onnx::Add_9849, %decoder.layers.0.norm_q.bias) # /home/ashishpapanai/miniconda3/envs/parseq/lib/python3.7/site-packages/torch/nn/functional.py:2503:0
  %onnx::Sub_9851 : Float(1, 26, 1, strides=[26, 1, 1], device=cpu) = onnx::ReduceMean[axes=[-1], onnx_name="ReduceMean_5945"](%input.1404) # /home/ashishpapanai/miniconda3/envs/parseq/lib/python3.7/site-packages/torch/nn/functional.py:2503:0
  %onnx::Pow_9852 : Float(1, 26, 384, strides=[9984, 384, 1], device=cpu) = onnx::Sub[onnx_name="Sub_5946"](%input.1404, %onnx::Sub_9851) # /home/ashishpapanai/miniconda3/envs/parseq/lib/python3.7/site-packages/torch/nn/functional.py:2503:0
  %onnx::Pow_9853 : Float(requires_grad=0, device=cpu) = onnx::Constant[value={2}, onnx_name="Constant_5947"]() # /home/ashishpapanai/miniconda3/envs/parseq/lib/python3.7/site-packages/torch/nn/functional.py:2503:0
  %onnx::ReduceMean_9854 : Float(1, 26, 384, strides=[9984, 384, 1], device=cpu) = onnx::Pow[onnx_name="Pow_5948"](%onnx::Pow_9852, %onnx::Pow_9853) # /home/ashishpapanai/miniconda3/envs/parseq/lib/python3.7/site-packages/torch/nn/functional.py:2503:0
  %onnx::Add_9855 : Float(1, 26, 1, strides=[26, 1, 1], device=cpu) = onnx::ReduceMean[axes=[-1], onnx_name="ReduceMean_5949"](%onnx::ReduceMean_9854) # /home/ashishpapanai/miniconda3/envs/parseq/lib/python3.7/site-packages/torch/nn/functional.py:2503:0
  %onnx::Add_9856 : Float(requires_grad=0, device=cpu) = onnx::Constant[value={1e-05}, onnx_name="Constant_5950"]() # /home/ashishpapanai/miniconda3/envs/parseq/lib/python3.7/site-packages/torch/nn/functional.py:2503:0
  %onnx::Sqrt_9857 : Float(1, 26, 1, strides=[26, 1, 1], device=cpu) = onnx::Add[onnx_name="Add_5951"](%onnx::Add_9855, %onnx::Add_9856) # /home/ashishpapanai/miniconda3/envs/parseq/lib/python3.7/site-packages/torch/nn/functional.py:2503:0
  %onnx::Div_9858 : Float(1, 26, 1, strides=[26, 1, 1], device=cpu) = onnx::Sqrt[onnx_name="Sqrt_5952"](%onnx::Sqrt_9857) # /home/ashishpapanai/miniconda3/envs/parseq/lib/python3.7/site-packages/torch/nn/functional.py:2503:0
  %onnx::Mul_9859 : Float(1, 26, 384, strides=[9984, 384, 1], device=cpu) = onnx::Div[onnx_name="Div_5953"](%onnx::Pow_9852, %onnx::Div_9858) # /home/ashishpapanai/miniconda3/envs/parseq/lib/python3.7/site-packages/torch/nn/functional.py:2503:0
  %onnx::Add_9860 : Float(1, 26, 384, strides=[9984, 384, 1], device=cpu) = onnx::Mul[onnx_name="Mul_5954"](%onnx::Mul_9859, %decoder.layers.0.norm_c.weight) # /home/ashishpapanai/miniconda3/envs/parseq/lib/python3.7/site-packages/torch/nn/functional.py:2503:0
  %key.303 : Float(1, 26, 384, strides=[9984, 384, 1], requires_grad=0, device=cpu) = onnx::Add[onnx_name="Add_5955"](%onnx::Add_9860, %decoder.layers.0.norm_c.bias) # /home/ashishpapanai/miniconda3/envs/parseq/lib/python3.7/site-packages/torch/nn/functional.py:2503:0
  %query.403 : Float(1, 1, 384, strides=[384, 384, 1], requires_grad=0, device=cpu) = onnx::Transpose[perm=[1, 0, 2], onnx_name="Transpose_5956"](%query.399) # /home/ashishpapanai/miniconda3/envs/parseq/lib/python3.7/site-packages/torch/nn/modules/activation.py:1136:0
  %key.307 : Float(26, 1, 384, strides=[384, 9984, 1], requires_grad=0, device=cpu) = onnx::Transpose[perm=[1, 0, 2], onnx_name="Transpose_5957"](%key.303) # /home/ashishpapanai/miniconda3/envs/parseq/lib/python3.7/site-packages/torch/nn/modules/activation.py:1136:0
  %onnx::Add_9894 : Float(1, 1, 384, strides=[384, 384, 1], device=cpu) = onnx::MatMul[onnx_name="MatMul_5958"](%query.403, %onnx::MatMul_12151) # /home/ashishpapanai/miniconda3/envs/parseq/lib/python3.7/site-packages/torch/nn/functional.py:4753:0
  %onnx::Reshape_9895 : Float(1, 1, 384, strides=[384, 384, 1], requires_grad=0, device=cpu) = onnx::Add[onnx_name="Add_5959"](%onnx::Add_12148, %onnx::Add_9894) # /home/ashishpapanai/miniconda3/envs/parseq/lib/python3.7/site-packages/torch/nn/functional.py:4753:0
  %onnx::Add_9897 : Float(26, 1, 768, strides=[768, 768, 1], device=cpu) = onnx::MatMul[onnx_name="MatMul_5960"](%key.307, %onnx::MatMul_12152) # /home/ashishpapanai/miniconda3/envs/parseq/lib/python3.7/site-packages/torch/nn/functional.py:4753:0
  %onnx::Shape_9898 : Float(26, 1, 768, strides=[768, 768, 1], requires_grad=0, device=cpu) = onnx::Add[onnx_name="Add_5961"](%onnx::Add_12150, %onnx::Add_9897) # /home/ashishpapanai/miniconda3/envs/parseq/lib/python3.7/site-packages/torch/nn/functional.py:4753:0
  %onnx::Gather_9899 : Long(3, strides=[1], device=cpu) = onnx::Shape[onnx_name="Shape_5962"](%onnx::Shape_9898) # /home/ashishpapanai/miniconda3/envs/parseq/lib/python3.7/site-packages/torch/nn/functional.py:4753:0
  %onnx::Gather_9900 : Long(1, strides=[1], device=cpu) = onnx::Constant[value={-1}, onnx_name="Constant_5963"]() # /home/ashishpapanai/miniconda3/envs/parseq/lib/python3.7/site-packages/torch/nn/functional.py:4753:0
  %onnx::Add_9901 : Long(1, strides=[1], device=cpu) = onnx::Gather[axis=0, onnx_name="Gather_5964"](%onnx::Gather_9899, %onnx::Gather_9900) # /home/ashishpapanai/miniconda3/envs/parseq/lib/python3.7/site-packages/torch/nn/functional.py:4753:0
  %onnx::Slice_9902 : Long(1, strides=[1], device=cpu) = onnx::Constant[value={0}, onnx_name="Constant_5965"]() # /home/ashishpapanai/miniconda3/envs/parseq/lib/python3.7/site-packages/torch/nn/functional.py:4753:0
  %onnx::Add_9903 : Long(1, strides=[1], requires_grad=0, device=cpu) = onnx::Constant[value={1}, onnx_name="Constant_5966"]() # /home/ashishpapanai/miniconda3/envs/parseq/lib/python3.7/site-packages/torch/nn/functional.py:4753:0
  %onnx::Div_9904 : Long(1, strides=[1], device=cpu) = onnx::Add[onnx_name="Add_5967"](%onnx::Add_9901, %onnx::Add_9903) # /home/ashishpapanai/miniconda3/envs/parseq/lib/python3.7/site-packages/torch/nn/functional.py:4753:0
  %onnx::Div_9905 : Long(1, strides=[1], requires_grad=0, device=cpu) = onnx::Constant[value={2}, onnx_name="Constant_5968"]() # /home/ashishpapanai/miniconda3/envs/parseq/lib/python3.7/site-packages/torch/nn/functional.py:4753:0
  %onnx::Mul_9906 : Long(1, strides=[1], device=cpu) = onnx::Div[onnx_name="Div_5969"](%onnx::Div_9904, %onnx::Div_9905) # /home/ashishpapanai/miniconda3/envs/parseq/lib/python3.7/site-packages/torch/nn/functional.py:4753:0
  %onnx::Mul_9907 : Long(1, strides=[1], requires_grad=0, device=cpu) = onnx::Constant[value={1}, onnx_name="Constant_5970"]() # /home/ashishpapanai/miniconda3/envs/parseq/lib/python3.7/site-packages/torch/nn/functional.py:4753:0
  %onnx::Slice_9908 : Long(1, strides=[1], device=cpu) = onnx::Mul[onnx_name="Mul_5971"](%onnx::Mul_9906, %onnx::Mul_9907) # /home/ashishpapanai/miniconda3/envs/parseq/lib/python3.7/site-packages/torch/nn/functional.py:4753:0
  %onnx::Reshape_9909 : Float(26, 1, 384, strides=[384, 384, 1], requires_grad=0, device=cpu) = onnx::Slice[onnx_name="Slice_5972"](%onnx::Shape_9898, %onnx::Slice_9902, %onnx::Slice_9908, %onnx::Gather_9900) # /home/ashishpapanai/miniconda3/envs/parseq/lib/python3.7/site-packages/torch/nn/functional.py:4753:0
  %onnx::Mul_9910 : Long(1, strides=[1], requires_grad=0, device=cpu) = onnx::Constant[value={2}, onnx_name="Constant_5973"]() # /home/ashishpapanai/miniconda3/envs/parseq/lib/python3.7/site-packages/torch/nn/functional.py:4753:0
  %onnx::Slice_9911 : Long(1, strides=[1], device=cpu) = onnx::Mul[onnx_name="Mul_5974"](%onnx::Mul_9906, %onnx::Mul_9910) # /home/ashishpapanai/miniconda3/envs/parseq/lib/python3.7/site-packages/torch/nn/functional.py:4753:0
  %onnx::Reshape_9912 : Float(26, 1, 384, strides=[384, 384, 1], requires_grad=0, device=cpu) = onnx::Slice[onnx_name="Slice_5975"](%onnx::Shape_9898, %onnx::Slice_9908, %onnx::Slice_9911, %onnx::Gather_9900) # /home/ashishpapanai/miniconda3/envs/parseq/lib/python3.7/site-packages/torch/nn/functional.py:4753:0
  %onnx::Transpose_9921 : Float(1, 12, 32, strides=[384, 32, 1], requires_grad=0, device=cpu) = onnx::Reshape[allowzero=0, onnx_name="Reshape_5976"](%onnx::Reshape_9895, %onnx::Reshape_12156) # /home/ashishpapanai/miniconda3/envs/parseq/lib/python3.7/site-packages/torch/nn/functional.py:5120:0
  %q.199 : Float(12, 1, 32, strides=[32, 384, 1], requires_grad=0, device=cpu) = onnx::Transpose[perm=[1, 0, 2], onnx_name="Transpose_5977"](%onnx::Transpose_9921) # /home/ashishpapanai/miniconda3/envs/parseq/lib/python3.7/site-packages/torch/nn/functional.py:5120:0
  %onnx::Transpose_9932 : Float(26, 12, 32, strides=[384, 32, 1], requires_grad=0, device=cpu) = onnx::Reshape[allowzero=0, onnx_name="Reshape_5978"](%onnx::Reshape_9909, %onnx::Reshape_12160) # /home/ashishpapanai/miniconda3/envs/parseq/lib/python3.7/site-packages/torch/nn/functional.py:5122:0
  %onnx::Transpose_9942 : Float(26, 12, 32, strides=[384, 32, 1], requires_grad=0, device=cpu) = onnx::Reshape[allowzero=0, onnx_name="Reshape_5979"](%onnx::Reshape_9912, %onnx::Reshape_12164) # /home/ashishpapanai/miniconda3/envs/parseq/lib/python3.7/site-packages/torch/nn/functional.py:5131:0
  %v.199 : Float(12, 26, 32, strides=[32, 384, 1], requires_grad=0, device=cpu) = onnx::Transpose[perm=[1, 0, 2], onnx_name="Transpose_5980"](%onnx::Transpose_9942) # /home/ashishpapanai/miniconda3/envs/parseq/lib/python3.7/site-packages/torch/nn/functional.py:5131:0
  %onnx::Div_9944 : Float(requires_grad=0, device=cpu) = onnx::Constant[value={5.65685}, onnx_name="Constant_5981"]()
  %onnx::MatMul_9945 : Float(12, 1, 32, strides=[32, 384, 1], requires_grad=0, device=cpu) = onnx::Div[onnx_name="Div_5982"](%q.199, %onnx::Div_9944) # /home/ashishpapanai/miniconda3/envs/parseq/lib/python3.7/site-packages/torch/nn/functional.py:4849:0
  %onnx::MatMul_9946 : Float(12, 32, 26, strides=[32, 1, 384], requires_grad=0, device=cpu) = onnx::Transpose[perm=[1, 2, 0], onnx_name="Transpose_5983"](%onnx::Transpose_9932) # /home/ashishpapanai/miniconda3/envs/parseq/lib/python3.7/site-packages/torch/nn/functional.py:4852:0
  %onnx::Mul_9949 : Float(12, 1, 26, strides=[26, 26, 1], device=cpu) = onnx::MatMul[onnx_name="MatMul_5984"](%onnx::MatMul_9945, %onnx::MatMul_9946) # /home/ashishpapanai/miniconda3/envs/parseq/lib/python3.7/site-packages/torch/nn/functional.py:4852:0
  %onnx::Add_9951 : Float(12, 1, 26, strides=[26, 26, 1], device=cpu) = onnx::Mul[onnx_name="Mul_5985"](%onnx::Mul_9949, %onnx::Mul_12165) # /home/ashishpapanai/miniconda3/envs/parseq/lib/python3.7/site-packages/torch/nn/functional.py:4852:0
  %attn.199 : Float(12, 1, 26, strides=[26, 26, 1], requires_grad=0, device=cpu) = onnx::Add[onnx_name="Add_5986"](%onnx::Add_9951, %onnx::Add_12167) # /home/ashishpapanai/miniconda3/envs/parseq/lib/python3.7/site-packages/torch/nn/functional.py:4852:0
  %onnx::MatMul_9956 : Float(12, 1, 26, strides=[26, 26, 1], requires_grad=0, device=cpu) = onnx::Softmax[axis=-1, onnx_name="Softmax_5987"](%attn.199) # /home/ashishpapanai/miniconda3/envs/parseq/lib/python3.7/site-packages/torch/nn/functional.py:1834:0
  %onnx::Transpose_9957 : Float(12, 1, 32, strides=[32, 32, 1], requires_grad=0, device=cpu) = onnx::MatMul[onnx_name="MatMul_5988"](%onnx::MatMul_9956, %v.199) # /home/ashishpapanai/miniconda3/envs/parseq/lib/python3.7/site-packages/torch/nn/functional.py:4860:0
  %onnx::Reshape_9958 : Float(1, 12, 32, strides=[32, 32, 1], requires_grad=0, device=cpu) = onnx::Transpose[perm=[1, 0, 2], onnx_name="Transpose_5989"](%onnx::Transpose_9957) # /home/ashishpapanai/miniconda3/envs/parseq/lib/python3.7/site-packages/torch/nn/functional.py:5180:0
  %onnx::Gemm_9965 : Float(1, 384, strides=[384, 1], requires_grad=0, device=cpu) = onnx::Reshape[allowzero=0, onnx_name="Reshape_5990"](%onnx::Reshape_9958, %onnx::Reshape_12170) # /home/ashishpapanai/miniconda3/envs/parseq/lib/python3.7/site-packages/torch/nn/functional.py:5180:0
  %onnx::Reshape_9966 : Float(1, 384, strides=[384, 1], requires_grad=0, device=cpu) = onnx::Gemm[alpha=1., beta=1., transB=1, onnx_name="Gemm_5991"](%onnx::Gemm_9965, %decoder.layers.0.self_attn.out_proj.weight, %decoder.layers.0.self_attn.out_proj.bias) # /home/ashishpapanai/miniconda3/envs/parseq/lib/python3.7/site-packages/torch/nn/functional.py:5181:0
  %onnx::Transpose_9975 : Float(1, 1, 384, strides=[384, 384, 1], requires_grad=0, device=cpu) = onnx::Reshape[allowzero=0, onnx_name="Reshape_5992"](%onnx::Reshape_9966, %onnx::Reshape_12174) # /home/ashishpapanai/miniconda3/envs/parseq/lib/python3.7/site-packages/torch/nn/functional.py:5182:0
  %input.1408 : Float(1, 1, 384, strides=[384, 384, 1], requires_grad=0, device=cpu) = onnx::Transpose[perm=[1, 0, 2], onnx_name="Transpose_5993"](%onnx::Transpose_9975) # /home/ashishpapanai/miniconda3/envs/parseq/lib/python3.7/site-packages/torch/nn/modules/activation.py:1162:0
  %input.1412 : Float(1, 1, 384, strides=[384, 384, 1], requires_grad=0, device=cpu) = onnx::Add[onnx_name="Add_5994"](%input.1392, %input.1408) # /home/ashishpapanai/Desktop/MAVI/parseq/strhub/models/parseq/modules.py:65:0
  %onnx::Sub_9978 : Float(1, 1, 1, strides=[1, 1, 1], device=cpu) = onnx::ReduceMean[axes=[-1], onnx_name="ReduceMean_5995"](%input.1412) # /home/ashishpapanai/miniconda3/envs/parseq/lib/python3.7/site-packages/torch/nn/functional.py:2503:0
  %onnx::Pow_9979 : Float(1, 1, 384, strides=[384, 384, 1], device=cpu) = onnx::Sub[onnx_name="Sub_5996"](%input.1412, %onnx::Sub_9978) # /home/ashishpapanai/miniconda3/envs/parseq/lib/python3.7/site-packages/torch/nn/functional.py:2503:0
  %onnx::Pow_9980 : Float(requires_grad=0, device=cpu) = onnx::Constant[value={2}, onnx_name="Constant_5997"]() # /home/ashishpapanai/miniconda3/envs/parseq/lib/python3.7/site-packages/torch/nn/functional.py:2503:0
  %onnx::ReduceMean_9981 : Float(1, 1, 384, strides=[384, 384, 1], device=cpu) = onnx::Pow[onnx_name="Pow_5998"](%onnx::Pow_9979, %onnx::Pow_9980) # /home/ashishpapanai/miniconda3/envs/parseq/lib/python3.7/site-packages/torch/nn/functional.py:2503:0
  %onnx::Add_9982 : Float(1, 1, 1, strides=[1, 1, 1], device=cpu) = onnx::ReduceMean[axes=[-1], onnx_name="ReduceMean_5999"](%onnx::ReduceMean_9981) # /home/ashishpapanai/miniconda3/envs/parseq/lib/python3.7/site-packages/torch/nn/functional.py:2503:0
  %onnx::Add_9983 : Float(requires_grad=0, device=cpu) = onnx::Constant[value={1e-05}, onnx_name="Constant_6000"]() # /home/ashishpapanai/miniconda3/envs/parseq/lib/python3.7/site-packages/torch/nn/functional.py:2503:0
  %onnx::Sqrt_9984 : Float(1, 1, 1, strides=[1, 1, 1], device=cpu) = onnx::Add[onnx_name="Add_6001"](%onnx::Add_9982, %onnx::Add_9983) # /home/ashishpapanai/miniconda3/envs/parseq/lib/python3.7/site-packages/torch/nn/functional.py:2503:0
  %onnx::Div_9985 : Float(1, 1, 1, strides=[1, 1, 1], device=cpu) = onnx::Sqrt[onnx_name="Sqrt_6002"](%onnx::Sqrt_9984) # /home/ashishpapanai/miniconda3/envs/parseq/lib/python3.7/site-packages/torch/nn/functional.py:2503:0
  %onnx::Mul_9986 : Float(1, 1, 384, strides=[384, 384, 1], device=cpu) = onnx::Div[onnx_name="Div_6003"](%onnx::Pow_9979, %onnx::Div_9985) # /home/ashishpapanai/miniconda3/envs/parseq/lib/python3.7/site-packages/torch/nn/functional.py:2503:0
  %onnx::Add_9987 : Float(1, 1, 384, strides=[384, 384, 1], device=cpu) = onnx::Mul[onnx_name="Mul_6004"](%onnx::Mul_9986, %decoder.layers.0.norm1.weight) # /home/ashishpapanai/miniconda3/envs/parseq/lib/python3.7/site-packages/torch/nn/functional.py:2503:0
  %query.407 : Float(1, 1, 384, strides=[384, 384, 1], requires_grad=0, device=cpu) = onnx::Add[onnx_name="Add_6005"](%onnx::Add_9987, %decoder.layers.0.norm1.bias) # /home/ashishpapanai/miniconda3/envs/parseq/lib/python3.7/site-packages/torch/nn/functional.py:2503:0
  %query.411 : Float(1, 1, 384, strides=[384, 384, 1], requires_grad=0, device=cpu) = onnx::Transpose[perm=[1, 0, 2], onnx_name="Transpose_6006"](%query.407) # /home/ashishpapanai/miniconda3/envs/parseq/lib/python3.7/site-packages/torch/nn/modules/activation.py:1136:0
  %key.311 : Float(128, 1, 384, strides=[384, 49152, 1], requires_grad=0, device=cpu) = onnx::Transpose[perm=[1, 0, 2], onnx_name="Transpose_6007"](%key) # /home/ashishpapanai/miniconda3/envs/parseq/lib/python3.7/site-packages/torch/nn/modules/activation.py:1136:0
  %onnx::Add_10021 : Float(1, 1, 384, strides=[384, 384, 1], device=cpu) = onnx::MatMul[onnx_name="MatMul_6008"](%query.411, %onnx::MatMul_12187) # /home/ashishpapanai/miniconda3/envs/parseq/lib/python3.7/site-packages/torch/nn/functional.py:4753:0
  %onnx::Reshape_10022 : Float(1, 1, 384, strides=[384, 384, 1], requires_grad=0, device=cpu) = onnx::Add[onnx_name="Add_6009"](%onnx::Add_12184, %onnx::Add_10021) # /home/ashishpapanai/miniconda3/envs/parseq/lib/python3.7/site-packages/torch/nn/functional.py:4753:0
  %onnx::Add_10024 : Float(128, 1, 768, strides=[768, 768, 1], device=cpu) = onnx::MatMul[onnx_name="MatMul_6010"](%key.311, %onnx::MatMul_12188) # /home/ashishpapanai/miniconda3/envs/parseq/lib/python3.7/site-packages/torch/nn/functional.py:4753:0
  %onnx::Shape_10025 : Float(128, 1, 768, strides=[768, 768, 1], requires_grad=0, device=cpu) = onnx::Add[onnx_name="Add_6011"](%onnx::Add_12186, %onnx::Add_10024) # /home/ashishpapanai/miniconda3/envs/parseq/lib/python3.7/site-packages/torch/nn/functional.py:4753:0
  %onnx::Gather_10026 : Long(3, strides=[1], device=cpu) = onnx::Shape[onnx_name="Shape_6012"](%onnx::Shape_10025) # /home/ashishpapanai/miniconda3/envs/parseq/lib/python3.7/site-packages/torch/nn/functional.py:4753:0
  %onnx::Gather_10027 : Long(1, strides=[1], device=cpu) = onnx::Constant[value={-1}, onnx_name="Constant_6013"]() # /home/ashishpapanai/miniconda3/envs/parseq/lib/python3.7/site-packages/torch/nn/functional.py:4753:0
  %onnx::Add_10028 : Long(1, strides=[1], device=cpu) = onnx::Gather[axis=0, onnx_name="Gather_6014"](%onnx::Gather_10026, %onnx::Gather_10027) # /home/ashishpapanai/miniconda3/envs/parseq/lib/python3.7/site-packages/torch/nn/functional.py:4753:0
  %onnx::Slice_10029 : Long(1, strides=[1], device=cpu) = onnx::Constant[value={0}, onnx_name="Constant_6015"]() # /home/ashishpapanai/miniconda3/envs/parseq/lib/python3.7/site-packages/torch/nn/functional.py:4753:0
  %onnx::Add_10030 : Long(1, strides=[1], requires_grad=0, device=cpu) = onnx::Constant[value={1}, onnx_name="Constant_6016"]() # /home/ashishpapanai/miniconda3/envs/parseq/lib/python3.7/site-packages/torch/nn/functional.py:4753:0
  %onnx::Div_10031 : Long(1, strides=[1], device=cpu) = onnx::Add[onnx_name="Add_6017"](%onnx::Add_10028, %onnx::Add_10030) # /home/ashishpapanai/miniconda3/envs/parseq/lib/python3.7/site-packages/torch/nn/functional.py:4753:0
  %onnx::Div_10032 : Long(1, strides=[1], requires_grad=0, device=cpu) = onnx::Constant[value={2}, onnx_name="Constant_6018"]() # /home/ashishpapanai/miniconda3/envs/parseq/lib/python3.7/site-packages/torch/nn/functional.py:4753:0
  %onnx::Mul_10033 : Long(1, strides=[1], device=cpu) = onnx::Div[onnx_name="Div_6019"](%onnx::Div_10031, %onnx::Div_10032) # /home/ashishpapanai/miniconda3/envs/parseq/lib/python3.7/site-packages/torch/nn/functional.py:4753:0
  %onnx::Mul_10034 : Long(1, strides=[1], requires_grad=0, device=cpu) = onnx::Constant[value={1}, onnx_name="Constant_6020"]() # /home/ashishpapanai/miniconda3/envs/parseq/lib/python3.7/site-packages/torch/nn/functional.py:4753:0
  %onnx::Slice_10035 : Long(1, strides=[1], device=cpu) = onnx::Mul[onnx_name="Mul_6021"](%onnx::Mul_10033, %onnx::Mul_10034) # /home/ashishpapanai/miniconda3/envs/parseq/lib/python3.7/site-packages/torch/nn/functional.py:4753:0
  %onnx::Reshape_10036 : Float(128, 1, 384, strides=[384, 384, 1], requires_grad=0, device=cpu) = onnx::Slice[onnx_name="Slice_6022"](%onnx::Shape_10025, %onnx::Slice_10029, %onnx::Slice_10035, %onnx::Gather_10027) # /home/ashishpapanai/miniconda3/envs/parseq/lib/python3.7/site-packages/torch/nn/functional.py:4753:0
  %onnx::Mul_10037 : Long(1, strides=[1], requires_grad=0, device=cpu) = onnx::Constant[value={2}, onnx_name="Constant_6023"]() # /home/ashishpapanai/miniconda3/envs/parseq/lib/python3.7/site-packages/torch/nn/functional.py:4753:0
  %onnx::Slice_10038 : Long(1, strides=[1], device=cpu) = onnx::Mul[onnx_name="Mul_6024"](%onnx::Mul_10033, %onnx::Mul_10037) # /home/ashishpapanai/miniconda3/envs/parseq/lib/python3.7/site-packages/torch/nn/functional.py:4753:0
  %onnx::Reshape_10039 : Float(128, 1, 384, strides=[384, 384, 1], requires_grad=0, device=cpu) = onnx::Slice[onnx_name="Slice_6025"](%onnx::Shape_10025, %onnx::Slice_10035, %onnx::Slice_10038, %onnx::Gather_10027) # /home/ashishpapanai/miniconda3/envs/parseq/lib/python3.7/site-packages/torch/nn/functional.py:4753:0
  %onnx::Transpose_10048 : Float(1, 12, 32, strides=[384, 32, 1], requires_grad=0, device=cpu) = onnx::Reshape[allowzero=0, onnx_name="Reshape_6026"](%onnx::Reshape_10022, %onnx::Reshape_12192) # /home/ashishpapanai/miniconda3/envs/parseq/lib/python3.7/site-packages/torch/nn/functional.py:5120:0
  %q.203 : Float(12, 1, 32, strides=[32, 384, 1], requires_grad=0, device=cpu) = onnx::Transpose[perm=[1, 0, 2], onnx_name="Transpose_6027"](%onnx::Transpose_10048) # /home/ashishpapanai/miniconda3/envs/parseq/lib/python3.7/site-packages/torch/nn/functional.py:5120:0
  %onnx::Transpose_10059 : Float(128, 12, 32, strides=[384, 32, 1], requires_grad=0, device=cpu) = onnx::Reshape[allowzero=0, onnx_name="Reshape_6028"](%onnx::Reshape_10036, %onnx::Reshape_12196) # /home/ashishpapanai/miniconda3/envs/parseq/lib/python3.7/site-packages/torch/nn/functional.py:5122:0
  %onnx::Transpose_10069 : Float(128, 12, 32, strides=[384, 32, 1], requires_grad=0, device=cpu) = onnx::Reshape[allowzero=0, onnx_name="Reshape_6029"](%onnx::Reshape_10039, %onnx::Reshape_12200) # /home/ashishpapanai/miniconda3/envs/parseq/lib/python3.7/site-packages/torch/nn/functional.py:5131:0
  %v.203 : Float(12, 128, 32, strides=[32, 384, 1], requires_grad=0, device=cpu) = onnx::Transpose[perm=[1, 0, 2], onnx_name="Transpose_6030"](%onnx::Transpose_10069) # /home/ashishpapanai/miniconda3/envs/parseq/lib/python3.7/site-packages/torch/nn/functional.py:5131:0
  %onnx::Div_10071 : Float(requires_grad=0, device=cpu) = onnx::Constant[value={5.65685}, onnx_name="Constant_6031"]()
  %onnx::MatMul_10072 : Float(12, 1, 32, strides=[32, 384, 1], requires_grad=0, device=cpu) = onnx::Div[onnx_name="Div_6032"](%q.203, %onnx::Div_10071) # /home/ashishpapanai/miniconda3/envs/parseq/lib/python3.7/site-packages/torch/nn/functional.py:4849:0
  %onnx::MatMul_10073 : Float(12, 32, 128, strides=[32, 1, 384], requires_grad=0, device=cpu) = onnx::Transpose[perm=[1, 2, 0], onnx_name="Transpose_6033"](%onnx::Transpose_10059) # /home/ashishpapanai/miniconda3/envs/parseq/lib/python3.7/site-packages/torch/nn/functional.py:4854:0
  %attn.203 : Float(12, 1, 128, strides=[128, 128, 1], requires_grad=0, device=cpu) = onnx::MatMul[onnx_name="MatMul_6034"](%onnx::MatMul_10072, %onnx::MatMul_10073) # /home/ashishpapanai/miniconda3/envs/parseq/lib/python3.7/site-packages/torch/nn/functional.py:4854:0
  %onnx::MatMul_10075 : Float(12, 1, 128, strides=[128, 128, 1], requires_grad=0, device=cpu) = onnx::Softmax[axis=-1, onnx_name="Softmax_6035"](%attn.203) # /home/ashishpapanai/miniconda3/envs/parseq/lib/python3.7/site-packages/torch/nn/functional.py:1834:0
  %onnx::Transpose_10076 : Float(12, 1, 32, strides=[32, 32, 1], requires_grad=0, device=cpu) = onnx::MatMul[onnx_name="MatMul_6036"](%onnx::MatMul_10075, %v.203) # /home/ashishpapanai/miniconda3/envs/parseq/lib/python3.7/site-packages/torch/nn/functional.py:4860:0
  %onnx::Reshape_10077 : Float(1, 12, 32, strides=[32, 32, 1], requires_grad=0, device=cpu) = onnx::Transpose[perm=[1, 0, 2], onnx_name="Transpose_6037"](%onnx::Transpose_10076) # /home/ashishpapanai/miniconda3/envs/parseq/lib/python3.7/site-packages/torch/nn/functional.py:5180:0
  %onnx::Gemm_10084 : Float(1, 384, strides=[384, 1], requires_grad=0, device=cpu) = onnx::Reshape[allowzero=0, onnx_name="Reshape_6038"](%onnx::Reshape_10077, %onnx::Reshape_12203) # /home/ashishpapanai/miniconda3/envs/parseq/lib/python3.7/site-packages/torch/nn/functional.py:5180:0
  %onnx::Reshape_10085 : Float(1, 384, strides=[384, 1], requires_grad=0, device=cpu) = onnx::Gemm[alpha=1., beta=1., transB=1, onnx_name="Gemm_6039"](%onnx::Gemm_10084, %decoder.layers.0.cross_attn.out_proj.weight, %decoder.layers.0.cross_attn.out_proj.bias) # /home/ashishpapanai/miniconda3/envs/parseq/lib/python3.7/site-packages/torch/nn/functional.py:5181:0
  %onnx::Transpose_10094 : Float(1, 1, 384, strides=[384, 384, 1], requires_grad=0, device=cpu) = onnx::Reshape[allowzero=0, onnx_name="Reshape_6040"](%onnx::Reshape_10085, %onnx::Reshape_12207) # /home/ashishpapanai/miniconda3/envs/parseq/lib/python3.7/site-packages/torch/nn/functional.py:5182:0
  %input.1416 : Float(1, 1, 384, strides=[384, 384, 1], requires_grad=0, device=cpu) = onnx::Transpose[perm=[1, 0, 2], onnx_name="Transpose_6041"](%onnx::Transpose_10094) # /home/ashishpapanai/miniconda3/envs/parseq/lib/python3.7/site-packages/torch/nn/modules/activation.py:1162:0
  %input.1420 : Float(1, 1, 384, strides=[384, 384, 1], requires_grad=0, device=cpu) = onnx::Add[onnx_name="Add_6042"](%input.1412, %input.1416) # /home/ashishpapanai/Desktop/MAVI/parseq/strhub/models/parseq/modules.py:68:0
  %onnx::Sub_10097 : Float(1, 1, 1, strides=[1, 1, 1], device=cpu) = onnx::ReduceMean[axes=[-1], onnx_name="ReduceMean_6043"](%input.1420) # /home/ashishpapanai/miniconda3/envs/parseq/lib/python3.7/site-packages/torch/nn/functional.py:2503:0
  %onnx::Pow_10098 : Float(1, 1, 384, strides=[384, 384, 1], device=cpu) = onnx::Sub[onnx_name="Sub_6044"](%input.1420, %onnx::Sub_10097) # /home/ashishpapanai/miniconda3/envs/parseq/lib/python3.7/site-packages/torch/nn/functional.py:2503:0
  %onnx::Pow_10099 : Float(requires_grad=0, device=cpu) = onnx::Constant[value={2}, onnx_name="Constant_6045"]() # /home/ashishpapanai/miniconda3/envs/parseq/lib/python3.7/site-packages/torch/nn/functional.py:2503:0
  %onnx::ReduceMean_10100 : Float(1, 1, 384, strides=[384, 384, 1], device=cpu) = onnx::Pow[onnx_name="Pow_6046"](%onnx::Pow_10098, %onnx::Pow_10099) # /home/ashishpapanai/miniconda3/envs/parseq/lib/python3.7/site-packages/torch/nn/functional.py:2503:0
  %onnx::Add_10101 : Float(1, 1, 1, strides=[1, 1, 1], device=cpu) = onnx::ReduceMean[axes=[-1], onnx_name="ReduceMean_6047"](%onnx::ReduceMean_10100) # /home/ashishpapanai/miniconda3/envs/parseq/lib/python3.7/site-packages/torch/nn/functional.py:2503:0
  %onnx::Add_10102 : Float(requires_grad=0, device=cpu) = onnx::Constant[value={1e-05}, onnx_name="Constant_6048"]() # /home/ashishpapanai/miniconda3/envs/parseq/lib/python3.7/site-packages/torch/nn/functional.py:2503:0
  %onnx::Sqrt_10103 : Float(1, 1, 1, strides=[1, 1, 1], device=cpu) = onnx::Add[onnx_name="Add_6049"](%onnx::Add_10101, %onnx::Add_10102) # /home/ashishpapanai/miniconda3/envs/parseq/lib/python3.7/site-packages/torch/nn/functional.py:2503:0
  %onnx::Div_10104 : Float(1, 1, 1, strides=[1, 1, 1], device=cpu) = onnx::Sqrt[onnx_name="Sqrt_6050"](%onnx::Sqrt_10103) # /home/ashishpapanai/miniconda3/envs/parseq/lib/python3.7/site-packages/torch/nn/functional.py:2503:0
  %onnx::Mul_10105 : Float(1, 1, 384, strides=[384, 384, 1], device=cpu) = onnx::Div[onnx_name="Div_6051"](%onnx::Pow_10098, %onnx::Div_10104) # /home/ashishpapanai/miniconda3/envs/parseq/lib/python3.7/site-packages/torch/nn/functional.py:2503:0
  %onnx::Add_10106 : Float(1, 1, 384, strides=[384, 384, 1], device=cpu) = onnx::Mul[onnx_name="Mul_6052"](%onnx::Mul_10105, %decoder.layers.0.norm2.weight) # /home/ashishpapanai/miniconda3/envs/parseq/lib/python3.7/site-packages/torch/nn/functional.py:2503:0
  %onnx::MatMul_10107 : Float(1, 1, 384, strides=[384, 384, 1], requires_grad=0, device=cpu) = onnx::Add[onnx_name="Add_6053"](%onnx::Add_10106, %decoder.layers.0.norm2.bias) # /home/ashishpapanai/miniconda3/envs/parseq/lib/python3.7/site-packages/torch/nn/functional.py:2503:0
  %onnx::Add_10109 : Float(1, 1, 1536, strides=[1536, 1536, 1], device=cpu) = onnx::MatMul[onnx_name="MatMul_6054"](%onnx::MatMul_10107, %onnx::MatMul_12208) # /home/ashishpapanai/miniconda3/envs/parseq/lib/python3.7/site-packages/torch/nn/modules/linear.py:114:0
  %onnx::Div_10110 : Float(1, 1, 1536, strides=[1536, 1536, 1], requires_grad=0, device=cpu) = onnx::Add[onnx_name="Add_6055"](%decoder.layers.0.linear1.bias, %onnx::Add_10109) # /home/ashishpapanai/miniconda3/envs/parseq/lib/python3.7/site-packages/torch/nn/modules/linear.py:114:0
  %onnx::Div_10111 : Float(requires_grad=0, device=cpu) = onnx::Constant[value={1.41421}, onnx_name="Constant_6056"]() # /home/ashishpapanai/Desktop/MAVI/parseq/strhub/models/parseq/modules.py:70:0
  %onnx::Erf_10112 : Float(1, 1, 1536, strides=[1536, 1536, 1], device=cpu) = onnx::Div[onnx_name="Div_6057"](%onnx::Div_10110, %onnx::Div_10111) # /home/ashishpapanai/Desktop/MAVI/parseq/strhub/models/parseq/modules.py:70:0
  %onnx::Add_10113 : Float(1, 1, 1536, strides=[1536, 1536, 1], device=cpu) = onnx::Erf[onnx_name="Erf_6058"](%onnx::Erf_10112) # /home/ashishpapanai/Desktop/MAVI/parseq/strhub/models/parseq/modules.py:70:0
  %onnx::Add_10114 : Float(requires_grad=0, device=cpu) = onnx::Constant[value={1}, onnx_name="Constant_6059"]() # /home/ashishpapanai/Desktop/MAVI/parseq/strhub/models/parseq/modules.py:70:0
  %onnx::Mul_10115 : Float(1, 1, 1536, strides=[1536, 1536, 1], device=cpu) = onnx::Add[onnx_name="Add_6060"](%onnx::Add_10113, %onnx::Add_10114) # /home/ashishpapanai/Desktop/MAVI/parseq/strhub/models/parseq/modules.py:70:0
  %onnx::Mul_10116 : Float(1, 1, 1536, strides=[1536, 1536, 1], device=cpu) = onnx::Mul[onnx_name="Mul_6061"](%onnx::Div_10110, %onnx::Mul_10115) # /home/ashishpapanai/Desktop/MAVI/parseq/strhub/models/parseq/modules.py:70:0
  %onnx::Mul_10117 : Float(requires_grad=0, device=cpu) = onnx::Constant[value={0.5}, onnx_name="Constant_6062"]() # /home/ashishpapanai/Desktop/MAVI/parseq/strhub/models/parseq/modules.py:70:0
  %input.1424 : Float(1, 1, 1536, strides=[1536, 1536, 1], requires_grad=0, device=cpu) = onnx::Mul[onnx_name="Mul_6063"](%onnx::Mul_10116, %onnx::Mul_10117) # /home/ashishpapanai/Desktop/MAVI/parseq/strhub/models/parseq/modules.py:70:0
  %onnx::Add_10120 : Float(1, 1, 384, strides=[384, 384, 1], device=cpu) = onnx::MatMul[onnx_name="MatMul_6064"](%input.1424, %onnx::MatMul_12209) # /home/ashishpapanai/miniconda3/envs/parseq/lib/python3.7/site-packages/torch/nn/modules/linear.py:114:0
  %input.1428 : Float(1, 1, 384, strides=[384, 384, 1], requires_grad=0, device=cpu) = onnx::Add[onnx_name="Add_6065"](%decoder.layers.0.linear2.bias, %onnx::Add_10120) # /home/ashishpapanai/miniconda3/envs/parseq/lib/python3.7/site-packages/torch/nn/modules/linear.py:114:0
  %input.1432 : Float(1, 1, 384, strides=[384, 384, 1], requires_grad=0, device=cpu) = onnx::Add[onnx_name="Add_6066"](%input.1420, %input.1428) # /home/ashishpapanai/Desktop/MAVI/parseq/strhub/models/parseq/modules.py:71:0
  %onnx::Sub_10123 : Float(1, 1, 1, strides=[1, 1, 1], device=cpu) = onnx::ReduceMean[axes=[-1], onnx_name="ReduceMean_6067"](%input.1432) # /home/ashishpapanai/miniconda3/envs/parseq/lib/python3.7/site-packages/torch/nn/functional.py:2503:0
  %onnx::Pow_10124 : Float(1, 1, 384, strides=[384, 384, 1], device=cpu) = onnx::Sub[onnx_name="Sub_6068"](%input.1432, %onnx::Sub_10123) # /home/ashishpapanai/miniconda3/envs/parseq/lib/python3.7/site-packages/torch/nn/functional.py:2503:0
  %onnx::Pow_10125 : Float(requires_grad=0, device=cpu) = onnx::Constant[value={2}, onnx_name="Constant_6069"]() # /home/ashishpapanai/miniconda3/envs/parseq/lib/python3.7/site-packages/torch/nn/functional.py:2503:0
  %onnx::ReduceMean_10126 : Float(1, 1, 384, strides=[384, 384, 1], device=cpu) = onnx::Pow[onnx_name="Pow_6070"](%onnx::Pow_10124, %onnx::Pow_10125) # /home/ashishpapanai/miniconda3/envs/parseq/lib/python3.7/site-packages/torch/nn/functional.py:2503:0
  %onnx::Add_10127 : Float(1, 1, 1, strides=[1, 1, 1], device=cpu) = onnx::ReduceMean[axes=[-1], onnx_name="ReduceMean_6071"](%onnx::ReduceMean_10126) # /home/ashishpapanai/miniconda3/envs/parseq/lib/python3.7/site-packages/torch/nn/functional.py:2503:0
  %onnx::Add_10128 : Float(requires_grad=0, device=cpu) = onnx::Constant[value={1e-05}, onnx_name="Constant_6072"]() # /home/ashishpapanai/miniconda3/envs/parseq/lib/python3.7/site-packages/torch/nn/functional.py:2503:0
  %onnx::Sqrt_10129 : Float(1, 1, 1, strides=[1, 1, 1], device=cpu) = onnx::Add[onnx_name="Add_6073"](%onnx::Add_10127, %onnx::Add_10128) # /home/ashishpapanai/miniconda3/envs/parseq/lib/python3.7/site-packages/torch/nn/functional.py:2503:0
  %onnx::Div_10130 : Float(1, 1, 1, strides=[1, 1, 1], device=cpu) = onnx::Sqrt[onnx_name="Sqrt_6074"](%onnx::Sqrt_10129) # /home/ashishpapanai/miniconda3/envs/parseq/lib/python3.7/site-packages/torch/nn/functional.py:2503:0
  %onnx::Mul_10131 : Float(1, 1, 384, strides=[384, 384, 1], device=cpu) = onnx::Div[onnx_name="Div_6075"](%onnx::Pow_10124, %onnx::Div_10130) # /home/ashishpapanai/miniconda3/envs/parseq/lib/python3.7/site-packages/torch/nn/functional.py:2503:0
  %onnx::Add_10132 : Float(1, 1, 384, strides=[384, 384, 1], device=cpu) = onnx::Mul[onnx_name="Mul_6076"](%onnx::Mul_10131, %decoder.norm.weight) # /home/ashishpapanai/miniconda3/envs/parseq/lib/python3.7/site-packages/torch/nn/functional.py:2503:0
  %onnx::MatMul_10133 : Float(1, 1, 384, strides=[384, 384, 1], requires_grad=0, device=cpu) = onnx::Add[onnx_name="Add_6077"](%onnx::Add_10132, %decoder.norm.bias) # /home/ashishpapanai/miniconda3/envs/parseq/lib/python3.7/site-packages/torch/nn/functional.py:2503:0
  %onnx::Add_10135 : Float(1, 1, 95, strides=[95, 95, 1], device=cpu) = onnx::MatMul[onnx_name="MatMul_6078"](%onnx::MatMul_10133, %onnx::MatMul_12210) # /home/ashishpapanai/miniconda3/envs/parseq/lib/python3.7/site-packages/torch/nn/modules/linear.py:114:0
  %onnx::Concat_10136 : Float(1, 1, 95, strides=[95, 95, 1], requires_grad=0, device=cpu) = onnx::Add[onnx_name="Add_6079"](%head.bias, %onnx::Add_10135) # /home/ashishpapanai/miniconda3/envs/parseq/lib/python3.7/site-packages/torch/nn/modules/linear.py:114:0
  %output : Float(1, 26, 95, strides=[2470, 95, 1], requires_grad=0, device=cpu) = onnx::Concat[axis=1, onnx_name="Concat_6080"](%onnx::ArgMax_1594, %onnx::ArgMax_1928, %onnx::ArgMax_2270, %onnx::ArgMax_2612, %onnx::ArgMax_2954, %onnx::ArgMax_3296, %onnx::ArgMax_3638, %onnx::ArgMax_3980, %onnx::ArgMax_4322, %onnx::ArgMax_4664, %onnx::ArgMax_5006, %onnx::ArgMax_5348, %onnx::ArgMax_5690, %onnx::ArgMax_6032, %onnx::ArgMax_6374, %onnx::ArgMax_6716, %onnx::ArgMax_7058, %onnx::ArgMax_7400, %onnx::ArgMax_7742, %onnx::ArgMax_8084, %onnx::ArgMax_8426, %onnx::ArgMax_8768, %onnx::ArgMax_9110, %onnx::ArgMax_9452, %onnx::ArgMax_9794, %onnx::Concat_10136) # /home/ashishpapanai/Desktop/MAVI/parseq/strhub/models/parseq/system.py:146:0
  return (%output)

Additional keyword arguments: {}
Convert to onnx successfully!
demo_images/art-01107.jpg: CHEWBACCA
