Exported graph: graph(%input : Float(1, 3, 32, 128, strides=[12288, 4096, 128, 1], requires_grad=0, device=cpu),
      %encoder.pos_embed : Float(1, 128, 384, strides=[49152, 384, 1], requires_grad=1, device=cpu),
      %encoder.patch_embed.proj.weight : Float(384, 3, 4, 8, strides=[96, 32, 8, 1], requires_grad=1, device=cpu),
      %encoder.patch_embed.proj.bias : Float(384, strides=[1], requires_grad=1, device=cpu),
      %encoder.blocks.0.norm1.weight : Float(384, strides=[1], requires_grad=1, device=cpu),
      %encoder.blocks.0.norm1.bias : Float(384, strides=[1], requires_grad=1, device=cpu),
      %encoder.blocks.0.attn.qkv.bias : Float(1152, strides=[1], requires_grad=1, device=cpu),
      %encoder.blocks.0.attn.proj.bias : Float(384, strides=[1], requires_grad=1, device=cpu),
      %encoder.blocks.0.norm2.weight : Float(384, strides=[1], requires_grad=1, device=cpu),
      %encoder.blocks.0.norm2.bias : Float(384, strides=[1], requires_grad=1, device=cpu),
      %encoder.blocks.0.mlp.fc1.bias : Float(1536, strides=[1], requires_grad=1, device=cpu),
      %encoder.blocks.0.mlp.fc2.bias : Float(384, strides=[1], requires_grad=1, device=cpu),
      %encoder.blocks.1.norm1.weight : Float(384, strides=[1], requires_grad=1, device=cpu),
      %encoder.blocks.1.norm1.bias : Float(384, strides=[1], requires_grad=1, device=cpu),
      %encoder.blocks.1.attn.qkv.bias : Float(1152, strides=[1], requires_grad=1, device=cpu),
      %encoder.blocks.1.attn.proj.bias : Float(384, strides=[1], requires_grad=1, device=cpu),
      %encoder.blocks.1.norm2.weight : Float(384, strides=[1], requires_grad=1, device=cpu),
      %encoder.blocks.1.norm2.bias : Float(384, strides=[1], requires_grad=1, device=cpu),
      %encoder.blocks.1.mlp.fc1.bias : Float(1536, strides=[1], requires_grad=1, device=cpu),
      %encoder.blocks.1.mlp.fc2.bias : Float(384, strides=[1], requires_grad=1, device=cpu),
      %encoder.blocks.2.norm1.weight : Float(384, strides=[1], requires_grad=1, device=cpu),
      %encoder.blocks.2.norm1.bias : Float(384, strides=[1], requires_grad=1, device=cpu),
      %encoder.blocks.2.attn.qkv.bias : Float(1152, strides=[1], requires_grad=1, device=cpu),
      %encoder.blocks.2.attn.proj.bias : Float(384, strides=[1], requires_grad=1, device=cpu),
      %encoder.blocks.2.norm2.weight : Float(384, strides=[1], requires_grad=1, device=cpu),
      %encoder.blocks.2.norm2.bias : Float(384, strides=[1], requires_grad=1, device=cpu),
      %encoder.blocks.2.mlp.fc1.bias : Float(1536, strides=[1], requires_grad=1, device=cpu),
      %encoder.blocks.2.mlp.fc2.bias : Float(384, strides=[1], requires_grad=1, device=cpu),
      %encoder.blocks.3.norm1.weight : Float(384, strides=[1], requires_grad=1, device=cpu),
      %encoder.blocks.3.norm1.bias : Float(384, strides=[1], requires_grad=1, device=cpu),
      %encoder.blocks.3.attn.qkv.bias : Float(1152, strides=[1], requires_grad=1, device=cpu),
      %encoder.blocks.3.attn.proj.bias : Float(384, strides=[1], requires_grad=1, device=cpu),
      %encoder.blocks.3.norm2.weight : Float(384, strides=[1], requires_grad=1, device=cpu),
      %encoder.blocks.3.norm2.bias : Float(384, strides=[1], requires_grad=1, device=cpu),
      %encoder.blocks.3.mlp.fc1.bias : Float(1536, strides=[1], requires_grad=1, device=cpu),
      %encoder.blocks.3.mlp.fc2.bias : Float(384, strides=[1], requires_grad=1, device=cpu),
      %encoder.blocks.4.norm1.weight : Float(384, strides=[1], requires_grad=1, device=cpu),
      %encoder.blocks.4.norm1.bias : Float(384, strides=[1], requires_grad=1, device=cpu),
      %encoder.blocks.4.attn.qkv.bias : Float(1152, strides=[1], requires_grad=1, device=cpu),
      %encoder.blocks.4.attn.proj.bias : Float(384, strides=[1], requires_grad=1, device=cpu),
      %encoder.blocks.4.norm2.weight : Float(384, strides=[1], requires_grad=1, device=cpu),
      %encoder.blocks.4.norm2.bias : Float(384, strides=[1], requires_grad=1, device=cpu),
      %encoder.blocks.4.mlp.fc1.bias : Float(1536, strides=[1], requires_grad=1, device=cpu),
      %encoder.blocks.4.mlp.fc2.bias : Float(384, strides=[1], requires_grad=1, device=cpu),
      %encoder.blocks.5.norm1.weight : Float(384, strides=[1], requires_grad=1, device=cpu),
      %encoder.blocks.5.norm1.bias : Float(384, strides=[1], requires_grad=1, device=cpu),
      %encoder.blocks.5.attn.qkv.bias : Float(1152, strides=[1], requires_grad=1, device=cpu),
      %encoder.blocks.5.attn.proj.bias : Float(384, strides=[1], requires_grad=1, device=cpu),
      %encoder.blocks.5.norm2.weight : Float(384, strides=[1], requires_grad=1, device=cpu),
      %encoder.blocks.5.norm2.bias : Float(384, strides=[1], requires_grad=1, device=cpu),
      %encoder.blocks.5.mlp.fc1.bias : Float(1536, strides=[1], requires_grad=1, device=cpu),
      %encoder.blocks.5.mlp.fc2.bias : Float(384, strides=[1], requires_grad=1, device=cpu),
      %encoder.blocks.6.norm1.weight : Float(384, strides=[1], requires_grad=1, device=cpu),
      %encoder.blocks.6.norm1.bias : Float(384, strides=[1], requires_grad=1, device=cpu),
      %encoder.blocks.6.attn.qkv.bias : Float(1152, strides=[1], requires_grad=1, device=cpu),
      %encoder.blocks.6.attn.proj.bias : Float(384, strides=[1], requires_grad=1, device=cpu),
      %encoder.blocks.6.norm2.weight : Float(384, strides=[1], requires_grad=1, device=cpu),
      %encoder.blocks.6.norm2.bias : Float(384, strides=[1], requires_grad=1, device=cpu),
      %encoder.blocks.6.mlp.fc1.bias : Float(1536, strides=[1], requires_grad=1, device=cpu),
      %encoder.blocks.6.mlp.fc2.bias : Float(384, strides=[1], requires_grad=1, device=cpu),
      %encoder.blocks.7.norm1.weight : Float(384, strides=[1], requires_grad=1, device=cpu),
      %encoder.blocks.7.norm1.bias : Float(384, strides=[1], requires_grad=1, device=cpu),
      %encoder.blocks.7.attn.qkv.bias : Float(1152, strides=[1], requires_grad=1, device=cpu),
      %encoder.blocks.7.attn.proj.bias : Float(384, strides=[1], requires_grad=1, device=cpu),
      %encoder.blocks.7.norm2.weight : Float(384, strides=[1], requires_grad=1, device=cpu),
      %encoder.blocks.7.norm2.bias : Float(384, strides=[1], requires_grad=1, device=cpu),
      %encoder.blocks.7.mlp.fc1.bias : Float(1536, strides=[1], requires_grad=1, device=cpu),
      %encoder.blocks.7.mlp.fc2.bias : Float(384, strides=[1], requires_grad=1, device=cpu),
      %encoder.blocks.8.norm1.weight : Float(384, strides=[1], requires_grad=1, device=cpu),
      %encoder.blocks.8.norm1.bias : Float(384, strides=[1], requires_grad=1, device=cpu),
      %encoder.blocks.8.attn.qkv.bias : Float(1152, strides=[1], requires_grad=1, device=cpu),
      %encoder.blocks.8.attn.proj.bias : Float(384, strides=[1], requires_grad=1, device=cpu),
      %encoder.blocks.8.norm2.weight : Float(384, strides=[1], requires_grad=1, device=cpu),
      %encoder.blocks.8.norm2.bias : Float(384, strides=[1], requires_grad=1, device=cpu),
      %encoder.blocks.8.mlp.fc1.bias : Float(1536, strides=[1], requires_grad=1, device=cpu),
      %encoder.blocks.8.mlp.fc2.bias : Float(384, strides=[1], requires_grad=1, device=cpu),
      %encoder.blocks.9.norm1.weight : Float(384, strides=[1], requires_grad=1, device=cpu),
      %encoder.blocks.9.norm1.bias : Float(384, strides=[1], requires_grad=1, device=cpu),
      %encoder.blocks.9.attn.qkv.bias : Float(1152, strides=[1], requires_grad=1, device=cpu),
      %encoder.blocks.9.attn.proj.bias : Float(384, strides=[1], requires_grad=1, device=cpu),
      %encoder.blocks.9.norm2.weight : Float(384, strides=[1], requires_grad=1, device=cpu),
      %encoder.blocks.9.norm2.bias : Float(384, strides=[1], requires_grad=1, device=cpu),
      %encoder.blocks.9.mlp.fc1.bias : Float(1536, strides=[1], requires_grad=1, device=cpu),
      %encoder.blocks.9.mlp.fc2.bias : Float(384, strides=[1], requires_grad=1, device=cpu),
      %encoder.blocks.10.norm1.weight : Float(384, strides=[1], requires_grad=1, device=cpu),
      %encoder.blocks.10.norm1.bias : Float(384, strides=[1], requires_grad=1, device=cpu),
      %encoder.blocks.10.attn.qkv.bias : Float(1152, strides=[1], requires_grad=1, device=cpu),
      %encoder.blocks.10.attn.proj.bias : Float(384, strides=[1], requires_grad=1, device=cpu),
      %encoder.blocks.10.norm2.weight : Float(384, strides=[1], requires_grad=1, device=cpu),
      %encoder.blocks.10.norm2.bias : Float(384, strides=[1], requires_grad=1, device=cpu),
      %encoder.blocks.10.mlp.fc1.bias : Float(1536, strides=[1], requires_grad=1, device=cpu),
      %encoder.blocks.10.mlp.fc2.bias : Float(384, strides=[1], requires_grad=1, device=cpu),
      %encoder.blocks.11.norm1.weight : Float(384, strides=[1], requires_grad=1, device=cpu),
      %encoder.blocks.11.norm1.bias : Float(384, strides=[1], requires_grad=1, device=cpu),
      %encoder.blocks.11.attn.qkv.bias : Float(1152, strides=[1], requires_grad=1, device=cpu),
      %encoder.blocks.11.attn.proj.bias : Float(384, strides=[1], requires_grad=1, device=cpu),
      %encoder.blocks.11.norm2.weight : Float(384, strides=[1], requires_grad=1, device=cpu),
      %encoder.blocks.11.norm2.bias : Float(384, strides=[1], requires_grad=1, device=cpu),
      %encoder.blocks.11.mlp.fc1.bias : Float(1536, strides=[1], requires_grad=1, device=cpu),
      %encoder.blocks.11.mlp.fc2.bias : Float(384, strides=[1], requires_grad=1, device=cpu),
      %encoder.norm.weight : Float(384, strides=[1], requires_grad=1, device=cpu),
      %encoder.norm.bias : Float(384, strides=[1], requires_grad=1, device=cpu),
      %decoder.layers.0.self_attn.out_proj.weight : Float(384, 384, strides=[384, 1], requires_grad=1, device=cpu),
      %decoder.layers.0.self_attn.out_proj.bias : Float(384, strides=[1], requires_grad=1, device=cpu),
      %decoder.layers.0.cross_attn.out_proj.weight : Float(384, 384, strides=[384, 1], requires_grad=1, device=cpu),
      %decoder.layers.0.cross_attn.out_proj.bias : Float(384, strides=[1], requires_grad=1, device=cpu),
      %decoder.layers.0.linear1.bias : Float(1536, strides=[1], requires_grad=1, device=cpu),
      %decoder.layers.0.linear2.bias : Float(384, strides=[1], requires_grad=1, device=cpu),
      %decoder.layers.0.norm1.weight : Float(384, strides=[1], requires_grad=1, device=cpu),
      %decoder.layers.0.norm1.bias : Float(384, strides=[1], requires_grad=1, device=cpu),
      %decoder.layers.0.norm2.weight : Float(384, strides=[1], requires_grad=1, device=cpu),
      %decoder.layers.0.norm2.bias : Float(384, strides=[1], requires_grad=1, device=cpu),
      %decoder.layers.0.norm_q.weight : Float(384, strides=[1], requires_grad=1, device=cpu),
      %decoder.layers.0.norm_q.bias : Float(384, strides=[1], requires_grad=1, device=cpu),
      %decoder.layers.0.norm_c.weight : Float(384, strides=[1], requires_grad=1, device=cpu),
      %decoder.layers.0.norm_c.bias : Float(384, strides=[1], requires_grad=1, device=cpu),
      %decoder.norm.weight : Float(384, strides=[1], requires_grad=1, device=cpu),
      %decoder.norm.bias : Float(384, strides=[1], requires_grad=1, device=cpu),
      %head.bias : Float(95, strides=[1], requires_grad=1, device=cpu),
      %text_embed.embedding.weight : Float(97, 384, strides=[384, 1], requires_grad=1, device=cpu),
      %onnx::MatMul_5004 : Float(384, 1152, strides=[1, 384], requires_grad=0, device=cpu),
      %onnx::Reshape_5010 : Long(5, strides=[1], requires_grad=0, device=cpu),
      %onnx::Reshape_5014 : Long(3, strides=[1], requires_grad=0, device=cpu),
      %onnx::MatMul_5015 : Float(384, 384, strides=[1, 384], requires_grad=0, device=cpu),
      %onnx::MatMul_5016 : Float(384, 1536, strides=[1, 384], requires_grad=0, device=cpu),
      %onnx::MatMul_5017 : Float(1536, 384, strides=[1, 1536], requires_grad=0, device=cpu),
      %onnx::MatMul_5018 : Float(384, 1152, strides=[1, 384], requires_grad=0, device=cpu),
      %onnx::MatMul_5029 : Float(384, 384, strides=[1, 384], requires_grad=0, device=cpu),
      %onnx::MatMul_5030 : Float(384, 1536, strides=[1, 384], requires_grad=0, device=cpu),
      %onnx::MatMul_5031 : Float(1536, 384, strides=[1, 1536], requires_grad=0, device=cpu),
      %onnx::MatMul_5032 : Float(384, 1152, strides=[1, 384], requires_grad=0, device=cpu),
      %onnx::MatMul_5043 : Float(384, 384, strides=[1, 384], requires_grad=0, device=cpu),
      %onnx::MatMul_5044 : Float(384, 1536, strides=[1, 384], requires_grad=0, device=cpu),
      %onnx::MatMul_5045 : Float(1536, 384, strides=[1, 1536], requires_grad=0, device=cpu),
      %onnx::MatMul_5046 : Float(384, 1152, strides=[1, 384], requires_grad=0, device=cpu),
      %onnx::MatMul_5057 : Float(384, 384, strides=[1, 384], requires_grad=0, device=cpu),
      %onnx::MatMul_5058 : Float(384, 1536, strides=[1, 384], requires_grad=0, device=cpu),
      %onnx::MatMul_5059 : Float(1536, 384, strides=[1, 1536], requires_grad=0, device=cpu),
      %onnx::MatMul_5060 : Float(384, 1152, strides=[1, 384], requires_grad=0, device=cpu),
      %onnx::MatMul_5071 : Float(384, 384, strides=[1, 384], requires_grad=0, device=cpu),
      %onnx::MatMul_5072 : Float(384, 1536, strides=[1, 384], requires_grad=0, device=cpu),
      %onnx::MatMul_5073 : Float(1536, 384, strides=[1, 1536], requires_grad=0, device=cpu),
      %onnx::MatMul_5074 : Float(384, 1152, strides=[1, 384], requires_grad=0, device=cpu),
      %onnx::MatMul_5085 : Float(384, 384, strides=[1, 384], requires_grad=0, device=cpu),
      %onnx::MatMul_5086 : Float(384, 1536, strides=[1, 384], requires_grad=0, device=cpu),
      %onnx::MatMul_5087 : Float(1536, 384, strides=[1, 1536], requires_grad=0, device=cpu),
      %onnx::MatMul_5088 : Float(384, 1152, strides=[1, 384], requires_grad=0, device=cpu),
      %onnx::MatMul_5099 : Float(384, 384, strides=[1, 384], requires_grad=0, device=cpu),
      %onnx::MatMul_5100 : Float(384, 1536, strides=[1, 384], requires_grad=0, device=cpu),
      %onnx::MatMul_5101 : Float(1536, 384, strides=[1, 1536], requires_grad=0, device=cpu),
      %onnx::MatMul_5102 : Float(384, 1152, strides=[1, 384], requires_grad=0, device=cpu),
      %onnx::MatMul_5113 : Float(384, 384, strides=[1, 384], requires_grad=0, device=cpu),
      %onnx::MatMul_5114 : Float(384, 1536, strides=[1, 384], requires_grad=0, device=cpu),
      %onnx::MatMul_5115 : Float(1536, 384, strides=[1, 1536], requires_grad=0, device=cpu),
      %onnx::MatMul_5116 : Float(384, 1152, strides=[1, 384], requires_grad=0, device=cpu),
      %onnx::MatMul_5127 : Float(384, 384, strides=[1, 384], requires_grad=0, device=cpu),
      %onnx::MatMul_5128 : Float(384, 1536, strides=[1, 384], requires_grad=0, device=cpu),
      %onnx::MatMul_5129 : Float(1536, 384, strides=[1, 1536], requires_grad=0, device=cpu),
      %onnx::MatMul_5130 : Float(384, 1152, strides=[1, 384], requires_grad=0, device=cpu),
      %onnx::MatMul_5141 : Float(384, 384, strides=[1, 384], requires_grad=0, device=cpu),
      %onnx::MatMul_5142 : Float(384, 1536, strides=[1, 384], requires_grad=0, device=cpu),
      %onnx::MatMul_5143 : Float(1536, 384, strides=[1, 1536], requires_grad=0, device=cpu),
      %onnx::MatMul_5144 : Float(384, 1152, strides=[1, 384], requires_grad=0, device=cpu),
      %onnx::MatMul_5155 : Float(384, 384, strides=[1, 384], requires_grad=0, device=cpu),
      %onnx::MatMul_5156 : Float(384, 1536, strides=[1, 384], requires_grad=0, device=cpu),
      %onnx::MatMul_5157 : Float(1536, 384, strides=[1, 1536], requires_grad=0, device=cpu),
      %onnx::MatMul_5158 : Float(384, 1152, strides=[1, 384], requires_grad=0, device=cpu),
      %onnx::MatMul_5169 : Float(384, 384, strides=[1, 384], requires_grad=0, device=cpu),
      %onnx::MatMul_5170 : Float(384, 1536, strides=[1, 384], requires_grad=0, device=cpu),
      %onnx::MatMul_5171 : Float(1536, 384, strides=[1, 1536], requires_grad=0, device=cpu),
      %onnx::Expand_5172 : Float(1, 26, 384, strides=[9984, 384, 1], requires_grad=0, device=cpu),
      %onnx::Equal_5177 : Long(3, strides=[1], requires_grad=0, device=cpu),
      %onnx::ConstantOfShape_5178 : Long(1, strides=[1], requires_grad=0, device=cpu),
      %onnx::Expand_5179 : Long(1, strides=[1], requires_grad=0, device=cpu),
      %onnx::Equal_5181 : Long(2, strides=[1], requires_grad=0, device=cpu),
      %onnx::ConstantOfShape_5182 : Long(1, strides=[1], requires_grad=0, device=cpu),
      %onnx::Add_5187 : Float(1, 0, 384, strides=[9984, 384, 1], requires_grad=0, device=cpu),
      %onnx::Add_5197 : Float(384, strides=[1], requires_grad=0, device=cpu),
      %onnx::Add_5199 : Float(768, strides=[1], requires_grad=0, device=cpu),
      %onnx::MatMul_5200 : Float(384, 384, strides=[1, 384], requires_grad=0, device=cpu),
      %onnx::MatMul_5201 : Float(384, 768, strides=[1, 384], requires_grad=0, device=cpu),
      %onnx::Reshape_5205 : Long(3, strides=[1], requires_grad=0, device=cpu),
      %onnx::Mul_5214 : Float(requires_grad=0, device=cpu),
      %onnx::Add_5216 : Float(1, 1, 1, strides=[1, 1, 1], requires_grad=0, device=cpu),
      %onnx::Reshape_5219 : Long(2, strides=[1], requires_grad=0, device=cpu),
      %onnx::Reshape_5223 : Long(3, strides=[1], requires_grad=0, device=cpu),
      %onnx::Add_5233 : Float(384, strides=[1], requires_grad=0, device=cpu),
      %onnx::Add_5235 : Float(768, strides=[1], requires_grad=0, device=cpu),
      %onnx::MatMul_5236 : Float(384, 384, strides=[1, 384], requires_grad=0, device=cpu),
      %onnx::MatMul_5237 : Float(384, 768, strides=[1, 384], requires_grad=0, device=cpu),
      %onnx::Reshape_5245 : Long(3, strides=[1], requires_grad=0, device=cpu),
      %onnx::MatMul_5257 : Float(384, 1536, strides=[1, 384], requires_grad=0, device=cpu),
      %onnx::MatMul_5258 : Float(1536, 384, strides=[1, 1536], requires_grad=0, device=cpu),
      %onnx::MatMul_5259 : Float(384, 95, strides=[1, 384], requires_grad=0, device=cpu),
      %onnx::Add_5264 : Float(1, 1, 384, strides=[9984, 384, 1], requires_grad=0, device=cpu),
      %onnx::Reshape_5286 : Long(3, strides=[1], requires_grad=0, device=cpu),
      %onnx::Add_5293 : Float(1, 1, 2, strides=[2, 2, 1], requires_grad=0, device=cpu),
      %onnx::Add_5341 : Float(1, 2, 384, strides=[9984, 384, 1], requires_grad=0, device=cpu),
      %onnx::Reshape_5363 : Long(3, strides=[1], requires_grad=0, device=cpu),
      %onnx::Add_5370 : Float(1, 1, 3, strides=[3, 3, 1], requires_grad=0, device=cpu),
      %onnx::Add_5418 : Float(1, 3, 384, strides=[9984, 384, 1], requires_grad=0, device=cpu),
      %onnx::Reshape_5440 : Long(3, strides=[1], requires_grad=0, device=cpu),
      %onnx::Add_5447 : Float(1, 1, 4, strides=[4, 4, 1], requires_grad=0, device=cpu),
      %onnx::Add_5495 : Float(1, 4, 384, strides=[9984, 384, 1], requires_grad=0, device=cpu),
      %onnx::Reshape_5517 : Long(3, strides=[1], requires_grad=0, device=cpu),
      %onnx::Add_5524 : Float(1, 1, 5, strides=[5, 5, 1], requires_grad=0, device=cpu),
      %onnx::Add_5572 : Float(1, 5, 384, strides=[9984, 384, 1], requires_grad=0, device=cpu),
      %onnx::Reshape_5594 : Long(3, strides=[1], requires_grad=0, device=cpu),
      %onnx::Add_5601 : Float(1, 1, 6, strides=[6, 6, 1], requires_grad=0, device=cpu),
      %onnx::Add_5649 : Float(1, 6, 384, strides=[9984, 384, 1], requires_grad=0, device=cpu),
      %onnx::Reshape_5671 : Long(3, strides=[1], requires_grad=0, device=cpu),
      %onnx::Add_5678 : Float(1, 1, 7, strides=[7, 7, 1], requires_grad=0, device=cpu),
      %onnx::Add_5726 : Float(1, 7, 384, strides=[9984, 384, 1], requires_grad=0, device=cpu),
      %onnx::Reshape_5748 : Long(3, strides=[1], requires_grad=0, device=cpu),
      %onnx::Add_5755 : Float(1, 1, 8, strides=[8, 8, 1], requires_grad=0, device=cpu),
      %onnx::Add_5803 : Float(1, 8, 384, strides=[9984, 384, 1], requires_grad=0, device=cpu),
      %onnx::Reshape_5825 : Long(3, strides=[1], requires_grad=0, device=cpu),
      %onnx::Add_5832 : Float(1, 1, 9, strides=[9, 9, 1], requires_grad=0, device=cpu),
      %onnx::Add_5880 : Float(1, 9, 384, strides=[9984, 384, 1], requires_grad=0, device=cpu),
      %onnx::Reshape_5902 : Long(3, strides=[1], requires_grad=0, device=cpu),
      %onnx::Add_5909 : Float(1, 1, 10, strides=[10, 10, 1], requires_grad=0, device=cpu)):
  %onnx::Reshape_5949 : Long(3, strides=[1], requires_grad=0, device=cpu) = onnx::Identity[onnx_name="Identity_0"](%onnx::Reshape_5223)
  %onnx::Reshape_5945 : Long(2, strides=[1], requires_grad=0, device=cpu) = onnx::Identity[onnx_name="Identity_1"](%onnx::Reshape_5219)
  %onnx::Reshape_5942 : Long(3, strides=[1], requires_grad=0, device=cpu) = onnx::Identity[onnx_name="Identity_2"](%onnx::Reshape_5245)
  %onnx::Reshape_5938 : Long(3, strides=[1], requires_grad=0, device=cpu) = onnx::Identity[onnx_name="Identity_3"](%onnx::Reshape_5245)
  %onnx::Reshape_5934 : Long(3, strides=[1], requires_grad=0, device=cpu) = onnx::Identity[onnx_name="Identity_4"](%onnx::Reshape_5205)
  %onnx::Reshape_5916 : Long(3, strides=[1], requires_grad=0, device=cpu) = onnx::Identity[onnx_name="Identity_5"](%onnx::Reshape_5223)
  %onnx::Reshape_5912 : Long(2, strides=[1], requires_grad=0, device=cpu) = onnx::Identity[onnx_name="Identity_6"](%onnx::Reshape_5219)
  %onnx::Mul_5907 : Float(requires_grad=0, device=cpu) = onnx::Identity[onnx_name="Identity_7"](%onnx::Mul_5214)
  %onnx::Reshape_5906 : Long(3, strides=[1], requires_grad=0, device=cpu) = onnx::Identity[onnx_name="Identity_8"](%onnx::Reshape_5902)
  %onnx::Reshape_5898 : Long(3, strides=[1], requires_grad=0, device=cpu) = onnx::Identity[onnx_name="Identity_9"](%onnx::Reshape_5205)
  %onnx::ConstantOfShape_5879 : Long(1, strides=[1], requires_grad=0, device=cpu) = onnx::Identity[onnx_name="Identity_10"](%onnx::ConstantOfShape_5182)
  %onnx::ConstantOfShape_5878 : Long(1, strides=[1], requires_grad=0, device=cpu) = onnx::Identity[onnx_name="Identity_11"](%onnx::ConstantOfShape_5182)
  %onnx::Equal_5877 : Long(2, strides=[1], requires_grad=0, device=cpu) = onnx::Identity[onnx_name="Identity_12"](%onnx::Equal_5181)
  %onnx::Reshape_5872 : Long(3, strides=[1], requires_grad=0, device=cpu) = onnx::Identity[onnx_name="Identity_13"](%onnx::Reshape_5223)
  %onnx::Reshape_5868 : Long(2, strides=[1], requires_grad=0, device=cpu) = onnx::Identity[onnx_name="Identity_14"](%onnx::Reshape_5219)
  %onnx::Reshape_5865 : Long(3, strides=[1], requires_grad=0, device=cpu) = onnx::Identity[onnx_name="Identity_15"](%onnx::Reshape_5245)
  %onnx::Reshape_5861 : Long(3, strides=[1], requires_grad=0, device=cpu) = onnx::Identity[onnx_name="Identity_16"](%onnx::Reshape_5245)
  %onnx::Reshape_5857 : Long(3, strides=[1], requires_grad=0, device=cpu) = onnx::Identity[onnx_name="Identity_17"](%onnx::Reshape_5205)
  %onnx::Reshape_5839 : Long(3, strides=[1], requires_grad=0, device=cpu) = onnx::Identity[onnx_name="Identity_18"](%onnx::Reshape_5223)
  %onnx::Reshape_5835 : Long(2, strides=[1], requires_grad=0, device=cpu) = onnx::Identity[onnx_name="Identity_19"](%onnx::Reshape_5219)
  %onnx::Mul_5830 : Float(requires_grad=0, device=cpu) = onnx::Identity[onnx_name="Identity_20"](%onnx::Mul_5214)
  %onnx::Reshape_5829 : Long(3, strides=[1], requires_grad=0, device=cpu) = onnx::Identity[onnx_name="Identity_21"](%onnx::Reshape_5825)
  %onnx::Reshape_5821 : Long(3, strides=[1], requires_grad=0, device=cpu) = onnx::Identity[onnx_name="Identity_22"](%onnx::Reshape_5205)
  %onnx::ConstantOfShape_5802 : Long(1, strides=[1], requires_grad=0, device=cpu) = onnx::Identity[onnx_name="Identity_23"](%onnx::ConstantOfShape_5182)
  %onnx::ConstantOfShape_5801 : Long(1, strides=[1], requires_grad=0, device=cpu) = onnx::Identity[onnx_name="Identity_24"](%onnx::ConstantOfShape_5182)
  %onnx::Equal_5800 : Long(2, strides=[1], requires_grad=0, device=cpu) = onnx::Identity[onnx_name="Identity_25"](%onnx::Equal_5181)
  %onnx::Reshape_5795 : Long(3, strides=[1], requires_grad=0, device=cpu) = onnx::Identity[onnx_name="Identity_26"](%onnx::Reshape_5223)
  %onnx::Reshape_5791 : Long(2, strides=[1], requires_grad=0, device=cpu) = onnx::Identity[onnx_name="Identity_27"](%onnx::Reshape_5219)
  %onnx::Reshape_5788 : Long(3, strides=[1], requires_grad=0, device=cpu) = onnx::Identity[onnx_name="Identity_28"](%onnx::Reshape_5245)
  %onnx::Reshape_5784 : Long(3, strides=[1], requires_grad=0, device=cpu) = onnx::Identity[onnx_name="Identity_29"](%onnx::Reshape_5245)
  %onnx::Reshape_5780 : Long(3, strides=[1], requires_grad=0, device=cpu) = onnx::Identity[onnx_name="Identity_30"](%onnx::Reshape_5205)
  %onnx::Reshape_5762 : Long(3, strides=[1], requires_grad=0, device=cpu) = onnx::Identity[onnx_name="Identity_31"](%onnx::Reshape_5223)
  %onnx::Reshape_5758 : Long(2, strides=[1], requires_grad=0, device=cpu) = onnx::Identity[onnx_name="Identity_32"](%onnx::Reshape_5219)
  %onnx::Mul_5753 : Float(requires_grad=0, device=cpu) = onnx::Identity[onnx_name="Identity_33"](%onnx::Mul_5214)
  %onnx::Reshape_5752 : Long(3, strides=[1], requires_grad=0, device=cpu) = onnx::Identity[onnx_name="Identity_34"](%onnx::Reshape_5748)
  %onnx::Reshape_5744 : Long(3, strides=[1], requires_grad=0, device=cpu) = onnx::Identity[onnx_name="Identity_35"](%onnx::Reshape_5205)
  %onnx::ConstantOfShape_5725 : Long(1, strides=[1], requires_grad=0, device=cpu) = onnx::Identity[onnx_name="Identity_36"](%onnx::ConstantOfShape_5182)
  %onnx::ConstantOfShape_5724 : Long(1, strides=[1], requires_grad=0, device=cpu) = onnx::Identity[onnx_name="Identity_37"](%onnx::ConstantOfShape_5182)
  %onnx::Equal_5723 : Long(2, strides=[1], requires_grad=0, device=cpu) = onnx::Identity[onnx_name="Identity_38"](%onnx::Equal_5181)
  %onnx::Reshape_5718 : Long(3, strides=[1], requires_grad=0, device=cpu) = onnx::Identity[onnx_name="Identity_39"](%onnx::Reshape_5223)
  %onnx::Reshape_5714 : Long(2, strides=[1], requires_grad=0, device=cpu) = onnx::Identity[onnx_name="Identity_40"](%onnx::Reshape_5219)
  %onnx::Reshape_5711 : Long(3, strides=[1], requires_grad=0, device=cpu) = onnx::Identity[onnx_name="Identity_41"](%onnx::Reshape_5245)
  %onnx::Reshape_5707 : Long(3, strides=[1], requires_grad=0, device=cpu) = onnx::Identity[onnx_name="Identity_42"](%onnx::Reshape_5245)
  %onnx::Reshape_5703 : Long(3, strides=[1], requires_grad=0, device=cpu) = onnx::Identity[onnx_name="Identity_43"](%onnx::Reshape_5205)
  %onnx::Reshape_5685 : Long(3, strides=[1], requires_grad=0, device=cpu) = onnx::Identity[onnx_name="Identity_44"](%onnx::Reshape_5223)
  %onnx::Reshape_5681 : Long(2, strides=[1], requires_grad=0, device=cpu) = onnx::Identity[onnx_name="Identity_45"](%onnx::Reshape_5219)
  %onnx::Mul_5676 : Float(requires_grad=0, device=cpu) = onnx::Identity[onnx_name="Identity_46"](%onnx::Mul_5214)
  %onnx::Reshape_5675 : Long(3, strides=[1], requires_grad=0, device=cpu) = onnx::Identity[onnx_name="Identity_47"](%onnx::Reshape_5671)
  %onnx::Reshape_5667 : Long(3, strides=[1], requires_grad=0, device=cpu) = onnx::Identity[onnx_name="Identity_48"](%onnx::Reshape_5205)
  %onnx::ConstantOfShape_5648 : Long(1, strides=[1], requires_grad=0, device=cpu) = onnx::Identity[onnx_name="Identity_49"](%onnx::ConstantOfShape_5182)
  %onnx::ConstantOfShape_5647 : Long(1, strides=[1], requires_grad=0, device=cpu) = onnx::Identity[onnx_name="Identity_50"](%onnx::ConstantOfShape_5182)
  %onnx::Equal_5646 : Long(2, strides=[1], requires_grad=0, device=cpu) = onnx::Identity[onnx_name="Identity_51"](%onnx::Equal_5181)
  %onnx::Reshape_5641 : Long(3, strides=[1], requires_grad=0, device=cpu) = onnx::Identity[onnx_name="Identity_52"](%onnx::Reshape_5223)
  %onnx::Reshape_5637 : Long(2, strides=[1], requires_grad=0, device=cpu) = onnx::Identity[onnx_name="Identity_53"](%onnx::Reshape_5219)
  %onnx::Reshape_5634 : Long(3, strides=[1], requires_grad=0, device=cpu) = onnx::Identity[onnx_name="Identity_54"](%onnx::Reshape_5245)
  %onnx::Reshape_5630 : Long(3, strides=[1], requires_grad=0, device=cpu) = onnx::Identity[onnx_name="Identity_55"](%onnx::Reshape_5245)
  %onnx::Reshape_5626 : Long(3, strides=[1], requires_grad=0, device=cpu) = onnx::Identity[onnx_name="Identity_56"](%onnx::Reshape_5205)
  %onnx::Reshape_5608 : Long(3, strides=[1], requires_grad=0, device=cpu) = onnx::Identity[onnx_name="Identity_57"](%onnx::Reshape_5223)
  %onnx::Reshape_5604 : Long(2, strides=[1], requires_grad=0, device=cpu) = onnx::Identity[onnx_name="Identity_58"](%onnx::Reshape_5219)
  %onnx::Mul_5599 : Float(requires_grad=0, device=cpu) = onnx::Identity[onnx_name="Identity_59"](%onnx::Mul_5214)
  %onnx::Reshape_5598 : Long(3, strides=[1], requires_grad=0, device=cpu) = onnx::Identity[onnx_name="Identity_60"](%onnx::Reshape_5594)
  %onnx::Reshape_5590 : Long(3, strides=[1], requires_grad=0, device=cpu) = onnx::Identity[onnx_name="Identity_61"](%onnx::Reshape_5205)
  %onnx::ConstantOfShape_5571 : Long(1, strides=[1], requires_grad=0, device=cpu) = onnx::Identity[onnx_name="Identity_62"](%onnx::ConstantOfShape_5182)
  %onnx::ConstantOfShape_5570 : Long(1, strides=[1], requires_grad=0, device=cpu) = onnx::Identity[onnx_name="Identity_63"](%onnx::ConstantOfShape_5182)
  %onnx::Equal_5569 : Long(2, strides=[1], requires_grad=0, device=cpu) = onnx::Identity[onnx_name="Identity_64"](%onnx::Equal_5181)
  %onnx::Reshape_5564 : Long(3, strides=[1], requires_grad=0, device=cpu) = onnx::Identity[onnx_name="Identity_65"](%onnx::Reshape_5223)
  %onnx::Reshape_5560 : Long(2, strides=[1], requires_grad=0, device=cpu) = onnx::Identity[onnx_name="Identity_66"](%onnx::Reshape_5219)
  %onnx::Reshape_5557 : Long(3, strides=[1], requires_grad=0, device=cpu) = onnx::Identity[onnx_name="Identity_67"](%onnx::Reshape_5245)
  %onnx::Reshape_5553 : Long(3, strides=[1], requires_grad=0, device=cpu) = onnx::Identity[onnx_name="Identity_68"](%onnx::Reshape_5245)
  %onnx::Reshape_5549 : Long(3, strides=[1], requires_grad=0, device=cpu) = onnx::Identity[onnx_name="Identity_69"](%onnx::Reshape_5205)
  %onnx::Reshape_5531 : Long(3, strides=[1], requires_grad=0, device=cpu) = onnx::Identity[onnx_name="Identity_70"](%onnx::Reshape_5223)
  %onnx::Reshape_5527 : Long(2, strides=[1], requires_grad=0, device=cpu) = onnx::Identity[onnx_name="Identity_71"](%onnx::Reshape_5219)
  %onnx::Mul_5522 : Float(requires_grad=0, device=cpu) = onnx::Identity[onnx_name="Identity_72"](%onnx::Mul_5214)
  %onnx::Reshape_5521 : Long(3, strides=[1], requires_grad=0, device=cpu) = onnx::Identity[onnx_name="Identity_73"](%onnx::Reshape_5517)
  %onnx::Reshape_5513 : Long(3, strides=[1], requires_grad=0, device=cpu) = onnx::Identity[onnx_name="Identity_74"](%onnx::Reshape_5205)
  %onnx::ConstantOfShape_5494 : Long(1, strides=[1], requires_grad=0, device=cpu) = onnx::Identity[onnx_name="Identity_75"](%onnx::ConstantOfShape_5182)
  %onnx::ConstantOfShape_5493 : Long(1, strides=[1], requires_grad=0, device=cpu) = onnx::Identity[onnx_name="Identity_76"](%onnx::ConstantOfShape_5182)
  %onnx::Equal_5492 : Long(2, strides=[1], requires_grad=0, device=cpu) = onnx::Identity[onnx_name="Identity_77"](%onnx::Equal_5181)
  %onnx::Reshape_5487 : Long(3, strides=[1], requires_grad=0, device=cpu) = onnx::Identity[onnx_name="Identity_78"](%onnx::Reshape_5223)
  %onnx::Reshape_5483 : Long(2, strides=[1], requires_grad=0, device=cpu) = onnx::Identity[onnx_name="Identity_79"](%onnx::Reshape_5219)
  %onnx::Reshape_5480 : Long(3, strides=[1], requires_grad=0, device=cpu) = onnx::Identity[onnx_name="Identity_80"](%onnx::Reshape_5245)
  %onnx::Reshape_5476 : Long(3, strides=[1], requires_grad=0, device=cpu) = onnx::Identity[onnx_name="Identity_81"](%onnx::Reshape_5245)
  %onnx::Reshape_5472 : Long(3, strides=[1], requires_grad=0, device=cpu) = onnx::Identity[onnx_name="Identity_82"](%onnx::Reshape_5205)
  %onnx::Reshape_5454 : Long(3, strides=[1], requires_grad=0, device=cpu) = onnx::Identity[onnx_name="Identity_83"](%onnx::Reshape_5223)
  %onnx::Reshape_5450 : Long(2, strides=[1], requires_grad=0, device=cpu) = onnx::Identity[onnx_name="Identity_84"](%onnx::Reshape_5219)
  %onnx::Mul_5445 : Float(requires_grad=0, device=cpu) = onnx::Identity[onnx_name="Identity_85"](%onnx::Mul_5214)
  %onnx::Reshape_5444 : Long(3, strides=[1], requires_grad=0, device=cpu) = onnx::Identity[onnx_name="Identity_86"](%onnx::Reshape_5440)
  %onnx::Reshape_5436 : Long(3, strides=[1], requires_grad=0, device=cpu) = onnx::Identity[onnx_name="Identity_87"](%onnx::Reshape_5205)
  %onnx::ConstantOfShape_5417 : Long(1, strides=[1], requires_grad=0, device=cpu) = onnx::Identity[onnx_name="Identity_88"](%onnx::ConstantOfShape_5182)
  %onnx::ConstantOfShape_5416 : Long(1, strides=[1], requires_grad=0, device=cpu) = onnx::Identity[onnx_name="Identity_89"](%onnx::ConstantOfShape_5182)
  %onnx::Equal_5415 : Long(2, strides=[1], requires_grad=0, device=cpu) = onnx::Identity[onnx_name="Identity_90"](%onnx::Equal_5181)
  %onnx::Reshape_5410 : Long(3, strides=[1], requires_grad=0, device=cpu) = onnx::Identity[onnx_name="Identity_91"](%onnx::Reshape_5223)
  %onnx::Reshape_5406 : Long(2, strides=[1], requires_grad=0, device=cpu) = onnx::Identity[onnx_name="Identity_92"](%onnx::Reshape_5219)
  %onnx::Reshape_5403 : Long(3, strides=[1], requires_grad=0, device=cpu) = onnx::Identity[onnx_name="Identity_93"](%onnx::Reshape_5245)
  %onnx::Reshape_5399 : Long(3, strides=[1], requires_grad=0, device=cpu) = onnx::Identity[onnx_name="Identity_94"](%onnx::Reshape_5245)
  %onnx::Reshape_5395 : Long(3, strides=[1], requires_grad=0, device=cpu) = onnx::Identity[onnx_name="Identity_95"](%onnx::Reshape_5205)
  %onnx::Reshape_5377 : Long(3, strides=[1], requires_grad=0, device=cpu) = onnx::Identity[onnx_name="Identity_96"](%onnx::Reshape_5223)
  %onnx::Reshape_5373 : Long(2, strides=[1], requires_grad=0, device=cpu) = onnx::Identity[onnx_name="Identity_97"](%onnx::Reshape_5219)
  %onnx::Mul_5368 : Float(requires_grad=0, device=cpu) = onnx::Identity[onnx_name="Identity_98"](%onnx::Mul_5214)
  %onnx::Reshape_5367 : Long(3, strides=[1], requires_grad=0, device=cpu) = onnx::Identity[onnx_name="Identity_99"](%onnx::Reshape_5363)
  %onnx::Reshape_5359 : Long(3, strides=[1], requires_grad=0, device=cpu) = onnx::Identity[onnx_name="Identity_100"](%onnx::Reshape_5205)
  %onnx::ConstantOfShape_5340 : Long(1, strides=[1], requires_grad=0, device=cpu) = onnx::Identity[onnx_name="Identity_101"](%onnx::ConstantOfShape_5182)
  %onnx::ConstantOfShape_5339 : Long(1, strides=[1], requires_grad=0, device=cpu) = onnx::Identity[onnx_name="Identity_102"](%onnx::ConstantOfShape_5182)
  %onnx::Equal_5338 : Long(2, strides=[1], requires_grad=0, device=cpu) = onnx::Identity[onnx_name="Identity_103"](%onnx::Equal_5181)
  %onnx::Reshape_5333 : Long(3, strides=[1], requires_grad=0, device=cpu) = onnx::Identity[onnx_name="Identity_104"](%onnx::Reshape_5223)
  %onnx::Reshape_5329 : Long(2, strides=[1], requires_grad=0, device=cpu) = onnx::Identity[onnx_name="Identity_105"](%onnx::Reshape_5219)
  %onnx::Reshape_5326 : Long(3, strides=[1], requires_grad=0, device=cpu) = onnx::Identity[onnx_name="Identity_106"](%onnx::Reshape_5245)
  %onnx::Reshape_5322 : Long(3, strides=[1], requires_grad=0, device=cpu) = onnx::Identity[onnx_name="Identity_107"](%onnx::Reshape_5245)
  %onnx::Reshape_5318 : Long(3, strides=[1], requires_grad=0, device=cpu) = onnx::Identity[onnx_name="Identity_108"](%onnx::Reshape_5205)
  %onnx::Reshape_5300 : Long(3, strides=[1], requires_grad=0, device=cpu) = onnx::Identity[onnx_name="Identity_109"](%onnx::Reshape_5223)
  %onnx::Reshape_5296 : Long(2, strides=[1], requires_grad=0, device=cpu) = onnx::Identity[onnx_name="Identity_110"](%onnx::Reshape_5219)
  %onnx::Mul_5291 : Float(requires_grad=0, device=cpu) = onnx::Identity[onnx_name="Identity_111"](%onnx::Mul_5214)
  %onnx::Reshape_5290 : Long(3, strides=[1], requires_grad=0, device=cpu) = onnx::Identity[onnx_name="Identity_112"](%onnx::Reshape_5286)
  %onnx::Reshape_5282 : Long(3, strides=[1], requires_grad=0, device=cpu) = onnx::Identity[onnx_name="Identity_113"](%onnx::Reshape_5205)
  %onnx::ConstantOfShape_5263 : Long(1, strides=[1], requires_grad=0, device=cpu) = onnx::Identity[onnx_name="Identity_114"](%onnx::ConstantOfShape_5182)
  %onnx::ConstantOfShape_5262 : Long(1, strides=[1], requires_grad=0, device=cpu) = onnx::Identity[onnx_name="Identity_115"](%onnx::ConstantOfShape_5182)
  %onnx::Equal_5261 : Long(2, strides=[1], requires_grad=0, device=cpu) = onnx::Identity[onnx_name="Identity_116"](%onnx::Equal_5181)
  %onnx::Reshape_5256 : Long(3, strides=[1], requires_grad=0, device=cpu) = onnx::Identity[onnx_name="Identity_117"](%onnx::Reshape_5223)
  %onnx::Reshape_5252 : Long(2, strides=[1], requires_grad=0, device=cpu) = onnx::Identity[onnx_name="Identity_118"](%onnx::Reshape_5219)
  %onnx::Reshape_5249 : Long(3, strides=[1], requires_grad=0, device=cpu) = onnx::Identity[onnx_name="Identity_119"](%onnx::Reshape_5245)
  %onnx::Reshape_5241 : Long(3, strides=[1], requires_grad=0, device=cpu) = onnx::Identity[onnx_name="Identity_120"](%onnx::Reshape_5205)
  %onnx::Reshape_5213 : Long(3, strides=[1], requires_grad=0, device=cpu) = onnx::Identity[onnx_name="Identity_121"](%onnx::Reshape_5205)
  %onnx::Reshape_5209 : Long(3, strides=[1], requires_grad=0, device=cpu) = onnx::Identity[onnx_name="Identity_122"](%onnx::Reshape_5205)
  %onnx::Reshape_5186 : Long(2, strides=[1], requires_grad=0, device=cpu) = onnx::Identity[onnx_name="Identity_123"](%onnx::Equal_5181)
  %onnx::ConstantOfShape_5183 : Long(1, strides=[1], requires_grad=0, device=cpu) = onnx::Identity[onnx_name="Identity_124"](%onnx::ConstantOfShape_5182)
  %onnx::Reshape_5168 : Long(3, strides=[1], requires_grad=0, device=cpu) = onnx::Identity[onnx_name="Identity_125"](%onnx::Reshape_5014)
  %onnx::Reshape_5164 : Long(5, strides=[1], requires_grad=0, device=cpu) = onnx::Identity[onnx_name="Identity_126"](%onnx::Reshape_5010)
  %onnx::Reshape_5154 : Long(3, strides=[1], requires_grad=0, device=cpu) = onnx::Identity[onnx_name="Identity_127"](%onnx::Reshape_5014)
  %onnx::Reshape_5150 : Long(5, strides=[1], requires_grad=0, device=cpu) = onnx::Identity[onnx_name="Identity_128"](%onnx::Reshape_5010)
  %onnx::Reshape_5140 : Long(3, strides=[1], requires_grad=0, device=cpu) = onnx::Identity[onnx_name="Identity_129"](%onnx::Reshape_5014)
  %onnx::Reshape_5136 : Long(5, strides=[1], requires_grad=0, device=cpu) = onnx::Identity[onnx_name="Identity_130"](%onnx::Reshape_5010)
  %onnx::Reshape_5126 : Long(3, strides=[1], requires_grad=0, device=cpu) = onnx::Identity[onnx_name="Identity_131"](%onnx::Reshape_5014)
  %onnx::Reshape_5122 : Long(5, strides=[1], requires_grad=0, device=cpu) = onnx::Identity[onnx_name="Identity_132"](%onnx::Reshape_5010)
  %onnx::Reshape_5112 : Long(3, strides=[1], requires_grad=0, device=cpu) = onnx::Identity[onnx_name="Identity_133"](%onnx::Reshape_5014)
  %onnx::Reshape_5108 : Long(5, strides=[1], requires_grad=0, device=cpu) = onnx::Identity[onnx_name="Identity_134"](%onnx::Reshape_5010)
  %onnx::Reshape_5098 : Long(3, strides=[1], requires_grad=0, device=cpu) = onnx::Identity[onnx_name="Identity_135"](%onnx::Reshape_5014)
  %onnx::Reshape_5094 : Long(5, strides=[1], requires_grad=0, device=cpu) = onnx::Identity[onnx_name="Identity_136"](%onnx::Reshape_5010)
  %onnx::Reshape_5084 : Long(3, strides=[1], requires_grad=0, device=cpu) = onnx::Identity[onnx_name="Identity_137"](%onnx::Reshape_5014)
  %onnx::Reshape_5080 : Long(5, strides=[1], requires_grad=0, device=cpu) = onnx::Identity[onnx_name="Identity_138"](%onnx::Reshape_5010)
  %onnx::Reshape_5070 : Long(3, strides=[1], requires_grad=0, device=cpu) = onnx::Identity[onnx_name="Identity_139"](%onnx::Reshape_5014)
  %onnx::Reshape_5066 : Long(5, strides=[1], requires_grad=0, device=cpu) = onnx::Identity[onnx_name="Identity_140"](%onnx::Reshape_5010)
  %onnx::Reshape_5056 : Long(3, strides=[1], requires_grad=0, device=cpu) = onnx::Identity[onnx_name="Identity_141"](%onnx::Reshape_5014)
  %onnx::Reshape_5052 : Long(5, strides=[1], requires_grad=0, device=cpu) = onnx::Identity[onnx_name="Identity_142"](%onnx::Reshape_5010)
  %onnx::Reshape_5042 : Long(3, strides=[1], requires_grad=0, device=cpu) = onnx::Identity[onnx_name="Identity_143"](%onnx::Reshape_5014)
  %onnx::Reshape_5038 : Long(5, strides=[1], requires_grad=0, device=cpu) = onnx::Identity[onnx_name="Identity_144"](%onnx::Reshape_5010)
  %onnx::Reshape_5028 : Long(3, strides=[1], requires_grad=0, device=cpu) = onnx::Identity[onnx_name="Identity_145"](%onnx::Reshape_5014)
  %onnx::Reshape_5024 : Long(5, strides=[1], requires_grad=0, device=cpu) = onnx::Identity[onnx_name="Identity_146"](%onnx::Reshape_5010)
  %onnx::MatMul_5952 : Float(384, 95, strides=[1, 384], requires_grad=0, device=cpu) = onnx::Identity[onnx_name="Identity_147"](%onnx::MatMul_5259)
  %onnx::MatMul_5951 : Float(1536, 384, strides=[1, 1536], requires_grad=0, device=cpu) = onnx::Identity[onnx_name="Identity_148"](%onnx::MatMul_5258)
  %onnx::MatMul_5950 : Float(384, 1536, strides=[1, 384], requires_grad=0, device=cpu) = onnx::Identity[onnx_name="Identity_149"](%onnx::MatMul_5257)
  %onnx::MatMul_5930 : Float(384, 768, strides=[1, 384], requires_grad=0, device=cpu) = onnx::Identity[onnx_name="Identity_150"](%onnx::MatMul_5237)
  %onnx::MatMul_5929 : Float(384, 384, strides=[1, 384], requires_grad=0, device=cpu) = onnx::Identity[onnx_name="Identity_151"](%onnx::MatMul_5236)
  %onnx::Add_5928 : Float(768, strides=[1], requires_grad=0, device=cpu) = onnx::Identity[onnx_name="Identity_152"](%onnx::Add_5235)
  %onnx::Add_5926 : Float(384, strides=[1], requires_grad=0, device=cpu) = onnx::Identity[onnx_name="Identity_153"](%onnx::Add_5233)
  %onnx::MatMul_5894 : Float(384, 768, strides=[1, 384], requires_grad=0, device=cpu) = onnx::Identity[onnx_name="Identity_154"](%onnx::MatMul_5201)
  %onnx::MatMul_5893 : Float(384, 384, strides=[1, 384], requires_grad=0, device=cpu) = onnx::Identity[onnx_name="Identity_155"](%onnx::MatMul_5200)
  %onnx::Add_5892 : Float(768, strides=[1], requires_grad=0, device=cpu) = onnx::Identity[onnx_name="Identity_156"](%onnx::Add_5199)
  %onnx::Add_5890 : Float(384, strides=[1], requires_grad=0, device=cpu) = onnx::Identity[onnx_name="Identity_157"](%onnx::Add_5197)
  %onnx::MatMul_5875 : Float(384, 95, strides=[1, 384], requires_grad=0, device=cpu) = onnx::Identity[onnx_name="Identity_158"](%onnx::MatMul_5259)
  %onnx::MatMul_5874 : Float(1536, 384, strides=[1, 1536], requires_grad=0, device=cpu) = onnx::Identity[onnx_name="Identity_159"](%onnx::MatMul_5258)
  %onnx::MatMul_5873 : Float(384, 1536, strides=[1, 384], requires_grad=0, device=cpu) = onnx::Identity[onnx_name="Identity_160"](%onnx::MatMul_5257)
  %onnx::MatMul_5853 : Float(384, 768, strides=[1, 384], requires_grad=0, device=cpu) = onnx::Identity[onnx_name="Identity_161"](%onnx::MatMul_5237)
  %onnx::MatMul_5852 : Float(384, 384, strides=[1, 384], requires_grad=0, device=cpu) = onnx::Identity[onnx_name="Identity_162"](%onnx::MatMul_5236)
  %onnx::Add_5851 : Float(768, strides=[1], requires_grad=0, device=cpu) = onnx::Identity[onnx_name="Identity_163"](%onnx::Add_5235)
  %onnx::Add_5849 : Float(384, strides=[1], requires_grad=0, device=cpu) = onnx::Identity[onnx_name="Identity_164"](%onnx::Add_5233)
  %onnx::MatMul_5817 : Float(384, 768, strides=[1, 384], requires_grad=0, device=cpu) = onnx::Identity[onnx_name="Identity_165"](%onnx::MatMul_5201)
  %onnx::MatMul_5816 : Float(384, 384, strides=[1, 384], requires_grad=0, device=cpu) = onnx::Identity[onnx_name="Identity_166"](%onnx::MatMul_5200)
  %onnx::Add_5815 : Float(768, strides=[1], requires_grad=0, device=cpu) = onnx::Identity[onnx_name="Identity_167"](%onnx::Add_5199)
  %onnx::Add_5813 : Float(384, strides=[1], requires_grad=0, device=cpu) = onnx::Identity[onnx_name="Identity_168"](%onnx::Add_5197)
  %onnx::MatMul_5798 : Float(384, 95, strides=[1, 384], requires_grad=0, device=cpu) = onnx::Identity[onnx_name="Identity_169"](%onnx::MatMul_5259)
  %onnx::MatMul_5797 : Float(1536, 384, strides=[1, 1536], requires_grad=0, device=cpu) = onnx::Identity[onnx_name="Identity_170"](%onnx::MatMul_5258)
  %onnx::MatMul_5796 : Float(384, 1536, strides=[1, 384], requires_grad=0, device=cpu) = onnx::Identity[onnx_name="Identity_171"](%onnx::MatMul_5257)
  %onnx::MatMul_5776 : Float(384, 768, strides=[1, 384], requires_grad=0, device=cpu) = onnx::Identity[onnx_name="Identity_172"](%onnx::MatMul_5237)
  %onnx::MatMul_5775 : Float(384, 384, strides=[1, 384], requires_grad=0, device=cpu) = onnx::Identity[onnx_name="Identity_173"](%onnx::MatMul_5236)
  %onnx::Add_5774 : Float(768, strides=[1], requires_grad=0, device=cpu) = onnx::Identity[onnx_name="Identity_174"](%onnx::Add_5235)
  %onnx::Add_5772 : Float(384, strides=[1], requires_grad=0, device=cpu) = onnx::Identity[onnx_name="Identity_175"](%onnx::Add_5233)
  %onnx::MatMul_5740 : Float(384, 768, strides=[1, 384], requires_grad=0, device=cpu) = onnx::Identity[onnx_name="Identity_176"](%onnx::MatMul_5201)
  %onnx::MatMul_5739 : Float(384, 384, strides=[1, 384], requires_grad=0, device=cpu) = onnx::Identity[onnx_name="Identity_177"](%onnx::MatMul_5200)
  %onnx::Add_5738 : Float(768, strides=[1], requires_grad=0, device=cpu) = onnx::Identity[onnx_name="Identity_178"](%onnx::Add_5199)
  %onnx::Add_5736 : Float(384, strides=[1], requires_grad=0, device=cpu) = onnx::Identity[onnx_name="Identity_179"](%onnx::Add_5197)
  %onnx::MatMul_5721 : Float(384, 95, strides=[1, 384], requires_grad=0, device=cpu) = onnx::Identity[onnx_name="Identity_180"](%onnx::MatMul_5259)
  %onnx::MatMul_5720 : Float(1536, 384, strides=[1, 1536], requires_grad=0, device=cpu) = onnx::Identity[onnx_name="Identity_181"](%onnx::MatMul_5258)
  %onnx::MatMul_5719 : Float(384, 1536, strides=[1, 384], requires_grad=0, device=cpu) = onnx::Identity[onnx_name="Identity_182"](%onnx::MatMul_5257)
  %onnx::MatMul_5699 : Float(384, 768, strides=[1, 384], requires_grad=0, device=cpu) = onnx::Identity[onnx_name="Identity_183"](%onnx::MatMul_5237)
  %onnx::MatMul_5698 : Float(384, 384, strides=[1, 384], requires_grad=0, device=cpu) = onnx::Identity[onnx_name="Identity_184"](%onnx::MatMul_5236)
  %onnx::Add_5697 : Float(768, strides=[1], requires_grad=0, device=cpu) = onnx::Identity[onnx_name="Identity_185"](%onnx::Add_5235)
  %onnx::Add_5695 : Float(384, strides=[1], requires_grad=0, device=cpu) = onnx::Identity[onnx_name="Identity_186"](%onnx::Add_5233)
  %onnx::MatMul_5663 : Float(384, 768, strides=[1, 384], requires_grad=0, device=cpu) = onnx::Identity[onnx_name="Identity_187"](%onnx::MatMul_5201)
  %onnx::MatMul_5662 : Float(384, 384, strides=[1, 384], requires_grad=0, device=cpu) = onnx::Identity[onnx_name="Identity_188"](%onnx::MatMul_5200)
  %onnx::Add_5661 : Float(768, strides=[1], requires_grad=0, device=cpu) = onnx::Identity[onnx_name="Identity_189"](%onnx::Add_5199)
  %onnx::Add_5659 : Float(384, strides=[1], requires_grad=0, device=cpu) = onnx::Identity[onnx_name="Identity_190"](%onnx::Add_5197)
  %onnx::MatMul_5644 : Float(384, 95, strides=[1, 384], requires_grad=0, device=cpu) = onnx::Identity[onnx_name="Identity_191"](%onnx::MatMul_5259)
  %onnx::MatMul_5643 : Float(1536, 384, strides=[1, 1536], requires_grad=0, device=cpu) = onnx::Identity[onnx_name="Identity_192"](%onnx::MatMul_5258)
  %onnx::MatMul_5642 : Float(384, 1536, strides=[1, 384], requires_grad=0, device=cpu) = onnx::Identity[onnx_name="Identity_193"](%onnx::MatMul_5257)
  %onnx::MatMul_5622 : Float(384, 768, strides=[1, 384], requires_grad=0, device=cpu) = onnx::Identity[onnx_name="Identity_194"](%onnx::MatMul_5237)
  %onnx::MatMul_5621 : Float(384, 384, strides=[1, 384], requires_grad=0, device=cpu) = onnx::Identity[onnx_name="Identity_195"](%onnx::MatMul_5236)
  %onnx::Add_5620 : Float(768, strides=[1], requires_grad=0, device=cpu) = onnx::Identity[onnx_name="Identity_196"](%onnx::Add_5235)
  %onnx::Add_5618 : Float(384, strides=[1], requires_grad=0, device=cpu) = onnx::Identity[onnx_name="Identity_197"](%onnx::Add_5233)
  %onnx::MatMul_5586 : Float(384, 768, strides=[1, 384], requires_grad=0, device=cpu) = onnx::Identity[onnx_name="Identity_198"](%onnx::MatMul_5201)
  %onnx::MatMul_5585 : Float(384, 384, strides=[1, 384], requires_grad=0, device=cpu) = onnx::Identity[onnx_name="Identity_199"](%onnx::MatMul_5200)
  %onnx::Add_5584 : Float(768, strides=[1], requires_grad=0, device=cpu) = onnx::Identity[onnx_name="Identity_200"](%onnx::Add_5199)
  %onnx::Add_5582 : Float(384, strides=[1], requires_grad=0, device=cpu) = onnx::Identity[onnx_name="Identity_201"](%onnx::Add_5197)
  %onnx::MatMul_5567 : Float(384, 95, strides=[1, 384], requires_grad=0, device=cpu) = onnx::Identity[onnx_name="Identity_202"](%onnx::MatMul_5259)
  %onnx::MatMul_5566 : Float(1536, 384, strides=[1, 1536], requires_grad=0, device=cpu) = onnx::Identity[onnx_name="Identity_203"](%onnx::MatMul_5258)
  %onnx::MatMul_5565 : Float(384, 1536, strides=[1, 384], requires_grad=0, device=cpu) = onnx::Identity[onnx_name="Identity_204"](%onnx::MatMul_5257)
  %onnx::MatMul_5545 : Float(384, 768, strides=[1, 384], requires_grad=0, device=cpu) = onnx::Identity[onnx_name="Identity_205"](%onnx::MatMul_5237)
  %onnx::MatMul_5544 : Float(384, 384, strides=[1, 384], requires_grad=0, device=cpu) = onnx::Identity[onnx_name="Identity_206"](%onnx::MatMul_5236)
  %onnx::Add_5543 : Float(768, strides=[1], requires_grad=0, device=cpu) = onnx::Identity[onnx_name="Identity_207"](%onnx::Add_5235)
  %onnx::Add_5541 : Float(384, strides=[1], requires_grad=0, device=cpu) = onnx::Identity[onnx_name="Identity_208"](%onnx::Add_5233)
  %onnx::MatMul_5509 : Float(384, 768, strides=[1, 384], requires_grad=0, device=cpu) = onnx::Identity[onnx_name="Identity_209"](%onnx::MatMul_5201)
  %onnx::MatMul_5508 : Float(384, 384, strides=[1, 384], requires_grad=0, device=cpu) = onnx::Identity[onnx_name="Identity_210"](%onnx::MatMul_5200)
  %onnx::Add_5507 : Float(768, strides=[1], requires_grad=0, device=cpu) = onnx::Identity[onnx_name="Identity_211"](%onnx::Add_5199)
  %onnx::Add_5505 : Float(384, strides=[1], requires_grad=0, device=cpu) = onnx::Identity[onnx_name="Identity_212"](%onnx::Add_5197)
  %onnx::MatMul_5490 : Float(384, 95, strides=[1, 384], requires_grad=0, device=cpu) = onnx::Identity[onnx_name="Identity_213"](%onnx::MatMul_5259)
  %onnx::MatMul_5489 : Float(1536, 384, strides=[1, 1536], requires_grad=0, device=cpu) = onnx::Identity[onnx_name="Identity_214"](%onnx::MatMul_5258)
  %onnx::MatMul_5488 : Float(384, 1536, strides=[1, 384], requires_grad=0, device=cpu) = onnx::Identity[onnx_name="Identity_215"](%onnx::MatMul_5257)
  %onnx::MatMul_5468 : Float(384, 768, strides=[1, 384], requires_grad=0, device=cpu) = onnx::Identity[onnx_name="Identity_216"](%onnx::MatMul_5237)
  %onnx::MatMul_5467 : Float(384, 384, strides=[1, 384], requires_grad=0, device=cpu) = onnx::Identity[onnx_name="Identity_217"](%onnx::MatMul_5236)
  %onnx::Add_5466 : Float(768, strides=[1], requires_grad=0, device=cpu) = onnx::Identity[onnx_name="Identity_218"](%onnx::Add_5235)
  %onnx::Add_5464 : Float(384, strides=[1], requires_grad=0, device=cpu) = onnx::Identity[onnx_name="Identity_219"](%onnx::Add_5233)
  %onnx::MatMul_5432 : Float(384, 768, strides=[1, 384], requires_grad=0, device=cpu) = onnx::Identity[onnx_name="Identity_220"](%onnx::MatMul_5201)
  %onnx::MatMul_5431 : Float(384, 384, strides=[1, 384], requires_grad=0, device=cpu) = onnx::Identity[onnx_name="Identity_221"](%onnx::MatMul_5200)
  %onnx::Add_5430 : Float(768, strides=[1], requires_grad=0, device=cpu) = onnx::Identity[onnx_name="Identity_222"](%onnx::Add_5199)
  %onnx::Add_5428 : Float(384, strides=[1], requires_grad=0, device=cpu) = onnx::Identity[onnx_name="Identity_223"](%onnx::Add_5197)
  %onnx::MatMul_5413 : Float(384, 95, strides=[1, 384], requires_grad=0, device=cpu) = onnx::Identity[onnx_name="Identity_224"](%onnx::MatMul_5259)
  %onnx::MatMul_5412 : Float(1536, 384, strides=[1, 1536], requires_grad=0, device=cpu) = onnx::Identity[onnx_name="Identity_225"](%onnx::MatMul_5258)
  %onnx::MatMul_5411 : Float(384, 1536, strides=[1, 384], requires_grad=0, device=cpu) = onnx::Identity[onnx_name="Identity_226"](%onnx::MatMul_5257)
  %onnx::MatMul_5391 : Float(384, 768, strides=[1, 384], requires_grad=0, device=cpu) = onnx::Identity[onnx_name="Identity_227"](%onnx::MatMul_5237)
  %onnx::MatMul_5390 : Float(384, 384, strides=[1, 384], requires_grad=0, device=cpu) = onnx::Identity[onnx_name="Identity_228"](%onnx::MatMul_5236)
  %onnx::Add_5389 : Float(768, strides=[1], requires_grad=0, device=cpu) = onnx::Identity[onnx_name="Identity_229"](%onnx::Add_5235)
  %onnx::Add_5387 : Float(384, strides=[1], requires_grad=0, device=cpu) = onnx::Identity[onnx_name="Identity_230"](%onnx::Add_5233)
  %onnx::MatMul_5355 : Float(384, 768, strides=[1, 384], requires_grad=0, device=cpu) = onnx::Identity[onnx_name="Identity_231"](%onnx::MatMul_5201)
  %onnx::MatMul_5354 : Float(384, 384, strides=[1, 384], requires_grad=0, device=cpu) = onnx::Identity[onnx_name="Identity_232"](%onnx::MatMul_5200)
  %onnx::Add_5353 : Float(768, strides=[1], requires_grad=0, device=cpu) = onnx::Identity[onnx_name="Identity_233"](%onnx::Add_5199)
  %onnx::Add_5351 : Float(384, strides=[1], requires_grad=0, device=cpu) = onnx::Identity[onnx_name="Identity_234"](%onnx::Add_5197)
  %onnx::MatMul_5336 : Float(384, 95, strides=[1, 384], requires_grad=0, device=cpu) = onnx::Identity[onnx_name="Identity_235"](%onnx::MatMul_5259)
  %onnx::MatMul_5335 : Float(1536, 384, strides=[1, 1536], requires_grad=0, device=cpu) = onnx::Identity[onnx_name="Identity_236"](%onnx::MatMul_5258)
  %onnx::MatMul_5334 : Float(384, 1536, strides=[1, 384], requires_grad=0, device=cpu) = onnx::Identity[onnx_name="Identity_237"](%onnx::MatMul_5257)
  %onnx::MatMul_5314 : Float(384, 768, strides=[1, 384], requires_grad=0, device=cpu) = onnx::Identity[onnx_name="Identity_238"](%onnx::MatMul_5237)
  %onnx::MatMul_5313 : Float(384, 384, strides=[1, 384], requires_grad=0, device=cpu) = onnx::Identity[onnx_name="Identity_239"](%onnx::MatMul_5236)
  %onnx::Add_5312 : Float(768, strides=[1], requires_grad=0, device=cpu) = onnx::Identity[onnx_name="Identity_240"](%onnx::Add_5235)
  %onnx::Add_5310 : Float(384, strides=[1], requires_grad=0, device=cpu) = onnx::Identity[onnx_name="Identity_241"](%onnx::Add_5233)
  %onnx::MatMul_5278 : Float(384, 768, strides=[1, 384], requires_grad=0, device=cpu) = onnx::Identity[onnx_name="Identity_242"](%onnx::MatMul_5201)
  %onnx::MatMul_5277 : Float(384, 384, strides=[1, 384], requires_grad=0, device=cpu) = onnx::Identity[onnx_name="Identity_243"](%onnx::MatMul_5200)
  %onnx::Add_5276 : Float(768, strides=[1], requires_grad=0, device=cpu) = onnx::Identity[onnx_name="Identity_244"](%onnx::Add_5199)
  %onnx::Add_5274 : Float(384, strides=[1], requires_grad=0, device=cpu) = onnx::Identity[onnx_name="Identity_245"](%onnx::Add_5197)
  %onnx::Shape_177 : Float(1, 384, 8, 16, strides=[49152, 128, 16, 1], requires_grad=0, device=cpu) = onnx::Conv[dilations=[1, 1], group=1, kernel_shape=[4, 8], pads=[0, 0, 0, 0], strides=[4, 8], onnx_name="Conv_246"](%input, %encoder.patch_embed.proj.weight, %encoder.patch_embed.proj.bias) # /home/ashishpapanai/miniconda3/envs/parseq/lib/python3.7/site-packages/torch/nn/modules/conv.py:454:0
  %onnx::Slice_178 : Long(4, strides=[1], device=cpu) = onnx::Shape[onnx_name="Shape_247"](%onnx::Shape_177) # /home/ashishpapanai/miniconda3/envs/parseq/lib/python3.7/site-packages/timm/models/layers/patch_embed.py:46:0
  %onnx::Slice_179 : Long(1, strides=[1], device=cpu) = onnx::Constant[value={0}, onnx_name="Constant_248"]() # /home/ashishpapanai/miniconda3/envs/parseq/lib/python3.7/site-packages/timm/models/layers/patch_embed.py:46:0
  %onnx::Slice_180 : Long(1, strides=[1], device=cpu) = onnx::Constant[value={0}, onnx_name="Constant_249"]() # /home/ashishpapanai/miniconda3/envs/parseq/lib/python3.7/site-packages/timm/models/layers/patch_embed.py:46:0
  %onnx::Slice_181 : Long(1, strides=[1], device=cpu) = onnx::Constant[value={2}, onnx_name="Constant_250"]() # /home/ashishpapanai/miniconda3/envs/parseq/lib/python3.7/site-packages/timm/models/layers/patch_embed.py:46:0
  %onnx::Concat_182 : Long(2, strides=[1], device=cpu) = onnx::Slice[onnx_name="Slice_251"](%onnx::Slice_178, %onnx::Slice_180, %onnx::Slice_181, %onnx::Slice_179) # /home/ashishpapanai/miniconda3/envs/parseq/lib/python3.7/site-packages/timm/models/layers/patch_embed.py:46:0
  %onnx::Concat_183 : Long(1, strides=[1], requires_grad=0, device=cpu) = onnx::Constant[value={-1}, onnx_name="Constant_252"]() # /home/ashishpapanai/miniconda3/envs/parseq/lib/python3.7/site-packages/timm/models/layers/patch_embed.py:46:0
  %onnx::Reshape_184 : Long(3, strides=[1], device=cpu) = onnx::Concat[axis=0, onnx_name="Concat_253"](%onnx::Concat_182, %onnx::Concat_183) # /home/ashishpapanai/miniconda3/envs/parseq/lib/python3.7/site-packages/timm/models/layers/patch_embed.py:46:0
  %onnx::Transpose_185 : Float(1, 384, 128, strides=[49152, 128, 1], requires_grad=0, device=cpu) = onnx::Reshape[allowzero=0, onnx_name="Reshape_254"](%onnx::Shape_177, %onnx::Reshape_184) # /home/ashishpapanai/miniconda3/envs/parseq/lib/python3.7/site-packages/timm/models/layers/patch_embed.py:46:0
  %x : Float(1, 128, 384, strides=[49152, 1, 128], requires_grad=0, device=cpu) = onnx::Transpose[perm=[0, 2, 1], onnx_name="Transpose_255"](%onnx::Transpose_185) # /home/ashishpapanai/miniconda3/envs/parseq/lib/python3.7/site-packages/timm/models/layers/patch_embed.py:46:0
  %input.1 : Float(1, 128, 384, strides=[49152, 1, 128], requires_grad=0, device=cpu) = onnx::Add[onnx_name="Add_256"](%x, %encoder.pos_embed) # /home/ashishpapanai/miniconda3/envs/parseq/lib/python3.7/site-packages/timm/models/vision_transformer.py:528:0
  %onnx::Sub_188 : Float(1, 128, 1, strides=[128, 1, 1], device=cpu) = onnx::ReduceMean[axes=[-1], onnx_name="ReduceMean_257"](%input.1) # /home/ashishpapanai/miniconda3/envs/parseq/lib/python3.7/site-packages/torch/nn/functional.py:2503:0
  %onnx::Pow_189 : Float(1, 128, 384, strides=[49152, 384, 1], device=cpu) = onnx::Sub[onnx_name="Sub_258"](%input.1, %onnx::Sub_188) # /home/ashishpapanai/miniconda3/envs/parseq/lib/python3.7/site-packages/torch/nn/functional.py:2503:0
  %onnx::Pow_190 : Float(requires_grad=0, device=cpu) = onnx::Constant[value={2}, onnx_name="Constant_259"]() # /home/ashishpapanai/miniconda3/envs/parseq/lib/python3.7/site-packages/torch/nn/functional.py:2503:0
  %onnx::ReduceMean_191 : Float(1, 128, 384, strides=[49152, 384, 1], device=cpu) = onnx::Pow[onnx_name="Pow_260"](%onnx::Pow_189, %onnx::Pow_190) # /home/ashishpapanai/miniconda3/envs/parseq/lib/python3.7/site-packages/torch/nn/functional.py:2503:0
  %onnx::Add_192 : Float(1, 128, 1, strides=[128, 1, 1], device=cpu) = onnx::ReduceMean[axes=[-1], onnx_name="ReduceMean_261"](%onnx::ReduceMean_191) # /home/ashishpapanai/miniconda3/envs/parseq/lib/python3.7/site-packages/torch/nn/functional.py:2503:0
  %onnx::Add_193 : Float(requires_grad=0, device=cpu) = onnx::Constant[value={1e-06}, onnx_name="Constant_262"]() # /home/ashishpapanai/miniconda3/envs/parseq/lib/python3.7/site-packages/torch/nn/functional.py:2503:0
  %onnx::Sqrt_194 : Float(1, 128, 1, strides=[128, 1, 1], device=cpu) = onnx::Add[onnx_name="Add_263"](%onnx::Add_192, %onnx::Add_193) # /home/ashishpapanai/miniconda3/envs/parseq/lib/python3.7/site-packages/torch/nn/functional.py:2503:0
  %onnx::Div_195 : Float(1, 128, 1, strides=[128, 1, 1], device=cpu) = onnx::Sqrt[onnx_name="Sqrt_264"](%onnx::Sqrt_194) # /home/ashishpapanai/miniconda3/envs/parseq/lib/python3.7/site-packages/torch/nn/functional.py:2503:0
  %onnx::Mul_196 : Float(1, 128, 384, strides=[49152, 384, 1], device=cpu) = onnx::Div[onnx_name="Div_265"](%onnx::Pow_189, %onnx::Div_195) # /home/ashishpapanai/miniconda3/envs/parseq/lib/python3.7/site-packages/torch/nn/functional.py:2503:0
  %onnx::Add_197 : Float(1, 128, 384, strides=[49152, 384, 1], device=cpu) = onnx::Mul[onnx_name="Mul_266"](%onnx::Mul_196, %encoder.blocks.0.norm1.weight) # /home/ashishpapanai/miniconda3/envs/parseq/lib/python3.7/site-packages/torch/nn/functional.py:2503:0
  %onnx::MatMul_198 : Float(1, 128, 384, strides=[49152, 384, 1], requires_grad=0, device=cpu) = onnx::Add[onnx_name="Add_267"](%onnx::Add_197, %encoder.blocks.0.norm1.bias) # /home/ashishpapanai/miniconda3/envs/parseq/lib/python3.7/site-packages/torch/nn/functional.py:2503:0
  %onnx::Add_203 : Float(1, 128, 1152, strides=[147456, 1152, 1], device=cpu) = onnx::MatMul[onnx_name="MatMul_268"](%onnx::MatMul_198, %onnx::MatMul_5004) # /home/ashishpapanai/miniconda3/envs/parseq/lib/python3.7/site-packages/torch/nn/modules/linear.py:114:0
  %onnx::Reshape_204 : Float(1, 128, 1152, strides=[147456, 1152, 1], requires_grad=0, device=cpu) = onnx::Add[onnx_name="Add_269"](%encoder.blocks.0.attn.qkv.bias, %onnx::Add_203) # /home/ashishpapanai/miniconda3/envs/parseq/lib/python3.7/site-packages/torch/nn/modules/linear.py:114:0
  %onnx::Transpose_219 : Float(1, 128, 3, 6, 64, strides=[147456, 1152, 384, 64, 1], requires_grad=0, device=cpu) = onnx::Reshape[allowzero=0, onnx_name="Reshape_270"](%onnx::Reshape_204, %onnx::Reshape_5010) # /home/ashishpapanai/miniconda3/envs/parseq/lib/python3.7/site-packages/timm/models/vision_transformer.py:217:0
  %onnx::Split_220 : Float(3, 1, 6, 128, 64, strides=[384, 147456, 64, 1152, 1], requires_grad=0, device=cpu) = onnx::Transpose[perm=[2, 0, 3, 1, 4], onnx_name="Transpose_271"](%onnx::Transpose_219) # /home/ashishpapanai/miniconda3/envs/parseq/lib/python3.7/site-packages/timm/models/vision_transformer.py:217:0
  %onnx::Split_221 : Long(3, strides=[1], device=cpu) = onnx::Constant[value= 1  1  1 [ CPULongType{3} ], onnx_name="Constant_272"]() # /home/ashishpapanai/miniconda3/envs/parseq/lib/python3.7/site-packages/timm/models/vision_transformer.py:218:0
  %onnx::Squeeze_222 : Float(1, 1, 6, 128, 64, strides=[49152, 49152, 8192, 64, 1], device=cpu), %onnx::Squeeze_223 : Float(1, 1, 6, 128, 64, strides=[49152, 49152, 8192, 64, 1], device=cpu), %onnx::Squeeze_224 : Float(1, 1, 6, 128, 64, strides=[49152, 49152, 8192, 64, 1], device=cpu) = onnx::Split[axis=0, onnx_name="Split_273"](%onnx::Split_220, %onnx::Split_221) # /home/ashishpapanai/miniconda3/envs/parseq/lib/python3.7/site-packages/timm/models/vision_transformer.py:218:0
  %onnx::Squeeze_225 : Long(1, strides=[1], device=cpu) = onnx::Constant[value={0}, onnx_name="Constant_274"]() # /home/ashishpapanai/miniconda3/envs/parseq/lib/python3.7/site-packages/timm/models/vision_transformer.py:218:0
  %onnx::MatMul_226 : Float(1, 6, 128, 64, strides=[147456, 64, 1152, 1], requires_grad=0, device=cpu) = onnx::Squeeze[onnx_name="Squeeze_275"](%onnx::Squeeze_222, %onnx::Squeeze_225) # /home/ashishpapanai/miniconda3/envs/parseq/lib/python3.7/site-packages/timm/models/vision_transformer.py:218:0
  %onnx::Squeeze_227 : Long(1, strides=[1], device=cpu) = onnx::Constant[value={0}, onnx_name="Constant_276"]() # /home/ashishpapanai/miniconda3/envs/parseq/lib/python3.7/site-packages/timm/models/vision_transformer.py:218:0
  %onnx::Transpose_228 : Float(1, 6, 128, 64, strides=[147456, 64, 1152, 1], requires_grad=0, device=cpu) = onnx::Squeeze[onnx_name="Squeeze_277"](%onnx::Squeeze_223, %onnx::Squeeze_227) # /home/ashishpapanai/miniconda3/envs/parseq/lib/python3.7/site-packages/timm/models/vision_transformer.py:218:0
  %onnx::Squeeze_229 : Long(1, strides=[1], device=cpu) = onnx::Constant[value={0}, onnx_name="Constant_278"]() # /home/ashishpapanai/miniconda3/envs/parseq/lib/python3.7/site-packages/timm/models/vision_transformer.py:218:0
  %onnx::MatMul_230 : Float(1, 6, 128, 64, strides=[147456, 64, 1152, 1], requires_grad=0, device=cpu) = onnx::Squeeze[onnx_name="Squeeze_279"](%onnx::Squeeze_224, %onnx::Squeeze_229) # /home/ashishpapanai/miniconda3/envs/parseq/lib/python3.7/site-packages/timm/models/vision_transformer.py:218:0
  %onnx::MatMul_231 : Float(1, 6, 64, 128, strides=[147456, 64, 1, 1152], requires_grad=0, device=cpu) = onnx::Transpose[perm=[0, 1, 3, 2], onnx_name="Transpose_280"](%onnx::Transpose_228) # /home/ashishpapanai/miniconda3/envs/parseq/lib/python3.7/site-packages/timm/models/vision_transformer.py:220:0
  %onnx::Mul_232 : Float(1, 6, 128, 128, strides=[98304, 16384, 128, 1], requires_grad=0, device=cpu) = onnx::MatMul[onnx_name="MatMul_281"](%onnx::MatMul_226, %onnx::MatMul_231) # /home/ashishpapanai/miniconda3/envs/parseq/lib/python3.7/site-packages/timm/models/vision_transformer.py:220:0
  %onnx::Mul_233 : Float(requires_grad=0, device=cpu) = onnx::Constant[value={0.125}, onnx_name="Constant_282"]()
  %onnx::Softmax_234 : Float(1, 6, 128, 128, strides=[98304, 16384, 128, 1], requires_grad=0, device=cpu) = onnx::Mul[onnx_name="Mul_283"](%onnx::Mul_232, %onnx::Mul_233) # /home/ashishpapanai/miniconda3/envs/parseq/lib/python3.7/site-packages/timm/models/vision_transformer.py:220:0
  %input.4 : Float(1, 6, 128, 128, strides=[98304, 16384, 128, 1], requires_grad=0, device=cpu) = onnx::Softmax[axis=-1, onnx_name="Softmax_284"](%onnx::Softmax_234) # /home/ashishpapanai/miniconda3/envs/parseq/lib/python3.7/site-packages/timm/models/vision_transformer.py:221:0
  %onnx::Transpose_236 : Float(1, 6, 128, 64, strides=[49152, 8192, 64, 1], requires_grad=0, device=cpu) = onnx::MatMul[onnx_name="MatMul_285"](%input.4, %onnx::MatMul_230) # /home/ashishpapanai/miniconda3/envs/parseq/lib/python3.7/site-packages/timm/models/vision_transformer.py:224:0
  %onnx::Reshape_237 : Float(1, 128, 6, 64, strides=[49152, 64, 8192, 1], requires_grad=0, device=cpu) = onnx::Transpose[perm=[0, 2, 1, 3], onnx_name="Transpose_286"](%onnx::Transpose_236) # /home/ashishpapanai/miniconda3/envs/parseq/lib/python3.7/site-packages/timm/models/vision_transformer.py:224:0
  %onnx::MatMul_245 : Float(1, 128, 384, strides=[49152, 384, 1], requires_grad=0, device=cpu) = onnx::Reshape[allowzero=0, onnx_name="Reshape_287"](%onnx::Reshape_237, %onnx::Reshape_5014) # /home/ashishpapanai/miniconda3/envs/parseq/lib/python3.7/site-packages/timm/models/vision_transformer.py:224:0
  %onnx::Add_247 : Float(1, 128, 384, strides=[49152, 384, 1], device=cpu) = onnx::MatMul[onnx_name="MatMul_288"](%onnx::MatMul_245, %onnx::MatMul_5015) # /home/ashishpapanai/miniconda3/envs/parseq/lib/python3.7/site-packages/torch/nn/modules/linear.py:114:0
  %input.8 : Float(1, 128, 384, strides=[49152, 384, 1], requires_grad=0, device=cpu) = onnx::Add[onnx_name="Add_289"](%encoder.blocks.0.attn.proj.bias, %onnx::Add_247) # /home/ashishpapanai/miniconda3/envs/parseq/lib/python3.7/site-packages/torch/nn/modules/linear.py:114:0
  %input.12 : Float(1, 128, 384, strides=[49152, 1, 128], requires_grad=0, device=cpu) = onnx::Add[onnx_name="Add_290"](%input.1, %input.8) # /home/ashishpapanai/miniconda3/envs/parseq/lib/python3.7/site-packages/timm/models/vision_transformer.py:268:0
  %onnx::Sub_250 : Float(1, 128, 1, strides=[128, 1, 1], device=cpu) = onnx::ReduceMean[axes=[-1], onnx_name="ReduceMean_291"](%input.12) # /home/ashishpapanai/miniconda3/envs/parseq/lib/python3.7/site-packages/torch/nn/functional.py:2503:0
  %onnx::Pow_251 : Float(1, 128, 384, strides=[49152, 384, 1], device=cpu) = onnx::Sub[onnx_name="Sub_292"](%input.12, %onnx::Sub_250) # /home/ashishpapanai/miniconda3/envs/parseq/lib/python3.7/site-packages/torch/nn/functional.py:2503:0
  %onnx::Pow_252 : Float(requires_grad=0, device=cpu) = onnx::Constant[value={2}, onnx_name="Constant_293"]() # /home/ashishpapanai/miniconda3/envs/parseq/lib/python3.7/site-packages/torch/nn/functional.py:2503:0
  %onnx::ReduceMean_253 : Float(1, 128, 384, strides=[49152, 384, 1], device=cpu) = onnx::Pow[onnx_name="Pow_294"](%onnx::Pow_251, %onnx::Pow_252) # /home/ashishpapanai/miniconda3/envs/parseq/lib/python3.7/site-packages/torch/nn/functional.py:2503:0
  %onnx::Add_254 : Float(1, 128, 1, strides=[128, 1, 1], device=cpu) = onnx::ReduceMean[axes=[-1], onnx_name="ReduceMean_295"](%onnx::ReduceMean_253) # /home/ashishpapanai/miniconda3/envs/parseq/lib/python3.7/site-packages/torch/nn/functional.py:2503:0
  %onnx::Add_255 : Float(requires_grad=0, device=cpu) = onnx::Constant[value={1e-06}, onnx_name="Constant_296"]() # /home/ashishpapanai/miniconda3/envs/parseq/lib/python3.7/site-packages/torch/nn/functional.py:2503:0
  %onnx::Sqrt_256 : Float(1, 128, 1, strides=[128, 1, 1], device=cpu) = onnx::Add[onnx_name="Add_297"](%onnx::Add_254, %onnx::Add_255) # /home/ashishpapanai/miniconda3/envs/parseq/lib/python3.7/site-packages/torch/nn/functional.py:2503:0
  %onnx::Div_257 : Float(1, 128, 1, strides=[128, 1, 1], device=cpu) = onnx::Sqrt[onnx_name="Sqrt_298"](%onnx::Sqrt_256) # /home/ashishpapanai/miniconda3/envs/parseq/lib/python3.7/site-packages/torch/nn/functional.py:2503:0
  %onnx::Mul_258 : Float(1, 128, 384, strides=[49152, 384, 1], device=cpu) = onnx::Div[onnx_name="Div_299"](%onnx::Pow_251, %onnx::Div_257) # /home/ashishpapanai/miniconda3/envs/parseq/lib/python3.7/site-packages/torch/nn/functional.py:2503:0
  %onnx::Add_259 : Float(1, 128, 384, strides=[49152, 384, 1], device=cpu) = onnx::Mul[onnx_name="Mul_300"](%onnx::Mul_258, %encoder.blocks.0.norm2.weight) # /home/ashishpapanai/miniconda3/envs/parseq/lib/python3.7/site-packages/torch/nn/functional.py:2503:0
  %onnx::MatMul_260 : Float(1, 128, 384, strides=[49152, 384, 1], requires_grad=0, device=cpu) = onnx::Add[onnx_name="Add_301"](%onnx::Add_259, %encoder.blocks.0.norm2.bias) # /home/ashishpapanai/miniconda3/envs/parseq/lib/python3.7/site-packages/torch/nn/functional.py:2503:0
  %onnx::Add_262 : Float(1, 128, 1536, strides=[196608, 1536, 1], device=cpu) = onnx::MatMul[onnx_name="MatMul_302"](%onnx::MatMul_260, %onnx::MatMul_5016) # /home/ashishpapanai/miniconda3/envs/parseq/lib/python3.7/site-packages/torch/nn/modules/linear.py:114:0
  %onnx::Div_263 : Float(1, 128, 1536, strides=[196608, 1536, 1], requires_grad=0, device=cpu) = onnx::Add[onnx_name="Add_303"](%encoder.blocks.0.mlp.fc1.bias, %onnx::Add_262) # /home/ashishpapanai/miniconda3/envs/parseq/lib/python3.7/site-packages/torch/nn/modules/linear.py:114:0
  %onnx::Div_264 : Float(requires_grad=0, device=cpu) = onnx::Constant[value={1.41421}, onnx_name="Constant_304"]() # /home/ashishpapanai/miniconda3/envs/parseq/lib/python3.7/site-packages/torch/nn/modules/activation.py:681:0
  %onnx::Erf_265 : Float(1, 128, 1536, strides=[196608, 1536, 1], device=cpu) = onnx::Div[onnx_name="Div_305"](%onnx::Div_263, %onnx::Div_264) # /home/ashishpapanai/miniconda3/envs/parseq/lib/python3.7/site-packages/torch/nn/modules/activation.py:681:0
  %onnx::Add_266 : Float(1, 128, 1536, strides=[196608, 1536, 1], device=cpu) = onnx::Erf[onnx_name="Erf_306"](%onnx::Erf_265) # /home/ashishpapanai/miniconda3/envs/parseq/lib/python3.7/site-packages/torch/nn/modules/activation.py:681:0
  %onnx::Add_267 : Float(requires_grad=0, device=cpu) = onnx::Constant[value={1}, onnx_name="Constant_307"]() # /home/ashishpapanai/miniconda3/envs/parseq/lib/python3.7/site-packages/torch/nn/modules/activation.py:681:0
  %onnx::Mul_268 : Float(1, 128, 1536, strides=[196608, 1536, 1], device=cpu) = onnx::Add[onnx_name="Add_308"](%onnx::Add_266, %onnx::Add_267) # /home/ashishpapanai/miniconda3/envs/parseq/lib/python3.7/site-packages/torch/nn/modules/activation.py:681:0
  %onnx::Mul_269 : Float(1, 128, 1536, strides=[196608, 1536, 1], device=cpu) = onnx::Mul[onnx_name="Mul_309"](%onnx::Div_263, %onnx::Mul_268) # /home/ashishpapanai/miniconda3/envs/parseq/lib/python3.7/site-packages/torch/nn/modules/activation.py:681:0
  %onnx::Mul_270 : Float(requires_grad=0, device=cpu) = onnx::Constant[value={0.5}, onnx_name="Constant_310"]() # /home/ashishpapanai/miniconda3/envs/parseq/lib/python3.7/site-packages/torch/nn/modules/activation.py:681:0
  %input.16 : Float(1, 128, 1536, strides=[196608, 1536, 1], requires_grad=0, device=cpu) = onnx::Mul[onnx_name="Mul_311"](%onnx::Mul_269, %onnx::Mul_270) # /home/ashishpapanai/miniconda3/envs/parseq/lib/python3.7/site-packages/torch/nn/modules/activation.py:681:0
  %onnx::Add_273 : Float(1, 128, 384, strides=[49152, 384, 1], device=cpu) = onnx::MatMul[onnx_name="MatMul_312"](%input.16, %onnx::MatMul_5017) # /home/ashishpapanai/miniconda3/envs/parseq/lib/python3.7/site-packages/torch/nn/modules/linear.py:114:0
  %input.20 : Float(1, 128, 384, strides=[49152, 384, 1], requires_grad=0, device=cpu) = onnx::Add[onnx_name="Add_313"](%encoder.blocks.0.mlp.fc2.bias, %onnx::Add_273) # /home/ashishpapanai/miniconda3/envs/parseq/lib/python3.7/site-packages/torch/nn/modules/linear.py:114:0
  %input.24 : Float(1, 128, 384, strides=[49152, 1, 128], requires_grad=0, device=cpu) = onnx::Add[onnx_name="Add_314"](%input.12, %input.20) # /home/ashishpapanai/miniconda3/envs/parseq/lib/python3.7/site-packages/timm/models/vision_transformer.py:269:0
  %onnx::Sub_276 : Float(1, 128, 1, strides=[128, 1, 1], device=cpu) = onnx::ReduceMean[axes=[-1], onnx_name="ReduceMean_315"](%input.24) # /home/ashishpapanai/miniconda3/envs/parseq/lib/python3.7/site-packages/torch/nn/functional.py:2503:0
  %onnx::Pow_277 : Float(1, 128, 384, strides=[49152, 384, 1], device=cpu) = onnx::Sub[onnx_name="Sub_316"](%input.24, %onnx::Sub_276) # /home/ashishpapanai/miniconda3/envs/parseq/lib/python3.7/site-packages/torch/nn/functional.py:2503:0
  %onnx::Pow_278 : Float(requires_grad=0, device=cpu) = onnx::Constant[value={2}, onnx_name="Constant_317"]() # /home/ashishpapanai/miniconda3/envs/parseq/lib/python3.7/site-packages/torch/nn/functional.py:2503:0
  %onnx::ReduceMean_279 : Float(1, 128, 384, strides=[49152, 384, 1], device=cpu) = onnx::Pow[onnx_name="Pow_318"](%onnx::Pow_277, %onnx::Pow_278) # /home/ashishpapanai/miniconda3/envs/parseq/lib/python3.7/site-packages/torch/nn/functional.py:2503:0
  %onnx::Add_280 : Float(1, 128, 1, strides=[128, 1, 1], device=cpu) = onnx::ReduceMean[axes=[-1], onnx_name="ReduceMean_319"](%onnx::ReduceMean_279) # /home/ashishpapanai/miniconda3/envs/parseq/lib/python3.7/site-packages/torch/nn/functional.py:2503:0
  %onnx::Add_281 : Float(requires_grad=0, device=cpu) = onnx::Constant[value={1e-06}, onnx_name="Constant_320"]() # /home/ashishpapanai/miniconda3/envs/parseq/lib/python3.7/site-packages/torch/nn/functional.py:2503:0
  %onnx::Sqrt_282 : Float(1, 128, 1, strides=[128, 1, 1], device=cpu) = onnx::Add[onnx_name="Add_321"](%onnx::Add_280, %onnx::Add_281) # /home/ashishpapanai/miniconda3/envs/parseq/lib/python3.7/site-packages/torch/nn/functional.py:2503:0
  %onnx::Div_283 : Float(1, 128, 1, strides=[128, 1, 1], device=cpu) = onnx::Sqrt[onnx_name="Sqrt_322"](%onnx::Sqrt_282) # /home/ashishpapanai/miniconda3/envs/parseq/lib/python3.7/site-packages/torch/nn/functional.py:2503:0
  %onnx::Mul_284 : Float(1, 128, 384, strides=[49152, 384, 1], device=cpu) = onnx::Div[onnx_name="Div_323"](%onnx::Pow_277, %onnx::Div_283) # /home/ashishpapanai/miniconda3/envs/parseq/lib/python3.7/site-packages/torch/nn/functional.py:2503:0
  %onnx::Add_285 : Float(1, 128, 384, strides=[49152, 384, 1], device=cpu) = onnx::Mul[onnx_name="Mul_324"](%onnx::Mul_284, %encoder.blocks.1.norm1.weight) # /home/ashishpapanai/miniconda3/envs/parseq/lib/python3.7/site-packages/torch/nn/functional.py:2503:0
  %onnx::MatMul_286 : Float(1, 128, 384, strides=[49152, 384, 1], requires_grad=0, device=cpu) = onnx::Add[onnx_name="Add_325"](%onnx::Add_285, %encoder.blocks.1.norm1.bias) # /home/ashishpapanai/miniconda3/envs/parseq/lib/python3.7/site-packages/torch/nn/functional.py:2503:0
  %onnx::Add_291 : Float(1, 128, 1152, strides=[147456, 1152, 1], device=cpu) = onnx::MatMul[onnx_name="MatMul_326"](%onnx::MatMul_286, %onnx::MatMul_5018) # /home/ashishpapanai/miniconda3/envs/parseq/lib/python3.7/site-packages/torch/nn/modules/linear.py:114:0
  %onnx::Reshape_292 : Float(1, 128, 1152, strides=[147456, 1152, 1], requires_grad=0, device=cpu) = onnx::Add[onnx_name="Add_327"](%encoder.blocks.1.attn.qkv.bias, %onnx::Add_291) # /home/ashishpapanai/miniconda3/envs/parseq/lib/python3.7/site-packages/torch/nn/modules/linear.py:114:0
  %onnx::Transpose_307 : Float(1, 128, 3, 6, 64, strides=[147456, 1152, 384, 64, 1], requires_grad=0, device=cpu) = onnx::Reshape[allowzero=0, onnx_name="Reshape_328"](%onnx::Reshape_292, %onnx::Reshape_5024) # /home/ashishpapanai/miniconda3/envs/parseq/lib/python3.7/site-packages/timm/models/vision_transformer.py:217:0
  %onnx::Split_308 : Float(3, 1, 6, 128, 64, strides=[384, 147456, 64, 1152, 1], requires_grad=0, device=cpu) = onnx::Transpose[perm=[2, 0, 3, 1, 4], onnx_name="Transpose_329"](%onnx::Transpose_307) # /home/ashishpapanai/miniconda3/envs/parseq/lib/python3.7/site-packages/timm/models/vision_transformer.py:217:0
  %onnx::Split_309 : Long(3, strides=[1], device=cpu) = onnx::Constant[value= 1  1  1 [ CPULongType{3} ], onnx_name="Constant_330"]() # /home/ashishpapanai/miniconda3/envs/parseq/lib/python3.7/site-packages/timm/models/vision_transformer.py:218:0
  %onnx::Squeeze_310 : Float(1, 1, 6, 128, 64, strides=[49152, 49152, 8192, 64, 1], device=cpu), %onnx::Squeeze_311 : Float(1, 1, 6, 128, 64, strides=[49152, 49152, 8192, 64, 1], device=cpu), %onnx::Squeeze_312 : Float(1, 1, 6, 128, 64, strides=[49152, 49152, 8192, 64, 1], device=cpu) = onnx::Split[axis=0, onnx_name="Split_331"](%onnx::Split_308, %onnx::Split_309) # /home/ashishpapanai/miniconda3/envs/parseq/lib/python3.7/site-packages/timm/models/vision_transformer.py:218:0
  %onnx::Squeeze_313 : Long(1, strides=[1], device=cpu) = onnx::Constant[value={0}, onnx_name="Constant_332"]() # /home/ashishpapanai/miniconda3/envs/parseq/lib/python3.7/site-packages/timm/models/vision_transformer.py:218:0
  %onnx::MatMul_314 : Float(1, 6, 128, 64, strides=[147456, 64, 1152, 1], requires_grad=0, device=cpu) = onnx::Squeeze[onnx_name="Squeeze_333"](%onnx::Squeeze_310, %onnx::Squeeze_313) # /home/ashishpapanai/miniconda3/envs/parseq/lib/python3.7/site-packages/timm/models/vision_transformer.py:218:0
  %onnx::Squeeze_315 : Long(1, strides=[1], device=cpu) = onnx::Constant[value={0}, onnx_name="Constant_334"]() # /home/ashishpapanai/miniconda3/envs/parseq/lib/python3.7/site-packages/timm/models/vision_transformer.py:218:0
  %onnx::Transpose_316 : Float(1, 6, 128, 64, strides=[147456, 64, 1152, 1], requires_grad=0, device=cpu) = onnx::Squeeze[onnx_name="Squeeze_335"](%onnx::Squeeze_311, %onnx::Squeeze_315) # /home/ashishpapanai/miniconda3/envs/parseq/lib/python3.7/site-packages/timm/models/vision_transformer.py:218:0
  %onnx::Squeeze_317 : Long(1, strides=[1], device=cpu) = onnx::Constant[value={0}, onnx_name="Constant_336"]() # /home/ashishpapanai/miniconda3/envs/parseq/lib/python3.7/site-packages/timm/models/vision_transformer.py:218:0
  %onnx::MatMul_318 : Float(1, 6, 128, 64, strides=[147456, 64, 1152, 1], requires_grad=0, device=cpu) = onnx::Squeeze[onnx_name="Squeeze_337"](%onnx::Squeeze_312, %onnx::Squeeze_317) # /home/ashishpapanai/miniconda3/envs/parseq/lib/python3.7/site-packages/timm/models/vision_transformer.py:218:0
  %onnx::MatMul_319 : Float(1, 6, 64, 128, strides=[147456, 64, 1, 1152], requires_grad=0, device=cpu) = onnx::Transpose[perm=[0, 1, 3, 2], onnx_name="Transpose_338"](%onnx::Transpose_316) # /home/ashishpapanai/miniconda3/envs/parseq/lib/python3.7/site-packages/timm/models/vision_transformer.py:220:0
  %onnx::Mul_320 : Float(1, 6, 128, 128, strides=[98304, 16384, 128, 1], requires_grad=0, device=cpu) = onnx::MatMul[onnx_name="MatMul_339"](%onnx::MatMul_314, %onnx::MatMul_319) # /home/ashishpapanai/miniconda3/envs/parseq/lib/python3.7/site-packages/timm/models/vision_transformer.py:220:0
  %onnx::Mul_321 : Float(requires_grad=0, device=cpu) = onnx::Constant[value={0.125}, onnx_name="Constant_340"]()
  %onnx::Softmax_322 : Float(1, 6, 128, 128, strides=[98304, 16384, 128, 1], requires_grad=0, device=cpu) = onnx::Mul[onnx_name="Mul_341"](%onnx::Mul_320, %onnx::Mul_321) # /home/ashishpapanai/miniconda3/envs/parseq/lib/python3.7/site-packages/timm/models/vision_transformer.py:220:0
  %input.28 : Float(1, 6, 128, 128, strides=[98304, 16384, 128, 1], requires_grad=0, device=cpu) = onnx::Softmax[axis=-1, onnx_name="Softmax_342"](%onnx::Softmax_322) # /home/ashishpapanai/miniconda3/envs/parseq/lib/python3.7/site-packages/timm/models/vision_transformer.py:221:0
  %onnx::Transpose_324 : Float(1, 6, 128, 64, strides=[49152, 8192, 64, 1], requires_grad=0, device=cpu) = onnx::MatMul[onnx_name="MatMul_343"](%input.28, %onnx::MatMul_318) # /home/ashishpapanai/miniconda3/envs/parseq/lib/python3.7/site-packages/timm/models/vision_transformer.py:224:0
  %onnx::Reshape_325 : Float(1, 128, 6, 64, strides=[49152, 64, 8192, 1], requires_grad=0, device=cpu) = onnx::Transpose[perm=[0, 2, 1, 3], onnx_name="Transpose_344"](%onnx::Transpose_324) # /home/ashishpapanai/miniconda3/envs/parseq/lib/python3.7/site-packages/timm/models/vision_transformer.py:224:0
  %onnx::MatMul_333 : Float(1, 128, 384, strides=[49152, 384, 1], requires_grad=0, device=cpu) = onnx::Reshape[allowzero=0, onnx_name="Reshape_345"](%onnx::Reshape_325, %onnx::Reshape_5028) # /home/ashishpapanai/miniconda3/envs/parseq/lib/python3.7/site-packages/timm/models/vision_transformer.py:224:0
  %onnx::Add_335 : Float(1, 128, 384, strides=[49152, 384, 1], device=cpu) = onnx::MatMul[onnx_name="MatMul_346"](%onnx::MatMul_333, %onnx::MatMul_5029) # /home/ashishpapanai/miniconda3/envs/parseq/lib/python3.7/site-packages/torch/nn/modules/linear.py:114:0
  %input.32 : Float(1, 128, 384, strides=[49152, 384, 1], requires_grad=0, device=cpu) = onnx::Add[onnx_name="Add_347"](%encoder.blocks.1.attn.proj.bias, %onnx::Add_335) # /home/ashishpapanai/miniconda3/envs/parseq/lib/python3.7/site-packages/torch/nn/modules/linear.py:114:0
  %input.36 : Float(1, 128, 384, strides=[49152, 1, 128], requires_grad=0, device=cpu) = onnx::Add[onnx_name="Add_348"](%input.24, %input.32) # /home/ashishpapanai/miniconda3/envs/parseq/lib/python3.7/site-packages/timm/models/vision_transformer.py:268:0
  %onnx::Sub_338 : Float(1, 128, 1, strides=[128, 1, 1], device=cpu) = onnx::ReduceMean[axes=[-1], onnx_name="ReduceMean_349"](%input.36) # /home/ashishpapanai/miniconda3/envs/parseq/lib/python3.7/site-packages/torch/nn/functional.py:2503:0
  %onnx::Pow_339 : Float(1, 128, 384, strides=[49152, 384, 1], device=cpu) = onnx::Sub[onnx_name="Sub_350"](%input.36, %onnx::Sub_338) # /home/ashishpapanai/miniconda3/envs/parseq/lib/python3.7/site-packages/torch/nn/functional.py:2503:0
  %onnx::Pow_340 : Float(requires_grad=0, device=cpu) = onnx::Constant[value={2}, onnx_name="Constant_351"]() # /home/ashishpapanai/miniconda3/envs/parseq/lib/python3.7/site-packages/torch/nn/functional.py:2503:0
  %onnx::ReduceMean_341 : Float(1, 128, 384, strides=[49152, 384, 1], device=cpu) = onnx::Pow[onnx_name="Pow_352"](%onnx::Pow_339, %onnx::Pow_340) # /home/ashishpapanai/miniconda3/envs/parseq/lib/python3.7/site-packages/torch/nn/functional.py:2503:0
  %onnx::Add_342 : Float(1, 128, 1, strides=[128, 1, 1], device=cpu) = onnx::ReduceMean[axes=[-1], onnx_name="ReduceMean_353"](%onnx::ReduceMean_341) # /home/ashishpapanai/miniconda3/envs/parseq/lib/python3.7/site-packages/torch/nn/functional.py:2503:0
  %onnx::Add_343 : Float(requires_grad=0, device=cpu) = onnx::Constant[value={1e-06}, onnx_name="Constant_354"]() # /home/ashishpapanai/miniconda3/envs/parseq/lib/python3.7/site-packages/torch/nn/functional.py:2503:0
  %onnx::Sqrt_344 : Float(1, 128, 1, strides=[128, 1, 1], device=cpu) = onnx::Add[onnx_name="Add_355"](%onnx::Add_342, %onnx::Add_343) # /home/ashishpapanai/miniconda3/envs/parseq/lib/python3.7/site-packages/torch/nn/functional.py:2503:0
  %onnx::Div_345 : Float(1, 128, 1, strides=[128, 1, 1], device=cpu) = onnx::Sqrt[onnx_name="Sqrt_356"](%onnx::Sqrt_344) # /home/ashishpapanai/miniconda3/envs/parseq/lib/python3.7/site-packages/torch/nn/functional.py:2503:0
  %onnx::Mul_346 : Float(1, 128, 384, strides=[49152, 384, 1], device=cpu) = onnx::Div[onnx_name="Div_357"](%onnx::Pow_339, %onnx::Div_345) # /home/ashishpapanai/miniconda3/envs/parseq/lib/python3.7/site-packages/torch/nn/functional.py:2503:0
  %onnx::Add_347 : Float(1, 128, 384, strides=[49152, 384, 1], device=cpu) = onnx::Mul[onnx_name="Mul_358"](%onnx::Mul_346, %encoder.blocks.1.norm2.weight) # /home/ashishpapanai/miniconda3/envs/parseq/lib/python3.7/site-packages/torch/nn/functional.py:2503:0
  %onnx::MatMul_348 : Float(1, 128, 384, strides=[49152, 384, 1], requires_grad=0, device=cpu) = onnx::Add[onnx_name="Add_359"](%onnx::Add_347, %encoder.blocks.1.norm2.bias) # /home/ashishpapanai/miniconda3/envs/parseq/lib/python3.7/site-packages/torch/nn/functional.py:2503:0
  %onnx::Add_350 : Float(1, 128, 1536, strides=[196608, 1536, 1], device=cpu) = onnx::MatMul[onnx_name="MatMul_360"](%onnx::MatMul_348, %onnx::MatMul_5030) # /home/ashishpapanai/miniconda3/envs/parseq/lib/python3.7/site-packages/torch/nn/modules/linear.py:114:0
  %onnx::Div_351 : Float(1, 128, 1536, strides=[196608, 1536, 1], requires_grad=0, device=cpu) = onnx::Add[onnx_name="Add_361"](%encoder.blocks.1.mlp.fc1.bias, %onnx::Add_350) # /home/ashishpapanai/miniconda3/envs/parseq/lib/python3.7/site-packages/torch/nn/modules/linear.py:114:0
  %onnx::Div_352 : Float(requires_grad=0, device=cpu) = onnx::Constant[value={1.41421}, onnx_name="Constant_362"]() # /home/ashishpapanai/miniconda3/envs/parseq/lib/python3.7/site-packages/torch/nn/modules/activation.py:681:0
  %onnx::Erf_353 : Float(1, 128, 1536, strides=[196608, 1536, 1], device=cpu) = onnx::Div[onnx_name="Div_363"](%onnx::Div_351, %onnx::Div_352) # /home/ashishpapanai/miniconda3/envs/parseq/lib/python3.7/site-packages/torch/nn/modules/activation.py:681:0
  %onnx::Add_354 : Float(1, 128, 1536, strides=[196608, 1536, 1], device=cpu) = onnx::Erf[onnx_name="Erf_364"](%onnx::Erf_353) # /home/ashishpapanai/miniconda3/envs/parseq/lib/python3.7/site-packages/torch/nn/modules/activation.py:681:0
  %onnx::Add_355 : Float(requires_grad=0, device=cpu) = onnx::Constant[value={1}, onnx_name="Constant_365"]() # /home/ashishpapanai/miniconda3/envs/parseq/lib/python3.7/site-packages/torch/nn/modules/activation.py:681:0
  %onnx::Mul_356 : Float(1, 128, 1536, strides=[196608, 1536, 1], device=cpu) = onnx::Add[onnx_name="Add_366"](%onnx::Add_354, %onnx::Add_355) # /home/ashishpapanai/miniconda3/envs/parseq/lib/python3.7/site-packages/torch/nn/modules/activation.py:681:0
  %onnx::Mul_357 : Float(1, 128, 1536, strides=[196608, 1536, 1], device=cpu) = onnx::Mul[onnx_name="Mul_367"](%onnx::Div_351, %onnx::Mul_356) # /home/ashishpapanai/miniconda3/envs/parseq/lib/python3.7/site-packages/torch/nn/modules/activation.py:681:0
  %onnx::Mul_358 : Float(requires_grad=0, device=cpu) = onnx::Constant[value={0.5}, onnx_name="Constant_368"]() # /home/ashishpapanai/miniconda3/envs/parseq/lib/python3.7/site-packages/torch/nn/modules/activation.py:681:0
  %input.40 : Float(1, 128, 1536, strides=[196608, 1536, 1], requires_grad=0, device=cpu) = onnx::Mul[onnx_name="Mul_369"](%onnx::Mul_357, %onnx::Mul_358) # /home/ashishpapanai/miniconda3/envs/parseq/lib/python3.7/site-packages/torch/nn/modules/activation.py:681:0
  %onnx::Add_361 : Float(1, 128, 384, strides=[49152, 384, 1], device=cpu) = onnx::MatMul[onnx_name="MatMul_370"](%input.40, %onnx::MatMul_5031) # /home/ashishpapanai/miniconda3/envs/parseq/lib/python3.7/site-packages/torch/nn/modules/linear.py:114:0
  %input.44 : Float(1, 128, 384, strides=[49152, 384, 1], requires_grad=0, device=cpu) = onnx::Add[onnx_name="Add_371"](%encoder.blocks.1.mlp.fc2.bias, %onnx::Add_361) # /home/ashishpapanai/miniconda3/envs/parseq/lib/python3.7/site-packages/torch/nn/modules/linear.py:114:0
  %input.48 : Float(1, 128, 384, strides=[49152, 1, 128], requires_grad=0, device=cpu) = onnx::Add[onnx_name="Add_372"](%input.36, %input.44) # /home/ashishpapanai/miniconda3/envs/parseq/lib/python3.7/site-packages/timm/models/vision_transformer.py:269:0
  %onnx::Sub_364 : Float(1, 128, 1, strides=[128, 1, 1], device=cpu) = onnx::ReduceMean[axes=[-1], onnx_name="ReduceMean_373"](%input.48) # /home/ashishpapanai/miniconda3/envs/parseq/lib/python3.7/site-packages/torch/nn/functional.py:2503:0
  %onnx::Pow_365 : Float(1, 128, 384, strides=[49152, 384, 1], device=cpu) = onnx::Sub[onnx_name="Sub_374"](%input.48, %onnx::Sub_364) # /home/ashishpapanai/miniconda3/envs/parseq/lib/python3.7/site-packages/torch/nn/functional.py:2503:0
  %onnx::Pow_366 : Float(requires_grad=0, device=cpu) = onnx::Constant[value={2}, onnx_name="Constant_375"]() # /home/ashishpapanai/miniconda3/envs/parseq/lib/python3.7/site-packages/torch/nn/functional.py:2503:0
  %onnx::ReduceMean_367 : Float(1, 128, 384, strides=[49152, 384, 1], device=cpu) = onnx::Pow[onnx_name="Pow_376"](%onnx::Pow_365, %onnx::Pow_366) # /home/ashishpapanai/miniconda3/envs/parseq/lib/python3.7/site-packages/torch/nn/functional.py:2503:0
  %onnx::Add_368 : Float(1, 128, 1, strides=[128, 1, 1], device=cpu) = onnx::ReduceMean[axes=[-1], onnx_name="ReduceMean_377"](%onnx::ReduceMean_367) # /home/ashishpapanai/miniconda3/envs/parseq/lib/python3.7/site-packages/torch/nn/functional.py:2503:0
  %onnx::Add_369 : Float(requires_grad=0, device=cpu) = onnx::Constant[value={1e-06}, onnx_name="Constant_378"]() # /home/ashishpapanai/miniconda3/envs/parseq/lib/python3.7/site-packages/torch/nn/functional.py:2503:0
  %onnx::Sqrt_370 : Float(1, 128, 1, strides=[128, 1, 1], device=cpu) = onnx::Add[onnx_name="Add_379"](%onnx::Add_368, %onnx::Add_369) # /home/ashishpapanai/miniconda3/envs/parseq/lib/python3.7/site-packages/torch/nn/functional.py:2503:0
  %onnx::Div_371 : Float(1, 128, 1, strides=[128, 1, 1], device=cpu) = onnx::Sqrt[onnx_name="Sqrt_380"](%onnx::Sqrt_370) # /home/ashishpapanai/miniconda3/envs/parseq/lib/python3.7/site-packages/torch/nn/functional.py:2503:0
  %onnx::Mul_372 : Float(1, 128, 384, strides=[49152, 384, 1], device=cpu) = onnx::Div[onnx_name="Div_381"](%onnx::Pow_365, %onnx::Div_371) # /home/ashishpapanai/miniconda3/envs/parseq/lib/python3.7/site-packages/torch/nn/functional.py:2503:0
  %onnx::Add_373 : Float(1, 128, 384, strides=[49152, 384, 1], device=cpu) = onnx::Mul[onnx_name="Mul_382"](%onnx::Mul_372, %encoder.blocks.2.norm1.weight) # /home/ashishpapanai/miniconda3/envs/parseq/lib/python3.7/site-packages/torch/nn/functional.py:2503:0
  %onnx::MatMul_374 : Float(1, 128, 384, strides=[49152, 384, 1], requires_grad=0, device=cpu) = onnx::Add[onnx_name="Add_383"](%onnx::Add_373, %encoder.blocks.2.norm1.bias) # /home/ashishpapanai/miniconda3/envs/parseq/lib/python3.7/site-packages/torch/nn/functional.py:2503:0
  %onnx::Add_379 : Float(1, 128, 1152, strides=[147456, 1152, 1], device=cpu) = onnx::MatMul[onnx_name="MatMul_384"](%onnx::MatMul_374, %onnx::MatMul_5032) # /home/ashishpapanai/miniconda3/envs/parseq/lib/python3.7/site-packages/torch/nn/modules/linear.py:114:0
  %onnx::Reshape_380 : Float(1, 128, 1152, strides=[147456, 1152, 1], requires_grad=0, device=cpu) = onnx::Add[onnx_name="Add_385"](%encoder.blocks.2.attn.qkv.bias, %onnx::Add_379) # /home/ashishpapanai/miniconda3/envs/parseq/lib/python3.7/site-packages/torch/nn/modules/linear.py:114:0
  %onnx::Transpose_395 : Float(1, 128, 3, 6, 64, strides=[147456, 1152, 384, 64, 1], requires_grad=0, device=cpu) = onnx::Reshape[allowzero=0, onnx_name="Reshape_386"](%onnx::Reshape_380, %onnx::Reshape_5038) # /home/ashishpapanai/miniconda3/envs/parseq/lib/python3.7/site-packages/timm/models/vision_transformer.py:217:0
  %onnx::Split_396 : Float(3, 1, 6, 128, 64, strides=[384, 147456, 64, 1152, 1], requires_grad=0, device=cpu) = onnx::Transpose[perm=[2, 0, 3, 1, 4], onnx_name="Transpose_387"](%onnx::Transpose_395) # /home/ashishpapanai/miniconda3/envs/parseq/lib/python3.7/site-packages/timm/models/vision_transformer.py:217:0
  %onnx::Split_397 : Long(3, strides=[1], device=cpu) = onnx::Constant[value= 1  1  1 [ CPULongType{3} ], onnx_name="Constant_388"]() # /home/ashishpapanai/miniconda3/envs/parseq/lib/python3.7/site-packages/timm/models/vision_transformer.py:218:0
  %onnx::Squeeze_398 : Float(1, 1, 6, 128, 64, strides=[49152, 49152, 8192, 64, 1], device=cpu), %onnx::Squeeze_399 : Float(1, 1, 6, 128, 64, strides=[49152, 49152, 8192, 64, 1], device=cpu), %onnx::Squeeze_400 : Float(1, 1, 6, 128, 64, strides=[49152, 49152, 8192, 64, 1], device=cpu) = onnx::Split[axis=0, onnx_name="Split_389"](%onnx::Split_396, %onnx::Split_397) # /home/ashishpapanai/miniconda3/envs/parseq/lib/python3.7/site-packages/timm/models/vision_transformer.py:218:0
  %onnx::Squeeze_401 : Long(1, strides=[1], device=cpu) = onnx::Constant[value={0}, onnx_name="Constant_390"]() # /home/ashishpapanai/miniconda3/envs/parseq/lib/python3.7/site-packages/timm/models/vision_transformer.py:218:0
  %onnx::MatMul_402 : Float(1, 6, 128, 64, strides=[147456, 64, 1152, 1], requires_grad=0, device=cpu) = onnx::Squeeze[onnx_name="Squeeze_391"](%onnx::Squeeze_398, %onnx::Squeeze_401) # /home/ashishpapanai/miniconda3/envs/parseq/lib/python3.7/site-packages/timm/models/vision_transformer.py:218:0
  %onnx::Squeeze_403 : Long(1, strides=[1], device=cpu) = onnx::Constant[value={0}, onnx_name="Constant_392"]() # /home/ashishpapanai/miniconda3/envs/parseq/lib/python3.7/site-packages/timm/models/vision_transformer.py:218:0
  %onnx::Transpose_404 : Float(1, 6, 128, 64, strides=[147456, 64, 1152, 1], requires_grad=0, device=cpu) = onnx::Squeeze[onnx_name="Squeeze_393"](%onnx::Squeeze_399, %onnx::Squeeze_403) # /home/ashishpapanai/miniconda3/envs/parseq/lib/python3.7/site-packages/timm/models/vision_transformer.py:218:0
  %onnx::Squeeze_405 : Long(1, strides=[1], device=cpu) = onnx::Constant[value={0}, onnx_name="Constant_394"]() # /home/ashishpapanai/miniconda3/envs/parseq/lib/python3.7/site-packages/timm/models/vision_transformer.py:218:0
  %onnx::MatMul_406 : Float(1, 6, 128, 64, strides=[147456, 64, 1152, 1], requires_grad=0, device=cpu) = onnx::Squeeze[onnx_name="Squeeze_395"](%onnx::Squeeze_400, %onnx::Squeeze_405) # /home/ashishpapanai/miniconda3/envs/parseq/lib/python3.7/site-packages/timm/models/vision_transformer.py:218:0
  %onnx::MatMul_407 : Float(1, 6, 64, 128, strides=[147456, 64, 1, 1152], requires_grad=0, device=cpu) = onnx::Transpose[perm=[0, 1, 3, 2], onnx_name="Transpose_396"](%onnx::Transpose_404) # /home/ashishpapanai/miniconda3/envs/parseq/lib/python3.7/site-packages/timm/models/vision_transformer.py:220:0
  %onnx::Mul_408 : Float(1, 6, 128, 128, strides=[98304, 16384, 128, 1], requires_grad=0, device=cpu) = onnx::MatMul[onnx_name="MatMul_397"](%onnx::MatMul_402, %onnx::MatMul_407) # /home/ashishpapanai/miniconda3/envs/parseq/lib/python3.7/site-packages/timm/models/vision_transformer.py:220:0
  %onnx::Mul_409 : Float(requires_grad=0, device=cpu) = onnx::Constant[value={0.125}, onnx_name="Constant_398"]()
  %onnx::Softmax_410 : Float(1, 6, 128, 128, strides=[98304, 16384, 128, 1], requires_grad=0, device=cpu) = onnx::Mul[onnx_name="Mul_399"](%onnx::Mul_408, %onnx::Mul_409) # /home/ashishpapanai/miniconda3/envs/parseq/lib/python3.7/site-packages/timm/models/vision_transformer.py:220:0
  %input.52 : Float(1, 6, 128, 128, strides=[98304, 16384, 128, 1], requires_grad=0, device=cpu) = onnx::Softmax[axis=-1, onnx_name="Softmax_400"](%onnx::Softmax_410) # /home/ashishpapanai/miniconda3/envs/parseq/lib/python3.7/site-packages/timm/models/vision_transformer.py:221:0
  %onnx::Transpose_412 : Float(1, 6, 128, 64, strides=[49152, 8192, 64, 1], requires_grad=0, device=cpu) = onnx::MatMul[onnx_name="MatMul_401"](%input.52, %onnx::MatMul_406) # /home/ashishpapanai/miniconda3/envs/parseq/lib/python3.7/site-packages/timm/models/vision_transformer.py:224:0
  %onnx::Reshape_413 : Float(1, 128, 6, 64, strides=[49152, 64, 8192, 1], requires_grad=0, device=cpu) = onnx::Transpose[perm=[0, 2, 1, 3], onnx_name="Transpose_402"](%onnx::Transpose_412) # /home/ashishpapanai/miniconda3/envs/parseq/lib/python3.7/site-packages/timm/models/vision_transformer.py:224:0
  %onnx::MatMul_421 : Float(1, 128, 384, strides=[49152, 384, 1], requires_grad=0, device=cpu) = onnx::Reshape[allowzero=0, onnx_name="Reshape_403"](%onnx::Reshape_413, %onnx::Reshape_5042) # /home/ashishpapanai/miniconda3/envs/parseq/lib/python3.7/site-packages/timm/models/vision_transformer.py:224:0
  %onnx::Add_423 : Float(1, 128, 384, strides=[49152, 384, 1], device=cpu) = onnx::MatMul[onnx_name="MatMul_404"](%onnx::MatMul_421, %onnx::MatMul_5043) # /home/ashishpapanai/miniconda3/envs/parseq/lib/python3.7/site-packages/torch/nn/modules/linear.py:114:0
  %input.56 : Float(1, 128, 384, strides=[49152, 384, 1], requires_grad=0, device=cpu) = onnx::Add[onnx_name="Add_405"](%encoder.blocks.2.attn.proj.bias, %onnx::Add_423) # /home/ashishpapanai/miniconda3/envs/parseq/lib/python3.7/site-packages/torch/nn/modules/linear.py:114:0
  %input.60 : Float(1, 128, 384, strides=[49152, 1, 128], requires_grad=0, device=cpu) = onnx::Add[onnx_name="Add_406"](%input.48, %input.56) # /home/ashishpapanai/miniconda3/envs/parseq/lib/python3.7/site-packages/timm/models/vision_transformer.py:268:0
  %onnx::Sub_426 : Float(1, 128, 1, strides=[128, 1, 1], device=cpu) = onnx::ReduceMean[axes=[-1], onnx_name="ReduceMean_407"](%input.60) # /home/ashishpapanai/miniconda3/envs/parseq/lib/python3.7/site-packages/torch/nn/functional.py:2503:0
  %onnx::Pow_427 : Float(1, 128, 384, strides=[49152, 384, 1], device=cpu) = onnx::Sub[onnx_name="Sub_408"](%input.60, %onnx::Sub_426) # /home/ashishpapanai/miniconda3/envs/parseq/lib/python3.7/site-packages/torch/nn/functional.py:2503:0
  %onnx::Pow_428 : Float(requires_grad=0, device=cpu) = onnx::Constant[value={2}, onnx_name="Constant_409"]() # /home/ashishpapanai/miniconda3/envs/parseq/lib/python3.7/site-packages/torch/nn/functional.py:2503:0
  %onnx::ReduceMean_429 : Float(1, 128, 384, strides=[49152, 384, 1], device=cpu) = onnx::Pow[onnx_name="Pow_410"](%onnx::Pow_427, %onnx::Pow_428) # /home/ashishpapanai/miniconda3/envs/parseq/lib/python3.7/site-packages/torch/nn/functional.py:2503:0
  %onnx::Add_430 : Float(1, 128, 1, strides=[128, 1, 1], device=cpu) = onnx::ReduceMean[axes=[-1], onnx_name="ReduceMean_411"](%onnx::ReduceMean_429) # /home/ashishpapanai/miniconda3/envs/parseq/lib/python3.7/site-packages/torch/nn/functional.py:2503:0
  %onnx::Add_431 : Float(requires_grad=0, device=cpu) = onnx::Constant[value={1e-06}, onnx_name="Constant_412"]() # /home/ashishpapanai/miniconda3/envs/parseq/lib/python3.7/site-packages/torch/nn/functional.py:2503:0
  %onnx::Sqrt_432 : Float(1, 128, 1, strides=[128, 1, 1], device=cpu) = onnx::Add[onnx_name="Add_413"](%onnx::Add_430, %onnx::Add_431) # /home/ashishpapanai/miniconda3/envs/parseq/lib/python3.7/site-packages/torch/nn/functional.py:2503:0
  %onnx::Div_433 : Float(1, 128, 1, strides=[128, 1, 1], device=cpu) = onnx::Sqrt[onnx_name="Sqrt_414"](%onnx::Sqrt_432) # /home/ashishpapanai/miniconda3/envs/parseq/lib/python3.7/site-packages/torch/nn/functional.py:2503:0
  %onnx::Mul_434 : Float(1, 128, 384, strides=[49152, 384, 1], device=cpu) = onnx::Div[onnx_name="Div_415"](%onnx::Pow_427, %onnx::Div_433) # /home/ashishpapanai/miniconda3/envs/parseq/lib/python3.7/site-packages/torch/nn/functional.py:2503:0
  %onnx::Add_435 : Float(1, 128, 384, strides=[49152, 384, 1], device=cpu) = onnx::Mul[onnx_name="Mul_416"](%onnx::Mul_434, %encoder.blocks.2.norm2.weight) # /home/ashishpapanai/miniconda3/envs/parseq/lib/python3.7/site-packages/torch/nn/functional.py:2503:0
  %onnx::MatMul_436 : Float(1, 128, 384, strides=[49152, 384, 1], requires_grad=0, device=cpu) = onnx::Add[onnx_name="Add_417"](%onnx::Add_435, %encoder.blocks.2.norm2.bias) # /home/ashishpapanai/miniconda3/envs/parseq/lib/python3.7/site-packages/torch/nn/functional.py:2503:0
  %onnx::Add_438 : Float(1, 128, 1536, strides=[196608, 1536, 1], device=cpu) = onnx::MatMul[onnx_name="MatMul_418"](%onnx::MatMul_436, %onnx::MatMul_5044) # /home/ashishpapanai/miniconda3/envs/parseq/lib/python3.7/site-packages/torch/nn/modules/linear.py:114:0
  %onnx::Div_439 : Float(1, 128, 1536, strides=[196608, 1536, 1], requires_grad=0, device=cpu) = onnx::Add[onnx_name="Add_419"](%encoder.blocks.2.mlp.fc1.bias, %onnx::Add_438) # /home/ashishpapanai/miniconda3/envs/parseq/lib/python3.7/site-packages/torch/nn/modules/linear.py:114:0
  %onnx::Div_440 : Float(requires_grad=0, device=cpu) = onnx::Constant[value={1.41421}, onnx_name="Constant_420"]() # /home/ashishpapanai/miniconda3/envs/parseq/lib/python3.7/site-packages/torch/nn/modules/activation.py:681:0
  %onnx::Erf_441 : Float(1, 128, 1536, strides=[196608, 1536, 1], device=cpu) = onnx::Div[onnx_name="Div_421"](%onnx::Div_439, %onnx::Div_440) # /home/ashishpapanai/miniconda3/envs/parseq/lib/python3.7/site-packages/torch/nn/modules/activation.py:681:0
  %onnx::Add_442 : Float(1, 128, 1536, strides=[196608, 1536, 1], device=cpu) = onnx::Erf[onnx_name="Erf_422"](%onnx::Erf_441) # /home/ashishpapanai/miniconda3/envs/parseq/lib/python3.7/site-packages/torch/nn/modules/activation.py:681:0
  %onnx::Add_443 : Float(requires_grad=0, device=cpu) = onnx::Constant[value={1}, onnx_name="Constant_423"]() # /home/ashishpapanai/miniconda3/envs/parseq/lib/python3.7/site-packages/torch/nn/modules/activation.py:681:0
  %onnx::Mul_444 : Float(1, 128, 1536, strides=[196608, 1536, 1], device=cpu) = onnx::Add[onnx_name="Add_424"](%onnx::Add_442, %onnx::Add_443) # /home/ashishpapanai/miniconda3/envs/parseq/lib/python3.7/site-packages/torch/nn/modules/activation.py:681:0
  %onnx::Mul_445 : Float(1, 128, 1536, strides=[196608, 1536, 1], device=cpu) = onnx::Mul[onnx_name="Mul_425"](%onnx::Div_439, %onnx::Mul_444) # /home/ashishpapanai/miniconda3/envs/parseq/lib/python3.7/site-packages/torch/nn/modules/activation.py:681:0
  %onnx::Mul_446 : Float(requires_grad=0, device=cpu) = onnx::Constant[value={0.5}, onnx_name="Constant_426"]() # /home/ashishpapanai/miniconda3/envs/parseq/lib/python3.7/site-packages/torch/nn/modules/activation.py:681:0
  %input.64 : Float(1, 128, 1536, strides=[196608, 1536, 1], requires_grad=0, device=cpu) = onnx::Mul[onnx_name="Mul_427"](%onnx::Mul_445, %onnx::Mul_446) # /home/ashishpapanai/miniconda3/envs/parseq/lib/python3.7/site-packages/torch/nn/modules/activation.py:681:0
  %onnx::Add_449 : Float(1, 128, 384, strides=[49152, 384, 1], device=cpu) = onnx::MatMul[onnx_name="MatMul_428"](%input.64, %onnx::MatMul_5045) # /home/ashishpapanai/miniconda3/envs/parseq/lib/python3.7/site-packages/torch/nn/modules/linear.py:114:0
  %input.68 : Float(1, 128, 384, strides=[49152, 384, 1], requires_grad=0, device=cpu) = onnx::Add[onnx_name="Add_429"](%encoder.blocks.2.mlp.fc2.bias, %onnx::Add_449) # /home/ashishpapanai/miniconda3/envs/parseq/lib/python3.7/site-packages/torch/nn/modules/linear.py:114:0
  %input.72 : Float(1, 128, 384, strides=[49152, 1, 128], requires_grad=0, device=cpu) = onnx::Add[onnx_name="Add_430"](%input.60, %input.68) # /home/ashishpapanai/miniconda3/envs/parseq/lib/python3.7/site-packages/timm/models/vision_transformer.py:269:0
  %onnx::Sub_452 : Float(1, 128, 1, strides=[128, 1, 1], device=cpu) = onnx::ReduceMean[axes=[-1], onnx_name="ReduceMean_431"](%input.72) # /home/ashishpapanai/miniconda3/envs/parseq/lib/python3.7/site-packages/torch/nn/functional.py:2503:0
  %onnx::Pow_453 : Float(1, 128, 384, strides=[49152, 384, 1], device=cpu) = onnx::Sub[onnx_name="Sub_432"](%input.72, %onnx::Sub_452) # /home/ashishpapanai/miniconda3/envs/parseq/lib/python3.7/site-packages/torch/nn/functional.py:2503:0
  %onnx::Pow_454 : Float(requires_grad=0, device=cpu) = onnx::Constant[value={2}, onnx_name="Constant_433"]() # /home/ashishpapanai/miniconda3/envs/parseq/lib/python3.7/site-packages/torch/nn/functional.py:2503:0
  %onnx::ReduceMean_455 : Float(1, 128, 384, strides=[49152, 384, 1], device=cpu) = onnx::Pow[onnx_name="Pow_434"](%onnx::Pow_453, %onnx::Pow_454) # /home/ashishpapanai/miniconda3/envs/parseq/lib/python3.7/site-packages/torch/nn/functional.py:2503:0
  %onnx::Add_456 : Float(1, 128, 1, strides=[128, 1, 1], device=cpu) = onnx::ReduceMean[axes=[-1], onnx_name="ReduceMean_435"](%onnx::ReduceMean_455) # /home/ashishpapanai/miniconda3/envs/parseq/lib/python3.7/site-packages/torch/nn/functional.py:2503:0
  %onnx::Add_457 : Float(requires_grad=0, device=cpu) = onnx::Constant[value={1e-06}, onnx_name="Constant_436"]() # /home/ashishpapanai/miniconda3/envs/parseq/lib/python3.7/site-packages/torch/nn/functional.py:2503:0
  %onnx::Sqrt_458 : Float(1, 128, 1, strides=[128, 1, 1], device=cpu) = onnx::Add[onnx_name="Add_437"](%onnx::Add_456, %onnx::Add_457) # /home/ashishpapanai/miniconda3/envs/parseq/lib/python3.7/site-packages/torch/nn/functional.py:2503:0
  %onnx::Div_459 : Float(1, 128, 1, strides=[128, 1, 1], device=cpu) = onnx::Sqrt[onnx_name="Sqrt_438"](%onnx::Sqrt_458) # /home/ashishpapanai/miniconda3/envs/parseq/lib/python3.7/site-packages/torch/nn/functional.py:2503:0
  %onnx::Mul_460 : Float(1, 128, 384, strides=[49152, 384, 1], device=cpu) = onnx::Div[onnx_name="Div_439"](%onnx::Pow_453, %onnx::Div_459) # /home/ashishpapanai/miniconda3/envs/parseq/lib/python3.7/site-packages/torch/nn/functional.py:2503:0
  %onnx::Add_461 : Float(1, 128, 384, strides=[49152, 384, 1], device=cpu) = onnx::Mul[onnx_name="Mul_440"](%onnx::Mul_460, %encoder.blocks.3.norm1.weight) # /home/ashishpapanai/miniconda3/envs/parseq/lib/python3.7/site-packages/torch/nn/functional.py:2503:0
  %onnx::MatMul_462 : Float(1, 128, 384, strides=[49152, 384, 1], requires_grad=0, device=cpu) = onnx::Add[onnx_name="Add_441"](%onnx::Add_461, %encoder.blocks.3.norm1.bias) # /home/ashishpapanai/miniconda3/envs/parseq/lib/python3.7/site-packages/torch/nn/functional.py:2503:0
  %onnx::Add_467 : Float(1, 128, 1152, strides=[147456, 1152, 1], device=cpu) = onnx::MatMul[onnx_name="MatMul_442"](%onnx::MatMul_462, %onnx::MatMul_5046) # /home/ashishpapanai/miniconda3/envs/parseq/lib/python3.7/site-packages/torch/nn/modules/linear.py:114:0
  %onnx::Reshape_468 : Float(1, 128, 1152, strides=[147456, 1152, 1], requires_grad=0, device=cpu) = onnx::Add[onnx_name="Add_443"](%encoder.blocks.3.attn.qkv.bias, %onnx::Add_467) # /home/ashishpapanai/miniconda3/envs/parseq/lib/python3.7/site-packages/torch/nn/modules/linear.py:114:0
  %onnx::Transpose_483 : Float(1, 128, 3, 6, 64, strides=[147456, 1152, 384, 64, 1], requires_grad=0, device=cpu) = onnx::Reshape[allowzero=0, onnx_name="Reshape_444"](%onnx::Reshape_468, %onnx::Reshape_5052) # /home/ashishpapanai/miniconda3/envs/parseq/lib/python3.7/site-packages/timm/models/vision_transformer.py:217:0
  %onnx::Split_484 : Float(3, 1, 6, 128, 64, strides=[384, 147456, 64, 1152, 1], requires_grad=0, device=cpu) = onnx::Transpose[perm=[2, 0, 3, 1, 4], onnx_name="Transpose_445"](%onnx::Transpose_483) # /home/ashishpapanai/miniconda3/envs/parseq/lib/python3.7/site-packages/timm/models/vision_transformer.py:217:0
  %onnx::Split_485 : Long(3, strides=[1], device=cpu) = onnx::Constant[value= 1  1  1 [ CPULongType{3} ], onnx_name="Constant_446"]() # /home/ashishpapanai/miniconda3/envs/parseq/lib/python3.7/site-packages/timm/models/vision_transformer.py:218:0
  %onnx::Squeeze_486 : Float(1, 1, 6, 128, 64, strides=[49152, 49152, 8192, 64, 1], device=cpu), %onnx::Squeeze_487 : Float(1, 1, 6, 128, 64, strides=[49152, 49152, 8192, 64, 1], device=cpu), %onnx::Squeeze_488 : Float(1, 1, 6, 128, 64, strides=[49152, 49152, 8192, 64, 1], device=cpu) = onnx::Split[axis=0, onnx_name="Split_447"](%onnx::Split_484, %onnx::Split_485) # /home/ashishpapanai/miniconda3/envs/parseq/lib/python3.7/site-packages/timm/models/vision_transformer.py:218:0
  %onnx::Squeeze_489 : Long(1, strides=[1], device=cpu) = onnx::Constant[value={0}, onnx_name="Constant_448"]() # /home/ashishpapanai/miniconda3/envs/parseq/lib/python3.7/site-packages/timm/models/vision_transformer.py:218:0
  %onnx::MatMul_490 : Float(1, 6, 128, 64, strides=[147456, 64, 1152, 1], requires_grad=0, device=cpu) = onnx::Squeeze[onnx_name="Squeeze_449"](%onnx::Squeeze_486, %onnx::Squeeze_489) # /home/ashishpapanai/miniconda3/envs/parseq/lib/python3.7/site-packages/timm/models/vision_transformer.py:218:0
  %onnx::Squeeze_491 : Long(1, strides=[1], device=cpu) = onnx::Constant[value={0}, onnx_name="Constant_450"]() # /home/ashishpapanai/miniconda3/envs/parseq/lib/python3.7/site-packages/timm/models/vision_transformer.py:218:0
  %onnx::Transpose_492 : Float(1, 6, 128, 64, strides=[147456, 64, 1152, 1], requires_grad=0, device=cpu) = onnx::Squeeze[onnx_name="Squeeze_451"](%onnx::Squeeze_487, %onnx::Squeeze_491) # /home/ashishpapanai/miniconda3/envs/parseq/lib/python3.7/site-packages/timm/models/vision_transformer.py:218:0
  %onnx::Squeeze_493 : Long(1, strides=[1], device=cpu) = onnx::Constant[value={0}, onnx_name="Constant_452"]() # /home/ashishpapanai/miniconda3/envs/parseq/lib/python3.7/site-packages/timm/models/vision_transformer.py:218:0
  %onnx::MatMul_494 : Float(1, 6, 128, 64, strides=[147456, 64, 1152, 1], requires_grad=0, device=cpu) = onnx::Squeeze[onnx_name="Squeeze_453"](%onnx::Squeeze_488, %onnx::Squeeze_493) # /home/ashishpapanai/miniconda3/envs/parseq/lib/python3.7/site-packages/timm/models/vision_transformer.py:218:0
  %onnx::MatMul_495 : Float(1, 6, 64, 128, strides=[147456, 64, 1, 1152], requires_grad=0, device=cpu) = onnx::Transpose[perm=[0, 1, 3, 2], onnx_name="Transpose_454"](%onnx::Transpose_492) # /home/ashishpapanai/miniconda3/envs/parseq/lib/python3.7/site-packages/timm/models/vision_transformer.py:220:0
  %onnx::Mul_496 : Float(1, 6, 128, 128, strides=[98304, 16384, 128, 1], requires_grad=0, device=cpu) = onnx::MatMul[onnx_name="MatMul_455"](%onnx::MatMul_490, %onnx::MatMul_495) # /home/ashishpapanai/miniconda3/envs/parseq/lib/python3.7/site-packages/timm/models/vision_transformer.py:220:0
  %onnx::Mul_497 : Float(requires_grad=0, device=cpu) = onnx::Constant[value={0.125}, onnx_name="Constant_456"]()
  %onnx::Softmax_498 : Float(1, 6, 128, 128, strides=[98304, 16384, 128, 1], requires_grad=0, device=cpu) = onnx::Mul[onnx_name="Mul_457"](%onnx::Mul_496, %onnx::Mul_497) # /home/ashishpapanai/miniconda3/envs/parseq/lib/python3.7/site-packages/timm/models/vision_transformer.py:220:0
  %input.76 : Float(1, 6, 128, 128, strides=[98304, 16384, 128, 1], requires_grad=0, device=cpu) = onnx::Softmax[axis=-1, onnx_name="Softmax_458"](%onnx::Softmax_498) # /home/ashishpapanai/miniconda3/envs/parseq/lib/python3.7/site-packages/timm/models/vision_transformer.py:221:0
  %onnx::Transpose_500 : Float(1, 6, 128, 64, strides=[49152, 8192, 64, 1], requires_grad=0, device=cpu) = onnx::MatMul[onnx_name="MatMul_459"](%input.76, %onnx::MatMul_494) # /home/ashishpapanai/miniconda3/envs/parseq/lib/python3.7/site-packages/timm/models/vision_transformer.py:224:0
  %onnx::Reshape_501 : Float(1, 128, 6, 64, strides=[49152, 64, 8192, 1], requires_grad=0, device=cpu) = onnx::Transpose[perm=[0, 2, 1, 3], onnx_name="Transpose_460"](%onnx::Transpose_500) # /home/ashishpapanai/miniconda3/envs/parseq/lib/python3.7/site-packages/timm/models/vision_transformer.py:224:0
  %onnx::MatMul_509 : Float(1, 128, 384, strides=[49152, 384, 1], requires_grad=0, device=cpu) = onnx::Reshape[allowzero=0, onnx_name="Reshape_461"](%onnx::Reshape_501, %onnx::Reshape_5056) # /home/ashishpapanai/miniconda3/envs/parseq/lib/python3.7/site-packages/timm/models/vision_transformer.py:224:0
  %onnx::Add_511 : Float(1, 128, 384, strides=[49152, 384, 1], device=cpu) = onnx::MatMul[onnx_name="MatMul_462"](%onnx::MatMul_509, %onnx::MatMul_5057) # /home/ashishpapanai/miniconda3/envs/parseq/lib/python3.7/site-packages/torch/nn/modules/linear.py:114:0
  %input.80 : Float(1, 128, 384, strides=[49152, 384, 1], requires_grad=0, device=cpu) = onnx::Add[onnx_name="Add_463"](%encoder.blocks.3.attn.proj.bias, %onnx::Add_511) # /home/ashishpapanai/miniconda3/envs/parseq/lib/python3.7/site-packages/torch/nn/modules/linear.py:114:0
  %input.84 : Float(1, 128, 384, strides=[49152, 1, 128], requires_grad=0, device=cpu) = onnx::Add[onnx_name="Add_464"](%input.72, %input.80) # /home/ashishpapanai/miniconda3/envs/parseq/lib/python3.7/site-packages/timm/models/vision_transformer.py:268:0
  %onnx::Sub_514 : Float(1, 128, 1, strides=[128, 1, 1], device=cpu) = onnx::ReduceMean[axes=[-1], onnx_name="ReduceMean_465"](%input.84) # /home/ashishpapanai/miniconda3/envs/parseq/lib/python3.7/site-packages/torch/nn/functional.py:2503:0
  %onnx::Pow_515 : Float(1, 128, 384, strides=[49152, 384, 1], device=cpu) = onnx::Sub[onnx_name="Sub_466"](%input.84, %onnx::Sub_514) # /home/ashishpapanai/miniconda3/envs/parseq/lib/python3.7/site-packages/torch/nn/functional.py:2503:0
  %onnx::Pow_516 : Float(requires_grad=0, device=cpu) = onnx::Constant[value={2}, onnx_name="Constant_467"]() # /home/ashishpapanai/miniconda3/envs/parseq/lib/python3.7/site-packages/torch/nn/functional.py:2503:0
  %onnx::ReduceMean_517 : Float(1, 128, 384, strides=[49152, 384, 1], device=cpu) = onnx::Pow[onnx_name="Pow_468"](%onnx::Pow_515, %onnx::Pow_516) # /home/ashishpapanai/miniconda3/envs/parseq/lib/python3.7/site-packages/torch/nn/functional.py:2503:0
  %onnx::Add_518 : Float(1, 128, 1, strides=[128, 1, 1], device=cpu) = onnx::ReduceMean[axes=[-1], onnx_name="ReduceMean_469"](%onnx::ReduceMean_517) # /home/ashishpapanai/miniconda3/envs/parseq/lib/python3.7/site-packages/torch/nn/functional.py:2503:0
  %onnx::Add_519 : Float(requires_grad=0, device=cpu) = onnx::Constant[value={1e-06}, onnx_name="Constant_470"]() # /home/ashishpapanai/miniconda3/envs/parseq/lib/python3.7/site-packages/torch/nn/functional.py:2503:0
  %onnx::Sqrt_520 : Float(1, 128, 1, strides=[128, 1, 1], device=cpu) = onnx::Add[onnx_name="Add_471"](%onnx::Add_518, %onnx::Add_519) # /home/ashishpapanai/miniconda3/envs/parseq/lib/python3.7/site-packages/torch/nn/functional.py:2503:0
  %onnx::Div_521 : Float(1, 128, 1, strides=[128, 1, 1], device=cpu) = onnx::Sqrt[onnx_name="Sqrt_472"](%onnx::Sqrt_520) # /home/ashishpapanai/miniconda3/envs/parseq/lib/python3.7/site-packages/torch/nn/functional.py:2503:0
  %onnx::Mul_522 : Float(1, 128, 384, strides=[49152, 384, 1], device=cpu) = onnx::Div[onnx_name="Div_473"](%onnx::Pow_515, %onnx::Div_521) # /home/ashishpapanai/miniconda3/envs/parseq/lib/python3.7/site-packages/torch/nn/functional.py:2503:0
  %onnx::Add_523 : Float(1, 128, 384, strides=[49152, 384, 1], device=cpu) = onnx::Mul[onnx_name="Mul_474"](%onnx::Mul_522, %encoder.blocks.3.norm2.weight) # /home/ashishpapanai/miniconda3/envs/parseq/lib/python3.7/site-packages/torch/nn/functional.py:2503:0
  %onnx::MatMul_524 : Float(1, 128, 384, strides=[49152, 384, 1], requires_grad=0, device=cpu) = onnx::Add[onnx_name="Add_475"](%onnx::Add_523, %encoder.blocks.3.norm2.bias) # /home/ashishpapanai/miniconda3/envs/parseq/lib/python3.7/site-packages/torch/nn/functional.py:2503:0
  %onnx::Add_526 : Float(1, 128, 1536, strides=[196608, 1536, 1], device=cpu) = onnx::MatMul[onnx_name="MatMul_476"](%onnx::MatMul_524, %onnx::MatMul_5058) # /home/ashishpapanai/miniconda3/envs/parseq/lib/python3.7/site-packages/torch/nn/modules/linear.py:114:0
  %onnx::Div_527 : Float(1, 128, 1536, strides=[196608, 1536, 1], requires_grad=0, device=cpu) = onnx::Add[onnx_name="Add_477"](%encoder.blocks.3.mlp.fc1.bias, %onnx::Add_526) # /home/ashishpapanai/miniconda3/envs/parseq/lib/python3.7/site-packages/torch/nn/modules/linear.py:114:0
  %onnx::Div_528 : Float(requires_grad=0, device=cpu) = onnx::Constant[value={1.41421}, onnx_name="Constant_478"]() # /home/ashishpapanai/miniconda3/envs/parseq/lib/python3.7/site-packages/torch/nn/modules/activation.py:681:0
  %onnx::Erf_529 : Float(1, 128, 1536, strides=[196608, 1536, 1], device=cpu) = onnx::Div[onnx_name="Div_479"](%onnx::Div_527, %onnx::Div_528) # /home/ashishpapanai/miniconda3/envs/parseq/lib/python3.7/site-packages/torch/nn/modules/activation.py:681:0
  %onnx::Add_530 : Float(1, 128, 1536, strides=[196608, 1536, 1], device=cpu) = onnx::Erf[onnx_name="Erf_480"](%onnx::Erf_529) # /home/ashishpapanai/miniconda3/envs/parseq/lib/python3.7/site-packages/torch/nn/modules/activation.py:681:0
  %onnx::Add_531 : Float(requires_grad=0, device=cpu) = onnx::Constant[value={1}, onnx_name="Constant_481"]() # /home/ashishpapanai/miniconda3/envs/parseq/lib/python3.7/site-packages/torch/nn/modules/activation.py:681:0
  %onnx::Mul_532 : Float(1, 128, 1536, strides=[196608, 1536, 1], device=cpu) = onnx::Add[onnx_name="Add_482"](%onnx::Add_530, %onnx::Add_531) # /home/ashishpapanai/miniconda3/envs/parseq/lib/python3.7/site-packages/torch/nn/modules/activation.py:681:0
  %onnx::Mul_533 : Float(1, 128, 1536, strides=[196608, 1536, 1], device=cpu) = onnx::Mul[onnx_name="Mul_483"](%onnx::Div_527, %onnx::Mul_532) # /home/ashishpapanai/miniconda3/envs/parseq/lib/python3.7/site-packages/torch/nn/modules/activation.py:681:0
  %onnx::Mul_534 : Float(requires_grad=0, device=cpu) = onnx::Constant[value={0.5}, onnx_name="Constant_484"]() # /home/ashishpapanai/miniconda3/envs/parseq/lib/python3.7/site-packages/torch/nn/modules/activation.py:681:0
  %input.88 : Float(1, 128, 1536, strides=[196608, 1536, 1], requires_grad=0, device=cpu) = onnx::Mul[onnx_name="Mul_485"](%onnx::Mul_533, %onnx::Mul_534) # /home/ashishpapanai/miniconda3/envs/parseq/lib/python3.7/site-packages/torch/nn/modules/activation.py:681:0
  %onnx::Add_537 : Float(1, 128, 384, strides=[49152, 384, 1], device=cpu) = onnx::MatMul[onnx_name="MatMul_486"](%input.88, %onnx::MatMul_5059) # /home/ashishpapanai/miniconda3/envs/parseq/lib/python3.7/site-packages/torch/nn/modules/linear.py:114:0
  %input.92 : Float(1, 128, 384, strides=[49152, 384, 1], requires_grad=0, device=cpu) = onnx::Add[onnx_name="Add_487"](%encoder.blocks.3.mlp.fc2.bias, %onnx::Add_537) # /home/ashishpapanai/miniconda3/envs/parseq/lib/python3.7/site-packages/torch/nn/modules/linear.py:114:0
  %input.96 : Float(1, 128, 384, strides=[49152, 1, 128], requires_grad=0, device=cpu) = onnx::Add[onnx_name="Add_488"](%input.84, %input.92) # /home/ashishpapanai/miniconda3/envs/parseq/lib/python3.7/site-packages/timm/models/vision_transformer.py:269:0
  %onnx::Sub_540 : Float(1, 128, 1, strides=[128, 1, 1], device=cpu) = onnx::ReduceMean[axes=[-1], onnx_name="ReduceMean_489"](%input.96) # /home/ashishpapanai/miniconda3/envs/parseq/lib/python3.7/site-packages/torch/nn/functional.py:2503:0
  %onnx::Pow_541 : Float(1, 128, 384, strides=[49152, 384, 1], device=cpu) = onnx::Sub[onnx_name="Sub_490"](%input.96, %onnx::Sub_540) # /home/ashishpapanai/miniconda3/envs/parseq/lib/python3.7/site-packages/torch/nn/functional.py:2503:0
  %onnx::Pow_542 : Float(requires_grad=0, device=cpu) = onnx::Constant[value={2}, onnx_name="Constant_491"]() # /home/ashishpapanai/miniconda3/envs/parseq/lib/python3.7/site-packages/torch/nn/functional.py:2503:0
  %onnx::ReduceMean_543 : Float(1, 128, 384, strides=[49152, 384, 1], device=cpu) = onnx::Pow[onnx_name="Pow_492"](%onnx::Pow_541, %onnx::Pow_542) # /home/ashishpapanai/miniconda3/envs/parseq/lib/python3.7/site-packages/torch/nn/functional.py:2503:0
  %onnx::Add_544 : Float(1, 128, 1, strides=[128, 1, 1], device=cpu) = onnx::ReduceMean[axes=[-1], onnx_name="ReduceMean_493"](%onnx::ReduceMean_543) # /home/ashishpapanai/miniconda3/envs/parseq/lib/python3.7/site-packages/torch/nn/functional.py:2503:0
  %onnx::Add_545 : Float(requires_grad=0, device=cpu) = onnx::Constant[value={1e-06}, onnx_name="Constant_494"]() # /home/ashishpapanai/miniconda3/envs/parseq/lib/python3.7/site-packages/torch/nn/functional.py:2503:0
  %onnx::Sqrt_546 : Float(1, 128, 1, strides=[128, 1, 1], device=cpu) = onnx::Add[onnx_name="Add_495"](%onnx::Add_544, %onnx::Add_545) # /home/ashishpapanai/miniconda3/envs/parseq/lib/python3.7/site-packages/torch/nn/functional.py:2503:0
  %onnx::Div_547 : Float(1, 128, 1, strides=[128, 1, 1], device=cpu) = onnx::Sqrt[onnx_name="Sqrt_496"](%onnx::Sqrt_546) # /home/ashishpapanai/miniconda3/envs/parseq/lib/python3.7/site-packages/torch/nn/functional.py:2503:0
  %onnx::Mul_548 : Float(1, 128, 384, strides=[49152, 384, 1], device=cpu) = onnx::Div[onnx_name="Div_497"](%onnx::Pow_541, %onnx::Div_547) # /home/ashishpapanai/miniconda3/envs/parseq/lib/python3.7/site-packages/torch/nn/functional.py:2503:0
  %onnx::Add_549 : Float(1, 128, 384, strides=[49152, 384, 1], device=cpu) = onnx::Mul[onnx_name="Mul_498"](%onnx::Mul_548, %encoder.blocks.4.norm1.weight) # /home/ashishpapanai/miniconda3/envs/parseq/lib/python3.7/site-packages/torch/nn/functional.py:2503:0
  %onnx::MatMul_550 : Float(1, 128, 384, strides=[49152, 384, 1], requires_grad=0, device=cpu) = onnx::Add[onnx_name="Add_499"](%onnx::Add_549, %encoder.blocks.4.norm1.bias) # /home/ashishpapanai/miniconda3/envs/parseq/lib/python3.7/site-packages/torch/nn/functional.py:2503:0
  %onnx::Add_555 : Float(1, 128, 1152, strides=[147456, 1152, 1], device=cpu) = onnx::MatMul[onnx_name="MatMul_500"](%onnx::MatMul_550, %onnx::MatMul_5060) # /home/ashishpapanai/miniconda3/envs/parseq/lib/python3.7/site-packages/torch/nn/modules/linear.py:114:0
  %onnx::Reshape_556 : Float(1, 128, 1152, strides=[147456, 1152, 1], requires_grad=0, device=cpu) = onnx::Add[onnx_name="Add_501"](%encoder.blocks.4.attn.qkv.bias, %onnx::Add_555) # /home/ashishpapanai/miniconda3/envs/parseq/lib/python3.7/site-packages/torch/nn/modules/linear.py:114:0
  %onnx::Transpose_571 : Float(1, 128, 3, 6, 64, strides=[147456, 1152, 384, 64, 1], requires_grad=0, device=cpu) = onnx::Reshape[allowzero=0, onnx_name="Reshape_502"](%onnx::Reshape_556, %onnx::Reshape_5066) # /home/ashishpapanai/miniconda3/envs/parseq/lib/python3.7/site-packages/timm/models/vision_transformer.py:217:0
  %onnx::Split_572 : Float(3, 1, 6, 128, 64, strides=[384, 147456, 64, 1152, 1], requires_grad=0, device=cpu) = onnx::Transpose[perm=[2, 0, 3, 1, 4], onnx_name="Transpose_503"](%onnx::Transpose_571) # /home/ashishpapanai/miniconda3/envs/parseq/lib/python3.7/site-packages/timm/models/vision_transformer.py:217:0
  %onnx::Split_573 : Long(3, strides=[1], device=cpu) = onnx::Constant[value= 1  1  1 [ CPULongType{3} ], onnx_name="Constant_504"]() # /home/ashishpapanai/miniconda3/envs/parseq/lib/python3.7/site-packages/timm/models/vision_transformer.py:218:0
  %onnx::Squeeze_574 : Float(1, 1, 6, 128, 64, strides=[49152, 49152, 8192, 64, 1], device=cpu), %onnx::Squeeze_575 : Float(1, 1, 6, 128, 64, strides=[49152, 49152, 8192, 64, 1], device=cpu), %onnx::Squeeze_576 : Float(1, 1, 6, 128, 64, strides=[49152, 49152, 8192, 64, 1], device=cpu) = onnx::Split[axis=0, onnx_name="Split_505"](%onnx::Split_572, %onnx::Split_573) # /home/ashishpapanai/miniconda3/envs/parseq/lib/python3.7/site-packages/timm/models/vision_transformer.py:218:0
  %onnx::Squeeze_577 : Long(1, strides=[1], device=cpu) = onnx::Constant[value={0}, onnx_name="Constant_506"]() # /home/ashishpapanai/miniconda3/envs/parseq/lib/python3.7/site-packages/timm/models/vision_transformer.py:218:0
  %onnx::MatMul_578 : Float(1, 6, 128, 64, strides=[147456, 64, 1152, 1], requires_grad=0, device=cpu) = onnx::Squeeze[onnx_name="Squeeze_507"](%onnx::Squeeze_574, %onnx::Squeeze_577) # /home/ashishpapanai/miniconda3/envs/parseq/lib/python3.7/site-packages/timm/models/vision_transformer.py:218:0
  %onnx::Squeeze_579 : Long(1, strides=[1], device=cpu) = onnx::Constant[value={0}, onnx_name="Constant_508"]() # /home/ashishpapanai/miniconda3/envs/parseq/lib/python3.7/site-packages/timm/models/vision_transformer.py:218:0
  %onnx::Transpose_580 : Float(1, 6, 128, 64, strides=[147456, 64, 1152, 1], requires_grad=0, device=cpu) = onnx::Squeeze[onnx_name="Squeeze_509"](%onnx::Squeeze_575, %onnx::Squeeze_579) # /home/ashishpapanai/miniconda3/envs/parseq/lib/python3.7/site-packages/timm/models/vision_transformer.py:218:0
  %onnx::Squeeze_581 : Long(1, strides=[1], device=cpu) = onnx::Constant[value={0}, onnx_name="Constant_510"]() # /home/ashishpapanai/miniconda3/envs/parseq/lib/python3.7/site-packages/timm/models/vision_transformer.py:218:0
  %onnx::MatMul_582 : Float(1, 6, 128, 64, strides=[147456, 64, 1152, 1], requires_grad=0, device=cpu) = onnx::Squeeze[onnx_name="Squeeze_511"](%onnx::Squeeze_576, %onnx::Squeeze_581) # /home/ashishpapanai/miniconda3/envs/parseq/lib/python3.7/site-packages/timm/models/vision_transformer.py:218:0
  %onnx::MatMul_583 : Float(1, 6, 64, 128, strides=[147456, 64, 1, 1152], requires_grad=0, device=cpu) = onnx::Transpose[perm=[0, 1, 3, 2], onnx_name="Transpose_512"](%onnx::Transpose_580) # /home/ashishpapanai/miniconda3/envs/parseq/lib/python3.7/site-packages/timm/models/vision_transformer.py:220:0
  %onnx::Mul_584 : Float(1, 6, 128, 128, strides=[98304, 16384, 128, 1], requires_grad=0, device=cpu) = onnx::MatMul[onnx_name="MatMul_513"](%onnx::MatMul_578, %onnx::MatMul_583) # /home/ashishpapanai/miniconda3/envs/parseq/lib/python3.7/site-packages/timm/models/vision_transformer.py:220:0
  %onnx::Mul_585 : Float(requires_grad=0, device=cpu) = onnx::Constant[value={0.125}, onnx_name="Constant_514"]()
  %onnx::Softmax_586 : Float(1, 6, 128, 128, strides=[98304, 16384, 128, 1], requires_grad=0, device=cpu) = onnx::Mul[onnx_name="Mul_515"](%onnx::Mul_584, %onnx::Mul_585) # /home/ashishpapanai/miniconda3/envs/parseq/lib/python3.7/site-packages/timm/models/vision_transformer.py:220:0
  %input.100 : Float(1, 6, 128, 128, strides=[98304, 16384, 128, 1], requires_grad=0, device=cpu) = onnx::Softmax[axis=-1, onnx_name="Softmax_516"](%onnx::Softmax_586) # /home/ashishpapanai/miniconda3/envs/parseq/lib/python3.7/site-packages/timm/models/vision_transformer.py:221:0
  %onnx::Transpose_588 : Float(1, 6, 128, 64, strides=[49152, 8192, 64, 1], requires_grad=0, device=cpu) = onnx::MatMul[onnx_name="MatMul_517"](%input.100, %onnx::MatMul_582) # /home/ashishpapanai/miniconda3/envs/parseq/lib/python3.7/site-packages/timm/models/vision_transformer.py:224:0
  %onnx::Reshape_589 : Float(1, 128, 6, 64, strides=[49152, 64, 8192, 1], requires_grad=0, device=cpu) = onnx::Transpose[perm=[0, 2, 1, 3], onnx_name="Transpose_518"](%onnx::Transpose_588) # /home/ashishpapanai/miniconda3/envs/parseq/lib/python3.7/site-packages/timm/models/vision_transformer.py:224:0
  %onnx::MatMul_597 : Float(1, 128, 384, strides=[49152, 384, 1], requires_grad=0, device=cpu) = onnx::Reshape[allowzero=0, onnx_name="Reshape_519"](%onnx::Reshape_589, %onnx::Reshape_5070) # /home/ashishpapanai/miniconda3/envs/parseq/lib/python3.7/site-packages/timm/models/vision_transformer.py:224:0
  %onnx::Add_599 : Float(1, 128, 384, strides=[49152, 384, 1], device=cpu) = onnx::MatMul[onnx_name="MatMul_520"](%onnx::MatMul_597, %onnx::MatMul_5071) # /home/ashishpapanai/miniconda3/envs/parseq/lib/python3.7/site-packages/torch/nn/modules/linear.py:114:0
  %input.104 : Float(1, 128, 384, strides=[49152, 384, 1], requires_grad=0, device=cpu) = onnx::Add[onnx_name="Add_521"](%encoder.blocks.4.attn.proj.bias, %onnx::Add_599) # /home/ashishpapanai/miniconda3/envs/parseq/lib/python3.7/site-packages/torch/nn/modules/linear.py:114:0
  %input.108 : Float(1, 128, 384, strides=[49152, 1, 128], requires_grad=0, device=cpu) = onnx::Add[onnx_name="Add_522"](%input.96, %input.104) # /home/ashishpapanai/miniconda3/envs/parseq/lib/python3.7/site-packages/timm/models/vision_transformer.py:268:0
  %onnx::Sub_602 : Float(1, 128, 1, strides=[128, 1, 1], device=cpu) = onnx::ReduceMean[axes=[-1], onnx_name="ReduceMean_523"](%input.108) # /home/ashishpapanai/miniconda3/envs/parseq/lib/python3.7/site-packages/torch/nn/functional.py:2503:0
  %onnx::Pow_603 : Float(1, 128, 384, strides=[49152, 384, 1], device=cpu) = onnx::Sub[onnx_name="Sub_524"](%input.108, %onnx::Sub_602) # /home/ashishpapanai/miniconda3/envs/parseq/lib/python3.7/site-packages/torch/nn/functional.py:2503:0
  %onnx::Pow_604 : Float(requires_grad=0, device=cpu) = onnx::Constant[value={2}, onnx_name="Constant_525"]() # /home/ashishpapanai/miniconda3/envs/parseq/lib/python3.7/site-packages/torch/nn/functional.py:2503:0
  %onnx::ReduceMean_605 : Float(1, 128, 384, strides=[49152, 384, 1], device=cpu) = onnx::Pow[onnx_name="Pow_526"](%onnx::Pow_603, %onnx::Pow_604) # /home/ashishpapanai/miniconda3/envs/parseq/lib/python3.7/site-packages/torch/nn/functional.py:2503:0
  %onnx::Add_606 : Float(1, 128, 1, strides=[128, 1, 1], device=cpu) = onnx::ReduceMean[axes=[-1], onnx_name="ReduceMean_527"](%onnx::ReduceMean_605) # /home/ashishpapanai/miniconda3/envs/parseq/lib/python3.7/site-packages/torch/nn/functional.py:2503:0
  %onnx::Add_607 : Float(requires_grad=0, device=cpu) = onnx::Constant[value={1e-06}, onnx_name="Constant_528"]() # /home/ashishpapanai/miniconda3/envs/parseq/lib/python3.7/site-packages/torch/nn/functional.py:2503:0
  %onnx::Sqrt_608 : Float(1, 128, 1, strides=[128, 1, 1], device=cpu) = onnx::Add[onnx_name="Add_529"](%onnx::Add_606, %onnx::Add_607) # /home/ashishpapanai/miniconda3/envs/parseq/lib/python3.7/site-packages/torch/nn/functional.py:2503:0
  %onnx::Div_609 : Float(1, 128, 1, strides=[128, 1, 1], device=cpu) = onnx::Sqrt[onnx_name="Sqrt_530"](%onnx::Sqrt_608) # /home/ashishpapanai/miniconda3/envs/parseq/lib/python3.7/site-packages/torch/nn/functional.py:2503:0
  %onnx::Mul_610 : Float(1, 128, 384, strides=[49152, 384, 1], device=cpu) = onnx::Div[onnx_name="Div_531"](%onnx::Pow_603, %onnx::Div_609) # /home/ashishpapanai/miniconda3/envs/parseq/lib/python3.7/site-packages/torch/nn/functional.py:2503:0
  %onnx::Add_611 : Float(1, 128, 384, strides=[49152, 384, 1], device=cpu) = onnx::Mul[onnx_name="Mul_532"](%onnx::Mul_610, %encoder.blocks.4.norm2.weight) # /home/ashishpapanai/miniconda3/envs/parseq/lib/python3.7/site-packages/torch/nn/functional.py:2503:0
  %onnx::MatMul_612 : Float(1, 128, 384, strides=[49152, 384, 1], requires_grad=0, device=cpu) = onnx::Add[onnx_name="Add_533"](%onnx::Add_611, %encoder.blocks.4.norm2.bias) # /home/ashishpapanai/miniconda3/envs/parseq/lib/python3.7/site-packages/torch/nn/functional.py:2503:0
  %onnx::Add_614 : Float(1, 128, 1536, strides=[196608, 1536, 1], device=cpu) = onnx::MatMul[onnx_name="MatMul_534"](%onnx::MatMul_612, %onnx::MatMul_5072) # /home/ashishpapanai/miniconda3/envs/parseq/lib/python3.7/site-packages/torch/nn/modules/linear.py:114:0
  %onnx::Div_615 : Float(1, 128, 1536, strides=[196608, 1536, 1], requires_grad=0, device=cpu) = onnx::Add[onnx_name="Add_535"](%encoder.blocks.4.mlp.fc1.bias, %onnx::Add_614) # /home/ashishpapanai/miniconda3/envs/parseq/lib/python3.7/site-packages/torch/nn/modules/linear.py:114:0
  %onnx::Div_616 : Float(requires_grad=0, device=cpu) = onnx::Constant[value={1.41421}, onnx_name="Constant_536"]() # /home/ashishpapanai/miniconda3/envs/parseq/lib/python3.7/site-packages/torch/nn/modules/activation.py:681:0
  %onnx::Erf_617 : Float(1, 128, 1536, strides=[196608, 1536, 1], device=cpu) = onnx::Div[onnx_name="Div_537"](%onnx::Div_615, %onnx::Div_616) # /home/ashishpapanai/miniconda3/envs/parseq/lib/python3.7/site-packages/torch/nn/modules/activation.py:681:0
  %onnx::Add_618 : Float(1, 128, 1536, strides=[196608, 1536, 1], device=cpu) = onnx::Erf[onnx_name="Erf_538"](%onnx::Erf_617) # /home/ashishpapanai/miniconda3/envs/parseq/lib/python3.7/site-packages/torch/nn/modules/activation.py:681:0
  %onnx::Add_619 : Float(requires_grad=0, device=cpu) = onnx::Constant[value={1}, onnx_name="Constant_539"]() # /home/ashishpapanai/miniconda3/envs/parseq/lib/python3.7/site-packages/torch/nn/modules/activation.py:681:0
  %onnx::Mul_620 : Float(1, 128, 1536, strides=[196608, 1536, 1], device=cpu) = onnx::Add[onnx_name="Add_540"](%onnx::Add_618, %onnx::Add_619) # /home/ashishpapanai/miniconda3/envs/parseq/lib/python3.7/site-packages/torch/nn/modules/activation.py:681:0
  %onnx::Mul_621 : Float(1, 128, 1536, strides=[196608, 1536, 1], device=cpu) = onnx::Mul[onnx_name="Mul_541"](%onnx::Div_615, %onnx::Mul_620) # /home/ashishpapanai/miniconda3/envs/parseq/lib/python3.7/site-packages/torch/nn/modules/activation.py:681:0
  %onnx::Mul_622 : Float(requires_grad=0, device=cpu) = onnx::Constant[value={0.5}, onnx_name="Constant_542"]() # /home/ashishpapanai/miniconda3/envs/parseq/lib/python3.7/site-packages/torch/nn/modules/activation.py:681:0
  %input.112 : Float(1, 128, 1536, strides=[196608, 1536, 1], requires_grad=0, device=cpu) = onnx::Mul[onnx_name="Mul_543"](%onnx::Mul_621, %onnx::Mul_622) # /home/ashishpapanai/miniconda3/envs/parseq/lib/python3.7/site-packages/torch/nn/modules/activation.py:681:0
  %onnx::Add_625 : Float(1, 128, 384, strides=[49152, 384, 1], device=cpu) = onnx::MatMul[onnx_name="MatMul_544"](%input.112, %onnx::MatMul_5073) # /home/ashishpapanai/miniconda3/envs/parseq/lib/python3.7/site-packages/torch/nn/modules/linear.py:114:0
  %input.116 : Float(1, 128, 384, strides=[49152, 384, 1], requires_grad=0, device=cpu) = onnx::Add[onnx_name="Add_545"](%encoder.blocks.4.mlp.fc2.bias, %onnx::Add_625) # /home/ashishpapanai/miniconda3/envs/parseq/lib/python3.7/site-packages/torch/nn/modules/linear.py:114:0
  %input.120 : Float(1, 128, 384, strides=[49152, 1, 128], requires_grad=0, device=cpu) = onnx::Add[onnx_name="Add_546"](%input.108, %input.116) # /home/ashishpapanai/miniconda3/envs/parseq/lib/python3.7/site-packages/timm/models/vision_transformer.py:269:0
  %onnx::Sub_628 : Float(1, 128, 1, strides=[128, 1, 1], device=cpu) = onnx::ReduceMean[axes=[-1], onnx_name="ReduceMean_547"](%input.120) # /home/ashishpapanai/miniconda3/envs/parseq/lib/python3.7/site-packages/torch/nn/functional.py:2503:0
  %onnx::Pow_629 : Float(1, 128, 384, strides=[49152, 384, 1], device=cpu) = onnx::Sub[onnx_name="Sub_548"](%input.120, %onnx::Sub_628) # /home/ashishpapanai/miniconda3/envs/parseq/lib/python3.7/site-packages/torch/nn/functional.py:2503:0
  %onnx::Pow_630 : Float(requires_grad=0, device=cpu) = onnx::Constant[value={2}, onnx_name="Constant_549"]() # /home/ashishpapanai/miniconda3/envs/parseq/lib/python3.7/site-packages/torch/nn/functional.py:2503:0
  %onnx::ReduceMean_631 : Float(1, 128, 384, strides=[49152, 384, 1], device=cpu) = onnx::Pow[onnx_name="Pow_550"](%onnx::Pow_629, %onnx::Pow_630) # /home/ashishpapanai/miniconda3/envs/parseq/lib/python3.7/site-packages/torch/nn/functional.py:2503:0
  %onnx::Add_632 : Float(1, 128, 1, strides=[128, 1, 1], device=cpu) = onnx::ReduceMean[axes=[-1], onnx_name="ReduceMean_551"](%onnx::ReduceMean_631) # /home/ashishpapanai/miniconda3/envs/parseq/lib/python3.7/site-packages/torch/nn/functional.py:2503:0
  %onnx::Add_633 : Float(requires_grad=0, device=cpu) = onnx::Constant[value={1e-06}, onnx_name="Constant_552"]() # /home/ashishpapanai/miniconda3/envs/parseq/lib/python3.7/site-packages/torch/nn/functional.py:2503:0
  %onnx::Sqrt_634 : Float(1, 128, 1, strides=[128, 1, 1], device=cpu) = onnx::Add[onnx_name="Add_553"](%onnx::Add_632, %onnx::Add_633) # /home/ashishpapanai/miniconda3/envs/parseq/lib/python3.7/site-packages/torch/nn/functional.py:2503:0
  %onnx::Div_635 : Float(1, 128, 1, strides=[128, 1, 1], device=cpu) = onnx::Sqrt[onnx_name="Sqrt_554"](%onnx::Sqrt_634) # /home/ashishpapanai/miniconda3/envs/parseq/lib/python3.7/site-packages/torch/nn/functional.py:2503:0
  %onnx::Mul_636 : Float(1, 128, 384, strides=[49152, 384, 1], device=cpu) = onnx::Div[onnx_name="Div_555"](%onnx::Pow_629, %onnx::Div_635) # /home/ashishpapanai/miniconda3/envs/parseq/lib/python3.7/site-packages/torch/nn/functional.py:2503:0
  %onnx::Add_637 : Float(1, 128, 384, strides=[49152, 384, 1], device=cpu) = onnx::Mul[onnx_name="Mul_556"](%onnx::Mul_636, %encoder.blocks.5.norm1.weight) # /home/ashishpapanai/miniconda3/envs/parseq/lib/python3.7/site-packages/torch/nn/functional.py:2503:0
  %onnx::MatMul_638 : Float(1, 128, 384, strides=[49152, 384, 1], requires_grad=0, device=cpu) = onnx::Add[onnx_name="Add_557"](%onnx::Add_637, %encoder.blocks.5.norm1.bias) # /home/ashishpapanai/miniconda3/envs/parseq/lib/python3.7/site-packages/torch/nn/functional.py:2503:0
  %onnx::Add_643 : Float(1, 128, 1152, strides=[147456, 1152, 1], device=cpu) = onnx::MatMul[onnx_name="MatMul_558"](%onnx::MatMul_638, %onnx::MatMul_5074) # /home/ashishpapanai/miniconda3/envs/parseq/lib/python3.7/site-packages/torch/nn/modules/linear.py:114:0
  %onnx::Reshape_644 : Float(1, 128, 1152, strides=[147456, 1152, 1], requires_grad=0, device=cpu) = onnx::Add[onnx_name="Add_559"](%encoder.blocks.5.attn.qkv.bias, %onnx::Add_643) # /home/ashishpapanai/miniconda3/envs/parseq/lib/python3.7/site-packages/torch/nn/modules/linear.py:114:0
  %onnx::Transpose_659 : Float(1, 128, 3, 6, 64, strides=[147456, 1152, 384, 64, 1], requires_grad=0, device=cpu) = onnx::Reshape[allowzero=0, onnx_name="Reshape_560"](%onnx::Reshape_644, %onnx::Reshape_5080) # /home/ashishpapanai/miniconda3/envs/parseq/lib/python3.7/site-packages/timm/models/vision_transformer.py:217:0
  %onnx::Split_660 : Float(3, 1, 6, 128, 64, strides=[384, 147456, 64, 1152, 1], requires_grad=0, device=cpu) = onnx::Transpose[perm=[2, 0, 3, 1, 4], onnx_name="Transpose_561"](%onnx::Transpose_659) # /home/ashishpapanai/miniconda3/envs/parseq/lib/python3.7/site-packages/timm/models/vision_transformer.py:217:0
  %onnx::Split_661 : Long(3, strides=[1], device=cpu) = onnx::Constant[value= 1  1  1 [ CPULongType{3} ], onnx_name="Constant_562"]() # /home/ashishpapanai/miniconda3/envs/parseq/lib/python3.7/site-packages/timm/models/vision_transformer.py:218:0
  %onnx::Squeeze_662 : Float(1, 1, 6, 128, 64, strides=[49152, 49152, 8192, 64, 1], device=cpu), %onnx::Squeeze_663 : Float(1, 1, 6, 128, 64, strides=[49152, 49152, 8192, 64, 1], device=cpu), %onnx::Squeeze_664 : Float(1, 1, 6, 128, 64, strides=[49152, 49152, 8192, 64, 1], device=cpu) = onnx::Split[axis=0, onnx_name="Split_563"](%onnx::Split_660, %onnx::Split_661) # /home/ashishpapanai/miniconda3/envs/parseq/lib/python3.7/site-packages/timm/models/vision_transformer.py:218:0
  %onnx::Squeeze_665 : Long(1, strides=[1], device=cpu) = onnx::Constant[value={0}, onnx_name="Constant_564"]() # /home/ashishpapanai/miniconda3/envs/parseq/lib/python3.7/site-packages/timm/models/vision_transformer.py:218:0
  %onnx::MatMul_666 : Float(1, 6, 128, 64, strides=[147456, 64, 1152, 1], requires_grad=0, device=cpu) = onnx::Squeeze[onnx_name="Squeeze_565"](%onnx::Squeeze_662, %onnx::Squeeze_665) # /home/ashishpapanai/miniconda3/envs/parseq/lib/python3.7/site-packages/timm/models/vision_transformer.py:218:0
  %onnx::Squeeze_667 : Long(1, strides=[1], device=cpu) = onnx::Constant[value={0}, onnx_name="Constant_566"]() # /home/ashishpapanai/miniconda3/envs/parseq/lib/python3.7/site-packages/timm/models/vision_transformer.py:218:0
  %onnx::Transpose_668 : Float(1, 6, 128, 64, strides=[147456, 64, 1152, 1], requires_grad=0, device=cpu) = onnx::Squeeze[onnx_name="Squeeze_567"](%onnx::Squeeze_663, %onnx::Squeeze_667) # /home/ashishpapanai/miniconda3/envs/parseq/lib/python3.7/site-packages/timm/models/vision_transformer.py:218:0
  %onnx::Squeeze_669 : Long(1, strides=[1], device=cpu) = onnx::Constant[value={0}, onnx_name="Constant_568"]() # /home/ashishpapanai/miniconda3/envs/parseq/lib/python3.7/site-packages/timm/models/vision_transformer.py:218:0
  %onnx::MatMul_670 : Float(1, 6, 128, 64, strides=[147456, 64, 1152, 1], requires_grad=0, device=cpu) = onnx::Squeeze[onnx_name="Squeeze_569"](%onnx::Squeeze_664, %onnx::Squeeze_669) # /home/ashishpapanai/miniconda3/envs/parseq/lib/python3.7/site-packages/timm/models/vision_transformer.py:218:0
  %onnx::MatMul_671 : Float(1, 6, 64, 128, strides=[147456, 64, 1, 1152], requires_grad=0, device=cpu) = onnx::Transpose[perm=[0, 1, 3, 2], onnx_name="Transpose_570"](%onnx::Transpose_668) # /home/ashishpapanai/miniconda3/envs/parseq/lib/python3.7/site-packages/timm/models/vision_transformer.py:220:0
  %onnx::Mul_672 : Float(1, 6, 128, 128, strides=[98304, 16384, 128, 1], requires_grad=0, device=cpu) = onnx::MatMul[onnx_name="MatMul_571"](%onnx::MatMul_666, %onnx::MatMul_671) # /home/ashishpapanai/miniconda3/envs/parseq/lib/python3.7/site-packages/timm/models/vision_transformer.py:220:0
  %onnx::Mul_673 : Float(requires_grad=0, device=cpu) = onnx::Constant[value={0.125}, onnx_name="Constant_572"]()
  %onnx::Softmax_674 : Float(1, 6, 128, 128, strides=[98304, 16384, 128, 1], requires_grad=0, device=cpu) = onnx::Mul[onnx_name="Mul_573"](%onnx::Mul_672, %onnx::Mul_673) # /home/ashishpapanai/miniconda3/envs/parseq/lib/python3.7/site-packages/timm/models/vision_transformer.py:220:0
  %input.124 : Float(1, 6, 128, 128, strides=[98304, 16384, 128, 1], requires_grad=0, device=cpu) = onnx::Softmax[axis=-1, onnx_name="Softmax_574"](%onnx::Softmax_674) # /home/ashishpapanai/miniconda3/envs/parseq/lib/python3.7/site-packages/timm/models/vision_transformer.py:221:0
  %onnx::Transpose_676 : Float(1, 6, 128, 64, strides=[49152, 8192, 64, 1], requires_grad=0, device=cpu) = onnx::MatMul[onnx_name="MatMul_575"](%input.124, %onnx::MatMul_670) # /home/ashishpapanai/miniconda3/envs/parseq/lib/python3.7/site-packages/timm/models/vision_transformer.py:224:0
  %onnx::Reshape_677 : Float(1, 128, 6, 64, strides=[49152, 64, 8192, 1], requires_grad=0, device=cpu) = onnx::Transpose[perm=[0, 2, 1, 3], onnx_name="Transpose_576"](%onnx::Transpose_676) # /home/ashishpapanai/miniconda3/envs/parseq/lib/python3.7/site-packages/timm/models/vision_transformer.py:224:0
  %onnx::MatMul_685 : Float(1, 128, 384, strides=[49152, 384, 1], requires_grad=0, device=cpu) = onnx::Reshape[allowzero=0, onnx_name="Reshape_577"](%onnx::Reshape_677, %onnx::Reshape_5084) # /home/ashishpapanai/miniconda3/envs/parseq/lib/python3.7/site-packages/timm/models/vision_transformer.py:224:0
  %onnx::Add_687 : Float(1, 128, 384, strides=[49152, 384, 1], device=cpu) = onnx::MatMul[onnx_name="MatMul_578"](%onnx::MatMul_685, %onnx::MatMul_5085) # /home/ashishpapanai/miniconda3/envs/parseq/lib/python3.7/site-packages/torch/nn/modules/linear.py:114:0
  %input.128 : Float(1, 128, 384, strides=[49152, 384, 1], requires_grad=0, device=cpu) = onnx::Add[onnx_name="Add_579"](%encoder.blocks.5.attn.proj.bias, %onnx::Add_687) # /home/ashishpapanai/miniconda3/envs/parseq/lib/python3.7/site-packages/torch/nn/modules/linear.py:114:0
  %input.132 : Float(1, 128, 384, strides=[49152, 1, 128], requires_grad=0, device=cpu) = onnx::Add[onnx_name="Add_580"](%input.120, %input.128) # /home/ashishpapanai/miniconda3/envs/parseq/lib/python3.7/site-packages/timm/models/vision_transformer.py:268:0
  %onnx::Sub_690 : Float(1, 128, 1, strides=[128, 1, 1], device=cpu) = onnx::ReduceMean[axes=[-1], onnx_name="ReduceMean_581"](%input.132) # /home/ashishpapanai/miniconda3/envs/parseq/lib/python3.7/site-packages/torch/nn/functional.py:2503:0
  %onnx::Pow_691 : Float(1, 128, 384, strides=[49152, 384, 1], device=cpu) = onnx::Sub[onnx_name="Sub_582"](%input.132, %onnx::Sub_690) # /home/ashishpapanai/miniconda3/envs/parseq/lib/python3.7/site-packages/torch/nn/functional.py:2503:0
  %onnx::Pow_692 : Float(requires_grad=0, device=cpu) = onnx::Constant[value={2}, onnx_name="Constant_583"]() # /home/ashishpapanai/miniconda3/envs/parseq/lib/python3.7/site-packages/torch/nn/functional.py:2503:0
  %onnx::ReduceMean_693 : Float(1, 128, 384, strides=[49152, 384, 1], device=cpu) = onnx::Pow[onnx_name="Pow_584"](%onnx::Pow_691, %onnx::Pow_692) # /home/ashishpapanai/miniconda3/envs/parseq/lib/python3.7/site-packages/torch/nn/functional.py:2503:0
  %onnx::Add_694 : Float(1, 128, 1, strides=[128, 1, 1], device=cpu) = onnx::ReduceMean[axes=[-1], onnx_name="ReduceMean_585"](%onnx::ReduceMean_693) # /home/ashishpapanai/miniconda3/envs/parseq/lib/python3.7/site-packages/torch/nn/functional.py:2503:0
  %onnx::Add_695 : Float(requires_grad=0, device=cpu) = onnx::Constant[value={1e-06}, onnx_name="Constant_586"]() # /home/ashishpapanai/miniconda3/envs/parseq/lib/python3.7/site-packages/torch/nn/functional.py:2503:0
  %onnx::Sqrt_696 : Float(1, 128, 1, strides=[128, 1, 1], device=cpu) = onnx::Add[onnx_name="Add_587"](%onnx::Add_694, %onnx::Add_695) # /home/ashishpapanai/miniconda3/envs/parseq/lib/python3.7/site-packages/torch/nn/functional.py:2503:0
  %onnx::Div_697 : Float(1, 128, 1, strides=[128, 1, 1], device=cpu) = onnx::Sqrt[onnx_name="Sqrt_588"](%onnx::Sqrt_696) # /home/ashishpapanai/miniconda3/envs/parseq/lib/python3.7/site-packages/torch/nn/functional.py:2503:0
  %onnx::Mul_698 : Float(1, 128, 384, strides=[49152, 384, 1], device=cpu) = onnx::Div[onnx_name="Div_589"](%onnx::Pow_691, %onnx::Div_697) # /home/ashishpapanai/miniconda3/envs/parseq/lib/python3.7/site-packages/torch/nn/functional.py:2503:0
  %onnx::Add_699 : Float(1, 128, 384, strides=[49152, 384, 1], device=cpu) = onnx::Mul[onnx_name="Mul_590"](%onnx::Mul_698, %encoder.blocks.5.norm2.weight) # /home/ashishpapanai/miniconda3/envs/parseq/lib/python3.7/site-packages/torch/nn/functional.py:2503:0
  %onnx::MatMul_700 : Float(1, 128, 384, strides=[49152, 384, 1], requires_grad=0, device=cpu) = onnx::Add[onnx_name="Add_591"](%onnx::Add_699, %encoder.blocks.5.norm2.bias) # /home/ashishpapanai/miniconda3/envs/parseq/lib/python3.7/site-packages/torch/nn/functional.py:2503:0
  %onnx::Add_702 : Float(1, 128, 1536, strides=[196608, 1536, 1], device=cpu) = onnx::MatMul[onnx_name="MatMul_592"](%onnx::MatMul_700, %onnx::MatMul_5086) # /home/ashishpapanai/miniconda3/envs/parseq/lib/python3.7/site-packages/torch/nn/modules/linear.py:114:0
  %onnx::Div_703 : Float(1, 128, 1536, strides=[196608, 1536, 1], requires_grad=0, device=cpu) = onnx::Add[onnx_name="Add_593"](%encoder.blocks.5.mlp.fc1.bias, %onnx::Add_702) # /home/ashishpapanai/miniconda3/envs/parseq/lib/python3.7/site-packages/torch/nn/modules/linear.py:114:0
  %onnx::Div_704 : Float(requires_grad=0, device=cpu) = onnx::Constant[value={1.41421}, onnx_name="Constant_594"]() # /home/ashishpapanai/miniconda3/envs/parseq/lib/python3.7/site-packages/torch/nn/modules/activation.py:681:0
  %onnx::Erf_705 : Float(1, 128, 1536, strides=[196608, 1536, 1], device=cpu) = onnx::Div[onnx_name="Div_595"](%onnx::Div_703, %onnx::Div_704) # /home/ashishpapanai/miniconda3/envs/parseq/lib/python3.7/site-packages/torch/nn/modules/activation.py:681:0
  %onnx::Add_706 : Float(1, 128, 1536, strides=[196608, 1536, 1], device=cpu) = onnx::Erf[onnx_name="Erf_596"](%onnx::Erf_705) # /home/ashishpapanai/miniconda3/envs/parseq/lib/python3.7/site-packages/torch/nn/modules/activation.py:681:0
  %onnx::Add_707 : Float(requires_grad=0, device=cpu) = onnx::Constant[value={1}, onnx_name="Constant_597"]() # /home/ashishpapanai/miniconda3/envs/parseq/lib/python3.7/site-packages/torch/nn/modules/activation.py:681:0
  %onnx::Mul_708 : Float(1, 128, 1536, strides=[196608, 1536, 1], device=cpu) = onnx::Add[onnx_name="Add_598"](%onnx::Add_706, %onnx::Add_707) # /home/ashishpapanai/miniconda3/envs/parseq/lib/python3.7/site-packages/torch/nn/modules/activation.py:681:0
  %onnx::Mul_709 : Float(1, 128, 1536, strides=[196608, 1536, 1], device=cpu) = onnx::Mul[onnx_name="Mul_599"](%onnx::Div_703, %onnx::Mul_708) # /home/ashishpapanai/miniconda3/envs/parseq/lib/python3.7/site-packages/torch/nn/modules/activation.py:681:0
  %onnx::Mul_710 : Float(requires_grad=0, device=cpu) = onnx::Constant[value={0.5}, onnx_name="Constant_600"]() # /home/ashishpapanai/miniconda3/envs/parseq/lib/python3.7/site-packages/torch/nn/modules/activation.py:681:0
  %input.136 : Float(1, 128, 1536, strides=[196608, 1536, 1], requires_grad=0, device=cpu) = onnx::Mul[onnx_name="Mul_601"](%onnx::Mul_709, %onnx::Mul_710) # /home/ashishpapanai/miniconda3/envs/parseq/lib/python3.7/site-packages/torch/nn/modules/activation.py:681:0
  %onnx::Add_713 : Float(1, 128, 384, strides=[49152, 384, 1], device=cpu) = onnx::MatMul[onnx_name="MatMul_602"](%input.136, %onnx::MatMul_5087) # /home/ashishpapanai/miniconda3/envs/parseq/lib/python3.7/site-packages/torch/nn/modules/linear.py:114:0
  %input.140 : Float(1, 128, 384, strides=[49152, 384, 1], requires_grad=0, device=cpu) = onnx::Add[onnx_name="Add_603"](%encoder.blocks.5.mlp.fc2.bias, %onnx::Add_713) # /home/ashishpapanai/miniconda3/envs/parseq/lib/python3.7/site-packages/torch/nn/modules/linear.py:114:0
  %input.144 : Float(1, 128, 384, strides=[49152, 1, 128], requires_grad=0, device=cpu) = onnx::Add[onnx_name="Add_604"](%input.132, %input.140) # /home/ashishpapanai/miniconda3/envs/parseq/lib/python3.7/site-packages/timm/models/vision_transformer.py:269:0
  %onnx::Sub_716 : Float(1, 128, 1, strides=[128, 1, 1], device=cpu) = onnx::ReduceMean[axes=[-1], onnx_name="ReduceMean_605"](%input.144) # /home/ashishpapanai/miniconda3/envs/parseq/lib/python3.7/site-packages/torch/nn/functional.py:2503:0
  %onnx::Pow_717 : Float(1, 128, 384, strides=[49152, 384, 1], device=cpu) = onnx::Sub[onnx_name="Sub_606"](%input.144, %onnx::Sub_716) # /home/ashishpapanai/miniconda3/envs/parseq/lib/python3.7/site-packages/torch/nn/functional.py:2503:0
  %onnx::Pow_718 : Float(requires_grad=0, device=cpu) = onnx::Constant[value={2}, onnx_name="Constant_607"]() # /home/ashishpapanai/miniconda3/envs/parseq/lib/python3.7/site-packages/torch/nn/functional.py:2503:0
  %onnx::ReduceMean_719 : Float(1, 128, 384, strides=[49152, 384, 1], device=cpu) = onnx::Pow[onnx_name="Pow_608"](%onnx::Pow_717, %onnx::Pow_718) # /home/ashishpapanai/miniconda3/envs/parseq/lib/python3.7/site-packages/torch/nn/functional.py:2503:0
  %onnx::Add_720 : Float(1, 128, 1, strides=[128, 1, 1], device=cpu) = onnx::ReduceMean[axes=[-1], onnx_name="ReduceMean_609"](%onnx::ReduceMean_719) # /home/ashishpapanai/miniconda3/envs/parseq/lib/python3.7/site-packages/torch/nn/functional.py:2503:0
  %onnx::Add_721 : Float(requires_grad=0, device=cpu) = onnx::Constant[value={1e-06}, onnx_name="Constant_610"]() # /home/ashishpapanai/miniconda3/envs/parseq/lib/python3.7/site-packages/torch/nn/functional.py:2503:0
  %onnx::Sqrt_722 : Float(1, 128, 1, strides=[128, 1, 1], device=cpu) = onnx::Add[onnx_name="Add_611"](%onnx::Add_720, %onnx::Add_721) # /home/ashishpapanai/miniconda3/envs/parseq/lib/python3.7/site-packages/torch/nn/functional.py:2503:0
  %onnx::Div_723 : Float(1, 128, 1, strides=[128, 1, 1], device=cpu) = onnx::Sqrt[onnx_name="Sqrt_612"](%onnx::Sqrt_722) # /home/ashishpapanai/miniconda3/envs/parseq/lib/python3.7/site-packages/torch/nn/functional.py:2503:0
  %onnx::Mul_724 : Float(1, 128, 384, strides=[49152, 384, 1], device=cpu) = onnx::Div[onnx_name="Div_613"](%onnx::Pow_717, %onnx::Div_723) # /home/ashishpapanai/miniconda3/envs/parseq/lib/python3.7/site-packages/torch/nn/functional.py:2503:0
  %onnx::Add_725 : Float(1, 128, 384, strides=[49152, 384, 1], device=cpu) = onnx::Mul[onnx_name="Mul_614"](%onnx::Mul_724, %encoder.blocks.6.norm1.weight) # /home/ashishpapanai/miniconda3/envs/parseq/lib/python3.7/site-packages/torch/nn/functional.py:2503:0
…
  %onnx::Gather_4632 : Long(device=cpu) = onnx::Constant[value={9}, onnx_name="Constant_2858"]()
  %onnx::Shape_4633 : Long(1, strides=[26], requires_grad=0, device=cpu) = onnx::Gather[axis=1, onnx_name="Gather_2859"](%onnx::Slice_4299, %onnx::Gather_4632) # /home/ashishpapanai/Desktop/MAVI/parseq/strhub/models/parseq/system.py:127:0
  %onnx::ConstantOfShape_4634 : Long(1, strides=[1], device=cpu) = onnx::Shape[onnx_name="Shape_2860"](%onnx::Shape_4633) # /home/ashishpapanai/Desktop/MAVI/parseq/strhub/models/parseq/system.py:127:0
  %onnx::Add_4635 : Long(1, device=cpu) = onnx::ConstantOfShape[value={0}, onnx_name="ConstantOfShape_2861"](%onnx::ConstantOfShape_4634) # /home/ashishpapanai/Desktop/MAVI/parseq/strhub/models/parseq/system.py:127:0
  %onnx::Add_4636 : Long(device=cpu) = onnx::Cast[to=7, onnx_name="Cast_2862"](%onnx::Cast_4631) # /home/ashishpapanai/Desktop/MAVI/parseq/strhub/models/parseq/system.py:127:0
  %onnx::Expand_4637 : Long(1, strides=[26], requires_grad=0, device=cpu) = onnx::Add[onnx_name="Add_2863"](%onnx::Add_4635, %onnx::Add_4636) # /home/ashishpapanai/Desktop/MAVI/parseq/strhub/models/parseq/system.py:127:0
  %onnx::Expand_4638 : Long(1, strides=[1], device=cpu) = onnx::Shape[onnx_name="Shape_2864"](%onnx::Shape_4633) # /home/ashishpapanai/Desktop/MAVI/parseq/strhub/models/parseq/system.py:127:0
  %onnx::Reshape_4639 : Long(1, strides=[26], requires_grad=0, device=cpu) = onnx::Expand[onnx_name="Expand_2865"](%onnx::Expand_4637, %onnx::Expand_4638) # /home/ashishpapanai/Desktop/MAVI/parseq/strhub/models/parseq/system.py:127:0
  %onnx::Expand_4640 : Long(1, strides=[1], requires_grad=0, device=cpu) = onnx::Constant[value={9}, onnx_name="Constant_2866"]() # /home/ashishpapanai/Desktop/MAVI/parseq/strhub/models/parseq/system.py:127:0
  %onnx::Expand_4641 : Long(1, 1, strides=[1, 1], requires_grad=0, device=cpu) = onnx::Constant[value={0}, onnx_name="Constant_2867"]() # /home/ashishpapanai/Desktop/MAVI/parseq/strhub/models/parseq/system.py:127:0
  %onnx::Mul_4647 : Long(2, device=cpu) = onnx::ConstantOfShape[value={1}, onnx_name="ConstantOfShape_2868"](%onnx::ConstantOfShape_5878) # /home/ashishpapanai/Desktop/MAVI/parseq/strhub/models/parseq/system.py:127:0
  %onnx::Mul_4648 : Long(requires_grad=0, device=cpu) = onnx::Constant[value={-1}, onnx_name="Constant_2869"]() # /home/ashishpapanai/Desktop/MAVI/parseq/strhub/models/parseq/system.py:127:0
  %onnx::Equal_4649 : Long(2, strides=[1], device=cpu) = onnx::Mul[onnx_name="Mul_2870"](%onnx::Mul_4647, %onnx::Mul_4648) # /home/ashishpapanai/Desktop/MAVI/parseq/strhub/models/parseq/system.py:127:0
  %onnx::Where_4650 : Bool(2, strides=[1], device=cpu) = onnx::Equal[onnx_name="Equal_2871"](%onnx::Equal_5877, %onnx::Equal_4649) # /home/ashishpapanai/Desktop/MAVI/parseq/strhub/models/parseq/system.py:127:0
  %onnx::Expand_4651 : Long(2, strides=[1], device=cpu) = onnx::Where[onnx_name="Where_2872"](%onnx::Where_4650, %onnx::Mul_4647, %onnx::Equal_5877) # /home/ashishpapanai/Desktop/MAVI/parseq/strhub/models/parseq/system.py:127:0
  %onnx::Unsqueeze_4652 : Long(1, 1, device=cpu) = onnx::Expand[onnx_name="Expand_2873"](%onnx::Expand_4641, %onnx::Expand_4651) # /home/ashishpapanai/Desktop/MAVI/parseq/strhub/models/parseq/system.py:127:0
  %onnx::Unsqueeze_4653 : Long(1, strides=[1], device=cpu) = onnx::Constant[value={-1}, onnx_name="Constant_2874"]() # /home/ashishpapanai/Desktop/MAVI/parseq/strhub/models/parseq/system.py:127:0
  %onnx::Concat_4654 : Long(1, 1, 1, strides=[1, 1, 1], device=cpu) = onnx::Unsqueeze[onnx_name="Unsqueeze_2875"](%onnx::Unsqueeze_4652, %onnx::Unsqueeze_4653) # /home/ashishpapanai/Desktop/MAVI/parseq/strhub/models/parseq/system.py:127:0
  %onnx::Mul_4656 : Long(2, device=cpu) = onnx::ConstantOfShape[value={1}, onnx_name="ConstantOfShape_2876"](%onnx::ConstantOfShape_5879) # /home/ashishpapanai/Desktop/MAVI/parseq/strhub/models/parseq/system.py:127:0
  %onnx::Mul_4657 : Long(requires_grad=0, device=cpu) = onnx::Constant[value={-1}, onnx_name="Constant_2877"]() # /home/ashishpapanai/Desktop/MAVI/parseq/strhub/models/parseq/system.py:127:0
  %onnx::Equal_4658 : Long(2, strides=[1], device=cpu) = onnx::Mul[onnx_name="Mul_2878"](%onnx::Mul_4656, %onnx::Mul_4657) # /home/ashishpapanai/Desktop/MAVI/parseq/strhub/models/parseq/system.py:127:0
  %onnx::Where_4659 : Bool(2, strides=[1], device=cpu) = onnx::Equal[onnx_name="Equal_2879"](%onnx::Equal_5877, %onnx::Equal_4658) # /home/ashishpapanai/Desktop/MAVI/parseq/strhub/models/parseq/system.py:127:0
  %onnx::Expand_4660 : Long(2, strides=[1], device=cpu) = onnx::Where[onnx_name="Where_2880"](%onnx::Where_4659, %onnx::Mul_4656, %onnx::Equal_5877) # /home/ashishpapanai/Desktop/MAVI/parseq/strhub/models/parseq/system.py:127:0
  %onnx::Unsqueeze_4661 : Long(1, 1, device=cpu) = onnx::Expand[onnx_name="Expand_2881"](%onnx::Expand_4640, %onnx::Expand_4660) # /home/ashishpapanai/Desktop/MAVI/parseq/strhub/models/parseq/system.py:127:0
  %onnx::Unsqueeze_4662 : Long(1, strides=[1], device=cpu) = onnx::Constant[value={-1}, onnx_name="Constant_2882"]() # /home/ashishpapanai/Desktop/MAVI/parseq/strhub/models/parseq/system.py:127:0
  %onnx::Concat_4663 : Long(1, 1, 1, strides=[1, 1, 1], device=cpu) = onnx::Unsqueeze[onnx_name="Unsqueeze_2883"](%onnx::Unsqueeze_4661, %onnx::Unsqueeze_4662) # /home/ashishpapanai/Desktop/MAVI/parseq/strhub/models/parseq/system.py:127:0
  %onnx::ScatterND_4664 : Long(1, 1, 2, strides=[2, 2, 1], device=cpu) = onnx::Concat[axis=-1, onnx_name="Concat_2884"](%onnx::Concat_4654, %onnx::Concat_4663) # /home/ashishpapanai/Desktop/MAVI/parseq/strhub/models/parseq/system.py:127:0
  %onnx::Slice_4665 : Long(2, strides=[1], device=cpu) = onnx::Shape[onnx_name="Shape_2885"](%onnx::Slice_4299) # /home/ashishpapanai/Desktop/MAVI/parseq/strhub/models/parseq/system.py:127:0
  %onnx::Slice_4666 : Long(1, strides=[1], device=cpu) = onnx::Constant[value={0}, onnx_name="Constant_2886"]() # /home/ashishpapanai/Desktop/MAVI/parseq/strhub/models/parseq/system.py:127:0
  %onnx::Slice_4667 : Long(1, strides=[1], device=cpu) = onnx::Constant[value={2}, onnx_name="Constant_2887"]() # /home/ashishpapanai/Desktop/MAVI/parseq/strhub/models/parseq/system.py:127:0
  %onnx::Slice_4668 : Long(1, strides=[1], device=cpu) = onnx::Constant[value={9223372036854775807}, onnx_name="Constant_2888"]() # /home/ashishpapanai/Desktop/MAVI/parseq/strhub/models/parseq/system.py:127:0
  %onnx::Concat_4669 : Long(0, strides=[1], device=cpu) = onnx::Slice[onnx_name="Slice_2889"](%onnx::Slice_4665, %onnx::Slice_4667, %onnx::Slice_4668, %onnx::Slice_4666) # /home/ashishpapanai/Desktop/MAVI/parseq/strhub/models/parseq/system.py:127:0
  %onnx::Reshape_4670 : Long(2, strides=[1], device=cpu) = onnx::Concat[axis=0, onnx_name="Concat_2890"](%onnx::Equal_5877, %onnx::Concat_4669) # /home/ashishpapanai/Desktop/MAVI/parseq/strhub/models/parseq/system.py:127:0
  %onnx::ScatterND_4671 : Long(1, 1, device=cpu) = onnx::Reshape[allowzero=0, onnx_name="Reshape_2891"](%onnx::Reshape_4639, %onnx::Reshape_4670) # /home/ashishpapanai/Desktop/MAVI/parseq/strhub/models/parseq/system.py:127:0
  %onnx::Slice_4672 : Long(1, 26, strides=[26, 1], requires_grad=0, device=cpu) = onnx::ScatterND[onnx_name="ScatterND_2892"](%onnx::Slice_4299, %onnx::ScatterND_4664, %onnx::ScatterND_4671) # /home/ashishpapanai/Desktop/MAVI/parseq/strhub/models/parseq/system.py:127:0
  %onnx::Slice_4673 : Long(1, strides=[1], device=cpu) = onnx::Constant[value={1}, onnx_name="Constant_2893"]() # /home/ashishpapanai/Desktop/MAVI/parseq/strhub/models/parseq/system.py:120:0
  %onnx::Slice_4674 : Long(1, strides=[1], device=cpu) = onnx::Constant[value={0}, onnx_name="Constant_2894"]() # /home/ashishpapanai/Desktop/MAVI/parseq/strhub/models/parseq/system.py:120:0
  %onnx::Slice_4675 : Long(1, strides=[1], device=cpu) = onnx::Constant[value={10}, onnx_name="Constant_2895"]() # /home/ashishpapanai/Desktop/MAVI/parseq/strhub/models/parseq/system.py:120:0
  %onnx::Slice_4676 : Long(1, strides=[1], device=cpu) = onnx::Constant[value={1}, onnx_name="Constant_2896"]() # /home/ashishpapanai/Desktop/MAVI/parseq/strhub/models/parseq/system.py:120:0
  %onnx::Slice_4677 : Long(1, 10, strides=[26, 1], requires_grad=0, device=cpu) = onnx::Slice[onnx_name="Slice_2897"](%onnx::Slice_4672, %onnx::Slice_4674, %onnx::Slice_4675, %onnx::Slice_4673, %onnx::Slice_4676) # /home/ashishpapanai/Desktop/MAVI/parseq/strhub/models/parseq/system.py:120:0
  %onnx::Slice_4678 : Long(1, strides=[1], device=cpu) = onnx::Constant[value={1}, onnx_name="Constant_2898"]() # /home/ashishpapanai/Desktop/MAVI/parseq/strhub/models/parseq/system.py:120:0
  %onnx::Slice_4679 : Long(1, strides=[1], device=cpu) = onnx::Constant[value={9}, onnx_name="Constant_2899"]() # /home/ashishpapanai/Desktop/MAVI/parseq/strhub/models/parseq/system.py:120:0
  %onnx::Slice_4680 : Long(1, strides=[1], device=cpu) = onnx::Constant[value={10}, onnx_name="Constant_2900"]() # /home/ashishpapanai/Desktop/MAVI/parseq/strhub/models/parseq/system.py:120:0
  %onnx::Slice_4681 : Long(1, strides=[1], device=cpu) = onnx::Constant[value={1}, onnx_name="Constant_2901"]() # /home/ashishpapanai/Desktop/MAVI/parseq/strhub/models/parseq/system.py:120:0
  %input.688 : Float(1, 1, 384, strides=[9984, 384, 1], requires_grad=0, device=cpu) = onnx::Slice[onnx_name="Slice_2902"](%onnx::Slice_1277, %onnx::Slice_4679, %onnx::Slice_4680, %onnx::Slice_4678, %onnx::Slice_4681) # /home/ashishpapanai/Desktop/MAVI/parseq/strhub/models/parseq/system.py:120:0
  %onnx::Slice_4683 : Long(1, strides=[1], device=cpu) = onnx::Constant[value={1}, onnx_name="Constant_2903"]() # /home/ashishpapanai/Desktop/MAVI/parseq/strhub/models/parseq/system.py:87:0
  %onnx::Slice_4684 : Long(1, strides=[1], device=cpu) = onnx::Constant[value={0}, onnx_name="Constant_2904"]() # /home/ashishpapanai/Desktop/MAVI/parseq/strhub/models/parseq/system.py:87:0
  %onnx::Slice_4685 : Long(1, strides=[1], device=cpu) = onnx::Constant[value={1}, onnx_name="Constant_2905"]() # /home/ashishpapanai/Desktop/MAVI/parseq/strhub/models/parseq/system.py:87:0
  %onnx::Slice_4686 : Long(1, strides=[1], device=cpu) = onnx::Constant[value={1}, onnx_name="Constant_2906"]() # /home/ashishpapanai/Desktop/MAVI/parseq/strhub/models/parseq/system.py:87:0
  %input.692 : Long(1, 1, strides=[26, 1], requires_grad=0, device=cpu) = onnx::Slice[onnx_name="Slice_2907"](%onnx::Slice_4677, %onnx::Slice_4684, %onnx::Slice_4685, %onnx::Slice_4683, %onnx::Slice_4686) # /home/ashishpapanai/Desktop/MAVI/parseq/strhub/models/parseq/system.py:87:0
  %onnx::Mul_4688 : Float(1, 1, 384, strides=[384, 384, 1], requires_grad=0, device=cpu) = onnx::Gather[onnx_name="Gather_2908"](%text_embed.embedding.weight, %input.692) # /home/ashishpapanai/miniconda3/envs/parseq/lib/python3.7/site-packages/torch/nn/functional.py:2199:0
  %onnx::Mul_4689 : Float(requires_grad=0, device=cpu) = onnx::Constant[value={19.5959}, onnx_name="Constant_2909"]()
  %onnx::Concat_4690 : Float(1, 1, 384, strides=[384, 384, 1], requires_grad=0, device=cpu) = onnx::Mul[onnx_name="Mul_2910"](%onnx::Mul_4688, %onnx::Mul_4689) # /home/ashishpapanai/Desktop/MAVI/parseq/strhub/models/parseq/modules.py:126:0
  %onnx::Slice_4696 : Long(1, strides=[1], device=cpu) = onnx::Constant[value={1}, onnx_name="Constant_2911"]() # /home/ashishpapanai/Desktop/MAVI/parseq/strhub/models/parseq/system.py:88:0
  %onnx::Slice_4697 : Long(1, strides=[1], device=cpu) = onnx::Constant[value={1}, onnx_name="Constant_2912"]() # /home/ashishpapanai/Desktop/MAVI/parseq/strhub/models/parseq/system.py:88:0
  %onnx::Slice_4698 : Long(1, strides=[1], device=cpu) = onnx::Constant[value={9223372036854775807}, onnx_name="Constant_2913"]() # /home/ashishpapanai/Desktop/MAVI/parseq/strhub/models/parseq/system.py:88:0
  %onnx::Slice_4699 : Long(1, strides=[1], device=cpu) = onnx::Constant[value={1}, onnx_name="Constant_2914"]() # /home/ashishpapanai/Desktop/MAVI/parseq/strhub/models/parseq/system.py:88:0
  %input.696 : Long(1, 9, strides=[26, 1], requires_grad=0, device=cpu) = onnx::Slice[onnx_name="Slice_2915"](%onnx::Slice_4677, %onnx::Slice_4697, %onnx::Slice_4698, %onnx::Slice_4696, %onnx::Slice_4699) # /home/ashishpapanai/Desktop/MAVI/parseq/strhub/models/parseq/system.py:88:0
  %onnx::Mul_4701 : Float(1, 9, 384, strides=[3456, 384, 1], requires_grad=0, device=cpu) = onnx::Gather[onnx_name="Gather_2916"](%text_embed.embedding.weight, %input.696) # /home/ashishpapanai/miniconda3/envs/parseq/lib/python3.7/site-packages/torch/nn/functional.py:2199:0
  %onnx::Mul_4702 : Float(requires_grad=0, device=cpu) = onnx::Constant[value={19.5959}, onnx_name="Constant_2917"]()
  %onnx::Add_4703 : Float(1, 9, 384, strides=[3456, 384, 1], requires_grad=0, device=cpu) = onnx::Mul[onnx_name="Mul_2918"](%onnx::Mul_4701, %onnx::Mul_4702) # /home/ashishpapanai/Desktop/MAVI/parseq/strhub/models/parseq/modules.py:126:0
  %onnx::Concat_4704 : Float(1, 9, 384, strides=[3456, 384, 1], requires_grad=0, device=cpu) = onnx::Add[onnx_name="Add_2919"](%onnx::Add_5880, %onnx::Add_4703) # /home/ashishpapanai/Desktop/MAVI/parseq/strhub/models/parseq/system.py:88:0
  %input.700 : Float(1, 10, 384, strides=[3840, 384, 1], requires_grad=0, device=cpu) = onnx::Concat[axis=1, onnx_name="Concat_2920"](%onnx::Concat_4690, %onnx::Concat_4704) # /home/ashishpapanai/Desktop/MAVI/parseq/strhub/models/parseq/system.py:89:0
  %onnx::Sub_4706 : Float(1, 1, 1, strides=[1, 1, 1], device=cpu) = onnx::ReduceMean[axes=[-1], onnx_name="ReduceMean_2921"](%input.688) # /home/ashishpapanai/miniconda3/envs/parseq/lib/python3.7/site-packages/torch/nn/functional.py:2503:0
  %onnx::Pow_4707 : Float(1, 1, 384, strides=[384, 384, 1], device=cpu) = onnx::Sub[onnx_name="Sub_2922"](%input.688, %onnx::Sub_4706) # /home/ashishpapanai/miniconda3/envs/parseq/lib/python3.7/site-packages/torch/nn/functional.py:2503:0
  %onnx::Pow_4708 : Float(requires_grad=0, device=cpu) = onnx::Constant[value={2}, onnx_name="Constant_2923"]() # /home/ashishpapanai/miniconda3/envs/parseq/lib/python3.7/site-packages/torch/nn/functional.py:2503:0
  %onnx::ReduceMean_4709 : Float(1, 1, 384, strides=[384, 384, 1], device=cpu) = onnx::Pow[onnx_name="Pow_2924"](%onnx::Pow_4707, %onnx::Pow_4708) # /home/ashishpapanai/miniconda3/envs/parseq/lib/python3.7/site-packages/torch/nn/functional.py:2503:0
  %onnx::Add_4710 : Float(1, 1, 1, strides=[1, 1, 1], device=cpu) = onnx::ReduceMean[axes=[-1], onnx_name="ReduceMean_2925"](%onnx::ReduceMean_4709) # /home/ashishpapanai/miniconda3/envs/parseq/lib/python3.7/site-packages/torch/nn/functional.py:2503:0
  %onnx::Add_4711 : Float(requires_grad=0, device=cpu) = onnx::Constant[value={1e-05}, onnx_name="Constant_2926"]() # /home/ashishpapanai/miniconda3/envs/parseq/lib/python3.7/site-packages/torch/nn/functional.py:2503:0
  %onnx::Sqrt_4712 : Float(1, 1, 1, strides=[1, 1, 1], device=cpu) = onnx::Add[onnx_name="Add_2927"](%onnx::Add_4710, %onnx::Add_4711) # /home/ashishpapanai/miniconda3/envs/parseq/lib/python3.7/site-packages/torch/nn/functional.py:2503:0
  %onnx::Div_4713 : Float(1, 1, 1, strides=[1, 1, 1], device=cpu) = onnx::Sqrt[onnx_name="Sqrt_2928"](%onnx::Sqrt_4712) # /home/ashishpapanai/miniconda3/envs/parseq/lib/python3.7/site-packages/torch/nn/functional.py:2503:0
  %onnx::Mul_4714 : Float(1, 1, 384, strides=[384, 384, 1], device=cpu) = onnx::Div[onnx_name="Div_2929"](%onnx::Pow_4707, %onnx::Div_4713) # /home/ashishpapanai/miniconda3/envs/parseq/lib/python3.7/site-packages/torch/nn/functional.py:2503:0
  %onnx::Add_4715 : Float(1, 1, 384, strides=[384, 384, 1], device=cpu) = onnx::Mul[onnx_name="Mul_2930"](%onnx::Mul_4714, %decoder.layers.0.norm_q.weight) # /home/ashishpapanai/miniconda3/envs/parseq/lib/python3.7/site-packages/torch/nn/functional.py:2503:0
  %query.143 : Float(1, 1, 384, strides=[384, 384, 1], requires_grad=0, device=cpu) = onnx::Add[onnx_name="Add_2931"](%onnx::Add_4715, %decoder.layers.0.norm_q.bias) # /home/ashishpapanai/miniconda3/envs/parseq/lib/python3.7/site-packages/torch/nn/functional.py:2503:0
  %onnx::Sub_4717 : Float(1, 10, 1, strides=[10, 1, 1], device=cpu) = onnx::ReduceMean[axes=[-1], onnx_name="ReduceMean_2932"](%input.700) # /home/ashishpapanai/miniconda3/envs/parseq/lib/python3.7/site-packages/torch/nn/functional.py:2503:0
  %onnx::Pow_4718 : Float(1, 10, 384, strides=[3840, 384, 1], device=cpu) = onnx::Sub[onnx_name="Sub_2933"](%input.700, %onnx::Sub_4717) # /home/ashishpapanai/miniconda3/envs/parseq/lib/python3.7/site-packages/torch/nn/functional.py:2503:0
  %onnx::Pow_4719 : Float(requires_grad=0, device=cpu) = onnx::Constant[value={2}, onnx_name="Constant_2934"]() # /home/ashishpapanai/miniconda3/envs/parseq/lib/python3.7/site-packages/torch/nn/functional.py:2503:0
  %onnx::ReduceMean_4720 : Float(1, 10, 384, strides=[3840, 384, 1], device=cpu) = onnx::Pow[onnx_name="Pow_2935"](%onnx::Pow_4718, %onnx::Pow_4719) # /home/ashishpapanai/miniconda3/envs/parseq/lib/python3.7/site-packages/torch/nn/functional.py:2503:0
  %onnx::Add_4721 : Float(1, 10, 1, strides=[10, 1, 1], device=cpu) = onnx::ReduceMean[axes=[-1], onnx_name="ReduceMean_2936"](%onnx::ReduceMean_4720) # /home/ashishpapanai/miniconda3/envs/parseq/lib/python3.7/site-packages/torch/nn/functional.py:2503:0
  %onnx::Add_4722 : Float(requires_grad=0, device=cpu) = onnx::Constant[value={1e-05}, onnx_name="Constant_2937"]() # /home/ashishpapanai/miniconda3/envs/parseq/lib/python3.7/site-packages/torch/nn/functional.py:2503:0
  %onnx::Sqrt_4723 : Float(1, 10, 1, strides=[10, 1, 1], device=cpu) = onnx::Add[onnx_name="Add_2938"](%onnx::Add_4721, %onnx::Add_4722) # /home/ashishpapanai/miniconda3/envs/parseq/lib/python3.7/site-packages/torch/nn/functional.py:2503:0
  %onnx::Div_4724 : Float(1, 10, 1, strides=[10, 1, 1], device=cpu) = onnx::Sqrt[onnx_name="Sqrt_2939"](%onnx::Sqrt_4723) # /home/ashishpapanai/miniconda3/envs/parseq/lib/python3.7/site-packages/torch/nn/functional.py:2503:0
  %onnx::Mul_4725 : Float(1, 10, 384, strides=[3840, 384, 1], device=cpu) = onnx::Div[onnx_name="Div_2940"](%onnx::Pow_4718, %onnx::Div_4724) # /home/ashishpapanai/miniconda3/envs/parseq/lib/python3.7/site-packages/torch/nn/functional.py:2503:0
  %onnx::Add_4726 : Float(1, 10, 384, strides=[3840, 384, 1], device=cpu) = onnx::Mul[onnx_name="Mul_2941"](%onnx::Mul_4725, %decoder.layers.0.norm_c.weight) # /home/ashishpapanai/miniconda3/envs/parseq/lib/python3.7/site-packages/torch/nn/functional.py:2503:0
  %key.111 : Float(1, 10, 384, strides=[3840, 384, 1], requires_grad=0, device=cpu) = onnx::Add[onnx_name="Add_2942"](%onnx::Add_4726, %decoder.layers.0.norm_c.bias) # /home/ashishpapanai/miniconda3/envs/parseq/lib/python3.7/site-packages/torch/nn/functional.py:2503:0
  %query.147 : Float(1, 1, 384, strides=[384, 384, 1], requires_grad=0, device=cpu) = onnx::Transpose[perm=[1, 0, 2], onnx_name="Transpose_2943"](%query.143) # /home/ashishpapanai/miniconda3/envs/parseq/lib/python3.7/site-packages/torch/nn/modules/activation.py:1136:0
  %key.115 : Float(10, 1, 384, strides=[384, 3840, 1], requires_grad=0, device=cpu) = onnx::Transpose[perm=[1, 0, 2], onnx_name="Transpose_2944"](%key.111) # /home/ashishpapanai/miniconda3/envs/parseq/lib/python3.7/site-packages/torch/nn/modules/activation.py:1136:0
  %onnx::Add_4760 : Float(1, 1, 384, strides=[384, 384, 1], device=cpu) = onnx::MatMul[onnx_name="MatMul_2945"](%query.147, %onnx::MatMul_5893) # /home/ashishpapanai/miniconda3/envs/parseq/lib/python3.7/site-packages/torch/nn/functional.py:4753:0
  %onnx::Reshape_4761 : Float(1, 1, 384, strides=[384, 384, 1], requires_grad=0, device=cpu) = onnx::Add[onnx_name="Add_2946"](%onnx::Add_5890, %onnx::Add_4760) # /home/ashishpapanai/miniconda3/envs/parseq/lib/python3.7/site-packages/torch/nn/functional.py:4753:0
  %onnx::Add_4763 : Float(10, 1, 768, strides=[768, 768, 1], device=cpu) = onnx::MatMul[onnx_name="MatMul_2947"](%key.115, %onnx::MatMul_5894) # /home/ashishpapanai/miniconda3/envs/parseq/lib/python3.7/site-packages/torch/nn/functional.py:4753:0
  %onnx::Shape_4764 : Float(10, 1, 768, strides=[768, 768, 1], requires_grad=0, device=cpu) = onnx::Add[onnx_name="Add_2948"](%onnx::Add_5892, %onnx::Add_4763) # /home/ashishpapanai/miniconda3/envs/parseq/lib/python3.7/site-packages/torch/nn/functional.py:4753:0
  %onnx::Gather_4765 : Long(3, strides=[1], device=cpu) = onnx::Shape[onnx_name="Shape_2949"](%onnx::Shape_4764) # /home/ashishpapanai/miniconda3/envs/parseq/lib/python3.7/site-packages/torch/nn/functional.py:4753:0
  %onnx::Gather_4766 : Long(1, strides=[1], device=cpu) = onnx::Constant[value={-1}, onnx_name="Constant_2950"]() # /home/ashishpapanai/miniconda3/envs/parseq/lib/python3.7/site-packages/torch/nn/functional.py:4753:0
  %onnx::Add_4767 : Long(1, strides=[1], device=cpu) = onnx::Gather[axis=0, onnx_name="Gather_2951"](%onnx::Gather_4765, %onnx::Gather_4766) # /home/ashishpapanai/miniconda3/envs/parseq/lib/python3.7/site-packages/torch/nn/functional.py:4753:0
  %onnx::Slice_4768 : Long(1, strides=[1], device=cpu) = onnx::Constant[value={0}, onnx_name="Constant_2952"]() # /home/ashishpapanai/miniconda3/envs/parseq/lib/python3.7/site-packages/torch/nn/functional.py:4753:0
  %onnx::Add_4769 : Long(1, strides=[1], requires_grad=0, device=cpu) = onnx::Constant[value={1}, onnx_name="Constant_2953"]() # /home/ashishpapanai/miniconda3/envs/parseq/lib/python3.7/site-packages/torch/nn/functional.py:4753:0
  %onnx::Div_4770 : Long(1, strides=[1], device=cpu) = onnx::Add[onnx_name="Add_2954"](%onnx::Add_4767, %onnx::Add_4769) # /home/ashishpapanai/miniconda3/envs/parseq/lib/python3.7/site-packages/torch/nn/functional.py:4753:0
  %onnx::Div_4771 : Long(1, strides=[1], requires_grad=0, device=cpu) = onnx::Constant[value={2}, onnx_name="Constant_2955"]() # /home/ashishpapanai/miniconda3/envs/parseq/lib/python3.7/site-packages/torch/nn/functional.py:4753:0
  %onnx::Mul_4772 : Long(1, strides=[1], device=cpu) = onnx::Div[onnx_name="Div_2956"](%onnx::Div_4770, %onnx::Div_4771) # /home/ashishpapanai/miniconda3/envs/parseq/lib/python3.7/site-packages/torch/nn/functional.py:4753:0
  %onnx::Mul_4773 : Long(1, strides=[1], requires_grad=0, device=cpu) = onnx::Constant[value={1}, onnx_name="Constant_2957"]() # /home/ashishpapanai/miniconda3/envs/parseq/lib/python3.7/site-packages/torch/nn/functional.py:4753:0
  %onnx::Slice_4774 : Long(1, strides=[1], device=cpu) = onnx::Mul[onnx_name="Mul_2958"](%onnx::Mul_4772, %onnx::Mul_4773) # /home/ashishpapanai/miniconda3/envs/parseq/lib/python3.7/site-packages/torch/nn/functional.py:4753:0
  %onnx::Reshape_4775 : Float(10, 1, 384, strides=[384, 384, 1], requires_grad=0, device=cpu) = onnx::Slice[onnx_name="Slice_2959"](%onnx::Shape_4764, %onnx::Slice_4768, %onnx::Slice_4774, %onnx::Gather_4766) # /home/ashishpapanai/miniconda3/envs/parseq/lib/python3.7/site-packages/torch/nn/functional.py:4753:0
  %onnx::Mul_4776 : Long(1, strides=[1], requires_grad=0, device=cpu) = onnx::Constant[value={2}, onnx_name="Constant_2960"]() # /home/ashishpapanai/miniconda3/envs/parseq/lib/python3.7/site-packages/torch/nn/functional.py:4753:0
  %onnx::Slice_4777 : Long(1, strides=[1], device=cpu) = onnx::Mul[onnx_name="Mul_2961"](%onnx::Mul_4772, %onnx::Mul_4776) # /home/ashishpapanai/miniconda3/envs/parseq/lib/python3.7/site-packages/torch/nn/functional.py:4753:0
  %onnx::Reshape_4778 : Float(10, 1, 384, strides=[384, 384, 1], requires_grad=0, device=cpu) = onnx::Slice[onnx_name="Slice_2962"](%onnx::Shape_4764, %onnx::Slice_4774, %onnx::Slice_4777, %onnx::Gather_4766) # /home/ashishpapanai/miniconda3/envs/parseq/lib/python3.7/site-packages/torch/nn/functional.py:4753:0
  %onnx::Transpose_4787 : Float(1, 12, 32, strides=[384, 32, 1], requires_grad=0, device=cpu) = onnx::Reshape[allowzero=0, onnx_name="Reshape_2963"](%onnx::Reshape_4761, %onnx::Reshape_5898) # /home/ashishpapanai/miniconda3/envs/parseq/lib/python3.7/site-packages/torch/nn/functional.py:5120:0
  %q.71 : Float(12, 1, 32, strides=[32, 384, 1], requires_grad=0, device=cpu) = onnx::Transpose[perm=[1, 0, 2], onnx_name="Transpose_2964"](%onnx::Transpose_4787) # /home/ashishpapanai/miniconda3/envs/parseq/lib/python3.7/site-packages/torch/nn/functional.py:5120:0
  %onnx::Transpose_4798 : Float(10, 12, 32, strides=[384, 32, 1], requires_grad=0, device=cpu) = onnx::Reshape[allowzero=0, onnx_name="Reshape_2965"](%onnx::Reshape_4775, %onnx::Reshape_5902) # /home/ashishpapanai/miniconda3/envs/parseq/lib/python3.7/site-packages/torch/nn/functional.py:5122:0
  %onnx::Transpose_4808 : Float(10, 12, 32, strides=[384, 32, 1], requires_grad=0, device=cpu) = onnx::Reshape[allowzero=0, onnx_name="Reshape_2966"](%onnx::Reshape_4778, %onnx::Reshape_5906) # /home/ashishpapanai/miniconda3/envs/parseq/lib/python3.7/site-packages/torch/nn/functional.py:5131:0
  %v.71 : Float(12, 10, 32, strides=[32, 384, 1], requires_grad=0, device=cpu) = onnx::Transpose[perm=[1, 0, 2], onnx_name="Transpose_2967"](%onnx::Transpose_4808) # /home/ashishpapanai/miniconda3/envs/parseq/lib/python3.7/site-packages/torch/nn/functional.py:5131:0
  %onnx::Div_4810 : Float(requires_grad=0, device=cpu) = onnx::Constant[value={5.65685}, onnx_name="Constant_2968"]()
  %onnx::MatMul_4811 : Float(12, 1, 32, strides=[32, 384, 1], requires_grad=0, device=cpu) = onnx::Div[onnx_name="Div_2969"](%q.71, %onnx::Div_4810) # /home/ashishpapanai/miniconda3/envs/parseq/lib/python3.7/site-packages/torch/nn/functional.py:4849:0
  %onnx::MatMul_4812 : Float(12, 32, 10, strides=[32, 1, 384], requires_grad=0, device=cpu) = onnx::Transpose[perm=[1, 2, 0], onnx_name="Transpose_2970"](%onnx::Transpose_4798) # /home/ashishpapanai/miniconda3/envs/parseq/lib/python3.7/site-packages/torch/nn/functional.py:4852:0
  %onnx::Mul_4815 : Float(12, 1, 10, strides=[10, 10, 1], device=cpu) = onnx::MatMul[onnx_name="MatMul_2971"](%onnx::MatMul_4811, %onnx::MatMul_4812) # /home/ashishpapanai/miniconda3/envs/parseq/lib/python3.7/site-packages/torch/nn/functional.py:4852:0
  %onnx::Add_4817 : Float(12, 1, 10, strides=[10, 10, 1], device=cpu) = onnx::Mul[onnx_name="Mul_2972"](%onnx::Mul_4815, %onnx::Mul_5907) # /home/ashishpapanai/miniconda3/envs/parseq/lib/python3.7/site-packages/torch/nn/functional.py:4852:0
  %attn.71 : Float(12, 1, 10, strides=[10, 10, 1], requires_grad=0, device=cpu) = onnx::Add[onnx_name="Add_2973"](%onnx::Add_4817, %onnx::Add_5909) # /home/ashishpapanai/miniconda3/envs/parseq/lib/python3.7/site-packages/torch/nn/functional.py:4852:0
  %onnx::MatMul_4822 : Float(12, 1, 10, strides=[10, 10, 1], requires_grad=0, device=cpu) = onnx::Softmax[axis=-1, onnx_name="Softmax_2974"](%attn.71) # /home/ashishpapanai/miniconda3/envs/parseq/lib/python3.7/site-packages/torch/nn/functional.py:1834:0
  %onnx::Transpose_4823 : Float(12, 1, 32, strides=[32, 32, 1], requires_grad=0, device=cpu) = onnx::MatMul[onnx_name="MatMul_2975"](%onnx::MatMul_4822, %v.71) # /home/ashishpapanai/miniconda3/envs/parseq/lib/python3.7/site-packages/torch/nn/functional.py:4860:0
  %onnx::Reshape_4824 : Float(1, 12, 32, strides=[32, 32, 1], requires_grad=0, device=cpu) = onnx::Transpose[perm=[1, 0, 2], onnx_name="Transpose_2976"](%onnx::Transpose_4823) # /home/ashishpapanai/miniconda3/envs/parseq/lib/python3.7/site-packages/torch/nn/functional.py:5180:0
  %onnx::Gemm_4831 : Float(1, 384, strides=[384, 1], requires_grad=0, device=cpu) = onnx::Reshape[allowzero=0, onnx_name="Reshape_2977"](%onnx::Reshape_4824, %onnx::Reshape_5912) # /home/ashishpapanai/miniconda3/envs/parseq/lib/python3.7/site-packages/torch/nn/functional.py:5180:0
  %onnx::Reshape_4832 : Float(1, 384, strides=[384, 1], requires_grad=0, device=cpu) = onnx::Gemm[alpha=1., beta=1., transB=1, onnx_name="Gemm_2978"](%onnx::Gemm_4831, %decoder.layers.0.self_attn.out_proj.weight, %decoder.layers.0.self_attn.out_proj.bias) # /home/ashishpapanai/miniconda3/envs/parseq/lib/python3.7/site-packages/torch/nn/functional.py:5181:0
  %onnx::Transpose_4841 : Float(1, 1, 384, strides=[384, 384, 1], requires_grad=0, device=cpu) = onnx::Reshape[allowzero=0, onnx_name="Reshape_2979"](%onnx::Reshape_4832, %onnx::Reshape_5916) # /home/ashishpapanai/miniconda3/envs/parseq/lib/python3.7/site-packages/torch/nn/functional.py:5182:0
  %input.704 : Float(1, 1, 384, strides=[384, 384, 1], requires_grad=0, device=cpu) = onnx::Transpose[perm=[1, 0, 2], onnx_name="Transpose_2980"](%onnx::Transpose_4841) # /home/ashishpapanai/miniconda3/envs/parseq/lib/python3.7/site-packages/torch/nn/modules/activation.py:1162:0
  %input.708 : Float(1, 1, 384, strides=[384, 384, 1], requires_grad=0, device=cpu) = onnx::Add[onnx_name="Add_2981"](%input.688, %input.704) # /home/ashishpapanai/Desktop/MAVI/parseq/strhub/models/parseq/modules.py:65:0
  %onnx::Sub_4844 : Float(1, 1, 1, strides=[1, 1, 1], device=cpu) = onnx::ReduceMean[axes=[-1], onnx_name="ReduceMean_2982"](%input.708) # /home/ashishpapanai/miniconda3/envs/parseq/lib/python3.7/site-packages/torch/nn/functional.py:2503:0
  %onnx::Pow_4845 : Float(1, 1, 384, strides=[384, 384, 1], device=cpu) = onnx::Sub[onnx_name="Sub_2983"](%input.708, %onnx::Sub_4844) # /home/ashishpapanai/miniconda3/envs/parseq/lib/python3.7/site-packages/torch/nn/functional.py:2503:0
  %onnx::Pow_4846 : Float(requires_grad=0, device=cpu) = onnx::Constant[value={2}, onnx_name="Constant_2984"]() # /home/ashishpapanai/miniconda3/envs/parseq/lib/python3.7/site-packages/torch/nn/functional.py:2503:0
  %onnx::ReduceMean_4847 : Float(1, 1, 384, strides=[384, 384, 1], device=cpu) = onnx::Pow[onnx_name="Pow_2985"](%onnx::Pow_4845, %onnx::Pow_4846) # /home/ashishpapanai/miniconda3/envs/parseq/lib/python3.7/site-packages/torch/nn/functional.py:2503:0
  %onnx::Add_4848 : Float(1, 1, 1, strides=[1, 1, 1], device=cpu) = onnx::ReduceMean[axes=[-1], onnx_name="ReduceMean_2986"](%onnx::ReduceMean_4847) # /home/ashishpapanai/miniconda3/envs/parseq/lib/python3.7/site-packages/torch/nn/functional.py:2503:0
  %onnx::Add_4849 : Float(requires_grad=0, device=cpu) = onnx::Constant[value={1e-05}, onnx_name="Constant_2987"]() # /home/ashishpapanai/miniconda3/envs/parseq/lib/python3.7/site-packages/torch/nn/functional.py:2503:0
  %onnx::Sqrt_4850 : Float(1, 1, 1, strides=[1, 1, 1], device=cpu) = onnx::Add[onnx_name="Add_2988"](%onnx::Add_4848, %onnx::Add_4849) # /home/ashishpapanai/miniconda3/envs/parseq/lib/python3.7/site-packages/torch/nn/functional.py:2503:0
  %onnx::Div_4851 : Float(1, 1, 1, strides=[1, 1, 1], device=cpu) = onnx::Sqrt[onnx_name="Sqrt_2989"](%onnx::Sqrt_4850) # /home/ashishpapanai/miniconda3/envs/parseq/lib/python3.7/site-packages/torch/nn/functional.py:2503:0
  %onnx::Mul_4852 : Float(1, 1, 384, strides=[384, 384, 1], device=cpu) = onnx::Div[onnx_name="Div_2990"](%onnx::Pow_4845, %onnx::Div_4851) # /home/ashishpapanai/miniconda3/envs/parseq/lib/python3.7/site-packages/torch/nn/functional.py:2503:0
  %onnx::Add_4853 : Float(1, 1, 384, strides=[384, 384, 1], device=cpu) = onnx::Mul[onnx_name="Mul_2991"](%onnx::Mul_4852, %decoder.layers.0.norm1.weight) # /home/ashishpapanai/miniconda3/envs/parseq/lib/python3.7/site-packages/torch/nn/functional.py:2503:0
  %query.151 : Float(1, 1, 384, strides=[384, 384, 1], requires_grad=0, device=cpu) = onnx::Add[onnx_name="Add_2992"](%onnx::Add_4853, %decoder.layers.0.norm1.bias) # /home/ashishpapanai/miniconda3/envs/parseq/lib/python3.7/site-packages/torch/nn/functional.py:2503:0
  %query.155 : Float(1, 1, 384, strides=[384, 384, 1], requires_grad=0, device=cpu) = onnx::Transpose[perm=[1, 0, 2], onnx_name="Transpose_2993"](%query.151) # /home/ashishpapanai/miniconda3/envs/parseq/lib/python3.7/site-packages/torch/nn/modules/activation.py:1136:0
  %key.119 : Float(128, 1, 384, strides=[384, 49152, 1], requires_grad=0, device=cpu) = onnx::Transpose[perm=[1, 0, 2], onnx_name="Transpose_2994"](%key) # /home/ashishpapanai/miniconda3/envs/parseq/lib/python3.7/site-packages/torch/nn/modules/activation.py:1136:0
  %onnx::Add_4887 : Float(1, 1, 384, strides=[384, 384, 1], device=cpu) = onnx::MatMul[onnx_name="MatMul_2995"](%query.155, %onnx::MatMul_5929) # /home/ashishpapanai/miniconda3/envs/parseq/lib/python3.7/site-packages/torch/nn/functional.py:4753:0
  %onnx::Reshape_4888 : Float(1, 1, 384, strides=[384, 384, 1], requires_grad=0, device=cpu) = onnx::Add[onnx_name="Add_2996"](%onnx::Add_5926, %onnx::Add_4887) # /home/ashishpapanai/miniconda3/envs/parseq/lib/python3.7/site-packages/torch/nn/functional.py:4753:0
  %onnx::Add_4890 : Float(128, 1, 768, strides=[768, 768, 1], device=cpu) = onnx::MatMul[onnx_name="MatMul_2997"](%key.119, %onnx::MatMul_5930) # /home/ashishpapanai/miniconda3/envs/parseq/lib/python3.7/site-packages/torch/nn/functional.py:4753:0
  %onnx::Shape_4891 : Float(128, 1, 768, strides=[768, 768, 1], requires_grad=0, device=cpu) = onnx::Add[onnx_name="Add_2998"](%onnx::Add_5928, %onnx::Add_4890) # /home/ashishpapanai/miniconda3/envs/parseq/lib/python3.7/site-packages/torch/nn/functional.py:4753:0
  %onnx::Gather_4892 : Long(3, strides=[1], device=cpu) = onnx::Shape[onnx_name="Shape_2999"](%onnx::Shape_4891) # /home/ashishpapanai/miniconda3/envs/parseq/lib/python3.7/site-packages/torch/nn/functional.py:4753:0
  %onnx::Gather_4893 : Long(1, strides=[1], device=cpu) = onnx::Constant[value={-1}, onnx_name="Constant_3000"]() # /home/ashishpapanai/miniconda3/envs/parseq/lib/python3.7/site-packages/torch/nn/functional.py:4753:0
  %onnx::Add_4894 : Long(1, strides=[1], device=cpu) = onnx::Gather[axis=0, onnx_name="Gather_3001"](%onnx::Gather_4892, %onnx::Gather_4893) # /home/ashishpapanai/miniconda3/envs/parseq/lib/python3.7/site-packages/torch/nn/functional.py:4753:0
  %onnx::Slice_4895 : Long(1, strides=[1], device=cpu) = onnx::Constant[value={0}, onnx_name="Constant_3002"]() # /home/ashishpapanai/miniconda3/envs/parseq/lib/python3.7/site-packages/torch/nn/functional.py:4753:0
  %onnx::Add_4896 : Long(1, strides=[1], requires_grad=0, device=cpu) = onnx::Constant[value={1}, onnx_name="Constant_3003"]() # /home/ashishpapanai/miniconda3/envs/parseq/lib/python3.7/site-packages/torch/nn/functional.py:4753:0
  %onnx::Div_4897 : Long(1, strides=[1], device=cpu) = onnx::Add[onnx_name="Add_3004"](%onnx::Add_4894, %onnx::Add_4896) # /home/ashishpapanai/miniconda3/envs/parseq/lib/python3.7/site-packages/torch/nn/functional.py:4753:0
  %onnx::Div_4898 : Long(1, strides=[1], requires_grad=0, device=cpu) = onnx::Constant[value={2}, onnx_name="Constant_3005"]() # /home/ashishpapanai/miniconda3/envs/parseq/lib/python3.7/site-packages/torch/nn/functional.py:4753:0
  %onnx::Mul_4899 : Long(1, strides=[1], device=cpu) = onnx::Div[onnx_name="Div_3006"](%onnx::Div_4897, %onnx::Div_4898) # /home/ashishpapanai/miniconda3/envs/parseq/lib/python3.7/site-packages/torch/nn/functional.py:4753:0
  %onnx::Mul_4900 : Long(1, strides=[1], requires_grad=0, device=cpu) = onnx::Constant[value={1}, onnx_name="Constant_3007"]() # /home/ashishpapanai/miniconda3/envs/parseq/lib/python3.7/site-packages/torch/nn/functional.py:4753:0
  %onnx::Slice_4901 : Long(1, strides=[1], device=cpu) = onnx::Mul[onnx_name="Mul_3008"](%onnx::Mul_4899, %onnx::Mul_4900) # /home/ashishpapanai/miniconda3/envs/parseq/lib/python3.7/site-packages/torch/nn/functional.py:4753:0
  %onnx::Reshape_4902 : Float(128, 1, 384, strides=[384, 384, 1], requires_grad=0, device=cpu) = onnx::Slice[onnx_name="Slice_3009"](%onnx::Shape_4891, %onnx::Slice_4895, %onnx::Slice_4901, %onnx::Gather_4893) # /home/ashishpapanai/miniconda3/envs/parseq/lib/python3.7/site-packages/torch/nn/functional.py:4753:0
  %onnx::Mul_4903 : Long(1, strides=[1], requires_grad=0, device=cpu) = onnx::Constant[value={2}, onnx_name="Constant_3010"]() # /home/ashishpapanai/miniconda3/envs/parseq/lib/python3.7/site-packages/torch/nn/functional.py:4753:0
  %onnx::Slice_4904 : Long(1, strides=[1], device=cpu) = onnx::Mul[onnx_name="Mul_3011"](%onnx::Mul_4899, %onnx::Mul_4903) # /home/ashishpapanai/miniconda3/envs/parseq/lib/python3.7/site-packages/torch/nn/functional.py:4753:0
  %onnx::Reshape_4905 : Float(128, 1, 384, strides=[384, 384, 1], requires_grad=0, device=cpu) = onnx::Slice[onnx_name="Slice_3012"](%onnx::Shape_4891, %onnx::Slice_4901, %onnx::Slice_4904, %onnx::Gather_4893) # /home/ashishpapanai/miniconda3/envs/parseq/lib/python3.7/site-packages/torch/nn/functional.py:4753:0
  %onnx::Transpose_4914 : Float(1, 12, 32, strides=[384, 32, 1], requires_grad=0, device=cpu) = onnx::Reshape[allowzero=0, onnx_name="Reshape_3013"](%onnx::Reshape_4888, %onnx::Reshape_5934) # /home/ashishpapanai/miniconda3/envs/parseq/lib/python3.7/site-packages/torch/nn/functional.py:5120:0
  %q.75 : Float(12, 1, 32, strides=[32, 384, 1], requires_grad=0, device=cpu) = onnx::Transpose[perm=[1, 0, 2], onnx_name="Transpose_3014"](%onnx::Transpose_4914) # /home/ashishpapanai/miniconda3/envs/parseq/lib/python3.7/site-packages/torch/nn/functional.py:5120:0
  %onnx::Transpose_4925 : Float(128, 12, 32, strides=[384, 32, 1], requires_grad=0, device=cpu) = onnx::Reshape[allowzero=0, onnx_name="Reshape_3015"](%onnx::Reshape_4902, %onnx::Reshape_5938) # /home/ashishpapanai/miniconda3/envs/parseq/lib/python3.7/site-packages/torch/nn/functional.py:5122:0
  %onnx::Transpose_4935 : Float(128, 12, 32, strides=[384, 32, 1], requires_grad=0, device=cpu) = onnx::Reshape[allowzero=0, onnx_name="Reshape_3016"](%onnx::Reshape_4905, %onnx::Reshape_5942) # /home/ashishpapanai/miniconda3/envs/parseq/lib/python3.7/site-packages/torch/nn/functional.py:5131:0
  %v.75 : Float(12, 128, 32, strides=[32, 384, 1], requires_grad=0, device=cpu) = onnx::Transpose[perm=[1, 0, 2], onnx_name="Transpose_3017"](%onnx::Transpose_4935) # /home/ashishpapanai/miniconda3/envs/parseq/lib/python3.7/site-packages/torch/nn/functional.py:5131:0
  %onnx::Div_4937 : Float(requires_grad=0, device=cpu) = onnx::Constant[value={5.65685}, onnx_name="Constant_3018"]()
  %onnx::MatMul_4938 : Float(12, 1, 32, strides=[32, 384, 1], requires_grad=0, device=cpu) = onnx::Div[onnx_name="Div_3019"](%q.75, %onnx::Div_4937) # /home/ashishpapanai/miniconda3/envs/parseq/lib/python3.7/site-packages/torch/nn/functional.py:4849:0
  %onnx::MatMul_4939 : Float(12, 32, 128, strides=[32, 1, 384], requires_grad=0, device=cpu) = onnx::Transpose[perm=[1, 2, 0], onnx_name="Transpose_3020"](%onnx::Transpose_4925) # /home/ashishpapanai/miniconda3/envs/parseq/lib/python3.7/site-packages/torch/nn/functional.py:4854:0
  %attn.75 : Float(12, 1, 128, strides=[128, 128, 1], requires_grad=0, device=cpu) = onnx::MatMul[onnx_name="MatMul_3021"](%onnx::MatMul_4938, %onnx::MatMul_4939) # /home/ashishpapanai/miniconda3/envs/parseq/lib/python3.7/site-packages/torch/nn/functional.py:4854:0
  %onnx::MatMul_4941 : Float(12, 1, 128, strides=[128, 128, 1], requires_grad=0, device=cpu) = onnx::Softmax[axis=-1, onnx_name="Softmax_3022"](%attn.75) # /home/ashishpapanai/miniconda3/envs/parseq/lib/python3.7/site-packages/torch/nn/functional.py:1834:0
  %onnx::Transpose_4942 : Float(12, 1, 32, strides=[32, 32, 1], requires_grad=0, device=cpu) = onnx::MatMul[onnx_name="MatMul_3023"](%onnx::MatMul_4941, %v.75) # /home/ashishpapanai/miniconda3/envs/parseq/lib/python3.7/site-packages/torch/nn/functional.py:4860:0
  %onnx::Reshape_4943 : Float(1, 12, 32, strides=[32, 32, 1], requires_grad=0, device=cpu) = onnx::Transpose[perm=[1, 0, 2], onnx_name="Transpose_3024"](%onnx::Transpose_4942) # /home/ashishpapanai/miniconda3/envs/parseq/lib/python3.7/site-packages/torch/nn/functional.py:5180:0
  %onnx::Gemm_4950 : Float(1, 384, strides=[384, 1], requires_grad=0, device=cpu) = onnx::Reshape[allowzero=0, onnx_name="Reshape_3025"](%onnx::Reshape_4943, %onnx::Reshape_5945) # /home/ashishpapanai/miniconda3/envs/parseq/lib/python3.7/site-packages/torch/nn/functional.py:5180:0
  %onnx::Reshape_4951 : Float(1, 384, strides=[384, 1], requires_grad=0, device=cpu) = onnx::Gemm[alpha=1., beta=1., transB=1, onnx_name="Gemm_3026"](%onnx::Gemm_4950, %decoder.layers.0.cross_attn.out_proj.weight, %decoder.layers.0.cross_attn.out_proj.bias) # /home/ashishpapanai/miniconda3/envs/parseq/lib/python3.7/site-packages/torch/nn/functional.py:5181:0
  %onnx::Transpose_4960 : Float(1, 1, 384, strides=[384, 384, 1], requires_grad=0, device=cpu) = onnx::Reshape[allowzero=0, onnx_name="Reshape_3027"](%onnx::Reshape_4951, %onnx::Reshape_5949) # /home/ashishpapanai/miniconda3/envs/parseq/lib/python3.7/site-packages/torch/nn/functional.py:5182:0
  %input.712 : Float(1, 1, 384, strides=[384, 384, 1], requires_grad=0, device=cpu) = onnx::Transpose[perm=[1, 0, 2], onnx_name="Transpose_3028"](%onnx::Transpose_4960) # /home/ashishpapanai/miniconda3/envs/parseq/lib/python3.7/site-packages/torch/nn/modules/activation.py:1162:0
  %input.716 : Float(1, 1, 384, strides=[384, 384, 1], requires_grad=0, device=cpu) = onnx::Add[onnx_name="Add_3029"](%input.708, %input.712) # /home/ashishpapanai/Desktop/MAVI/parseq/strhub/models/parseq/modules.py:68:0
  %onnx::Sub_4963 : Float(1, 1, 1, strides=[1, 1, 1], device=cpu) = onnx::ReduceMean[axes=[-1], onnx_name="ReduceMean_3030"](%input.716) # /home/ashishpapanai/miniconda3/envs/parseq/lib/python3.7/site-packages/torch/nn/functional.py:2503:0
  %onnx::Pow_4964 : Float(1, 1, 384, strides=[384, 384, 1], device=cpu) = onnx::Sub[onnx_name="Sub_3031"](%input.716, %onnx::Sub_4963) # /home/ashishpapanai/miniconda3/envs/parseq/lib/python3.7/site-packages/torch/nn/functional.py:2503:0
  %onnx::Pow_4965 : Float(requires_grad=0, device=cpu) = onnx::Constant[value={2}, onnx_name="Constant_3032"]() # /home/ashishpapanai/miniconda3/envs/parseq/lib/python3.7/site-packages/torch/nn/functional.py:2503:0
  %onnx::ReduceMean_4966 : Float(1, 1, 384, strides=[384, 384, 1], device=cpu) = onnx::Pow[onnx_name="Pow_3033"](%onnx::Pow_4964, %onnx::Pow_4965) # /home/ashishpapanai/miniconda3/envs/parseq/lib/python3.7/site-packages/torch/nn/functional.py:2503:0
  %onnx::Add_4967 : Float(1, 1, 1, strides=[1, 1, 1], device=cpu) = onnx::ReduceMean[axes=[-1], onnx_name="ReduceMean_3034"](%onnx::ReduceMean_4966) # /home/ashishpapanai/miniconda3/envs/parseq/lib/python3.7/site-packages/torch/nn/functional.py:2503:0
  %onnx::Add_4968 : Float(requires_grad=0, device=cpu) = onnx::Constant[value={1e-05}, onnx_name="Constant_3035"]() # /home/ashishpapanai/miniconda3/envs/parseq/lib/python3.7/site-packages/torch/nn/functional.py:2503:0
  %onnx::Sqrt_4969 : Float(1, 1, 1, strides=[1, 1, 1], device=cpu) = onnx::Add[onnx_name="Add_3036"](%onnx::Add_4967, %onnx::Add_4968) # /home/ashishpapanai/miniconda3/envs/parseq/lib/python3.7/site-packages/torch/nn/functional.py:2503:0
  %onnx::Div_4970 : Float(1, 1, 1, strides=[1, 1, 1], device=cpu) = onnx::Sqrt[onnx_name="Sqrt_3037"](%onnx::Sqrt_4969) # /home/ashishpapanai/miniconda3/envs/parseq/lib/python3.7/site-packages/torch/nn/functional.py:2503:0
  %onnx::Mul_4971 : Float(1, 1, 384, strides=[384, 384, 1], device=cpu) = onnx::Div[onnx_name="Div_3038"](%onnx::Pow_4964, %onnx::Div_4970) # /home/ashishpapanai/miniconda3/envs/parseq/lib/python3.7/site-packages/torch/nn/functional.py:2503:0
  %onnx::Add_4972 : Float(1, 1, 384, strides=[384, 384, 1], device=cpu) = onnx::Mul[onnx_name="Mul_3039"](%onnx::Mul_4971, %decoder.layers.0.norm2.weight) # /home/ashishpapanai/miniconda3/envs/parseq/lib/python3.7/site-packages/torch/nn/functional.py:2503:0
  %onnx::MatMul_4973 : Float(1, 1, 384, strides=[384, 384, 1], requires_grad=0, device=cpu) = onnx::Add[onnx_name="Add_3040"](%onnx::Add_4972, %decoder.layers.0.norm2.bias) # /home/ashishpapanai/miniconda3/envs/parseq/lib/python3.7/site-packages/torch/nn/functional.py:2503:0
  %onnx::Add_4975 : Float(1, 1, 1536, strides=[1536, 1536, 1], device=cpu) = onnx::MatMul[onnx_name="MatMul_3041"](%onnx::MatMul_4973, %onnx::MatMul_5950) # /home/ashishpapanai/miniconda3/envs/parseq/lib/python3.7/site-packages/torch/nn/modules/linear.py:114:0
  %onnx::Div_4976 : Float(1, 1, 1536, strides=[1536, 1536, 1], requires_grad=0, device=cpu) = onnx::Add[onnx_name="Add_3042"](%decoder.layers.0.linear1.bias, %onnx::Add_4975) # /home/ashishpapanai/miniconda3/envs/parseq/lib/python3.7/site-packages/torch/nn/modules/linear.py:114:0
  %onnx::Div_4977 : Float(requires_grad=0, device=cpu) = onnx::Constant[value={1.41421}, onnx_name="Constant_3043"]() # /home/ashishpapanai/Desktop/MAVI/parseq/strhub/models/parseq/modules.py:70:0
  %onnx::Erf_4978 : Float(1, 1, 1536, strides=[1536, 1536, 1], device=cpu) = onnx::Div[onnx_name="Div_3044"](%onnx::Div_4976, %onnx::Div_4977) # /home/ashishpapanai/Desktop/MAVI/parseq/strhub/models/parseq/modules.py:70:0
  %onnx::Add_4979 : Float(1, 1, 1536, strides=[1536, 1536, 1], device=cpu) = onnx::Erf[onnx_name="Erf_3045"](%onnx::Erf_4978) # /home/ashishpapanai/Desktop/MAVI/parseq/strhub/models/parseq/modules.py:70:0
  %onnx::Add_4980 : Float(requires_grad=0, device=cpu) = onnx::Constant[value={1}, onnx_name="Constant_3046"]() # /home/ashishpapanai/Desktop/MAVI/parseq/strhub/models/parseq/modules.py:70:0
  %onnx::Mul_4981 : Float(1, 1, 1536, strides=[1536, 1536, 1], device=cpu) = onnx::Add[onnx_name="Add_3047"](%onnx::Add_4979, %onnx::Add_4980) # /home/ashishpapanai/Desktop/MAVI/parseq/strhub/models/parseq/modules.py:70:0
  %onnx::Mul_4982 : Float(1, 1, 1536, strides=[1536, 1536, 1], device=cpu) = onnx::Mul[onnx_name="Mul_3048"](%onnx::Div_4976, %onnx::Mul_4981) # /home/ashishpapanai/Desktop/MAVI/parseq/strhub/models/parseq/modules.py:70:0
  %onnx::Mul_4983 : Float(requires_grad=0, device=cpu) = onnx::Constant[value={0.5}, onnx_name="Constant_3049"]() # /home/ashishpapanai/Desktop/MAVI/parseq/strhub/models/parseq/modules.py:70:0
  %input.720 : Float(1, 1, 1536, strides=[1536, 1536, 1], requires_grad=0, device=cpu) = onnx::Mul[onnx_name="Mul_3050"](%onnx::Mul_4982, %onnx::Mul_4983) # /home/ashishpapanai/Desktop/MAVI/parseq/strhub/models/parseq/modules.py:70:0
  %onnx::Add_4986 : Float(1, 1, 384, strides=[384, 384, 1], device=cpu) = onnx::MatMul[onnx_name="MatMul_3051"](%input.720, %onnx::MatMul_5951) # /home/ashishpapanai/miniconda3/envs/parseq/lib/python3.7/site-packages/torch/nn/modules/linear.py:114:0
  %input.724 : Float(1, 1, 384, strides=[384, 384, 1], requires_grad=0, device=cpu) = onnx::Add[onnx_name="Add_3052"](%decoder.layers.0.linear2.bias, %onnx::Add_4986) # /home/ashishpapanai/miniconda3/envs/parseq/lib/python3.7/site-packages/torch/nn/modules/linear.py:114:0
  %input.728 : Float(1, 1, 384, strides=[384, 384, 1], requires_grad=0, device=cpu) = onnx::Add[onnx_name="Add_3053"](%input.716, %input.724) # /home/ashishpapanai/Desktop/MAVI/parseq/strhub/models/parseq/modules.py:71:0
  %onnx::Sub_4989 : Float(1, 1, 1, strides=[1, 1, 1], device=cpu) = onnx::ReduceMean[axes=[-1], onnx_name="ReduceMean_3054"](%input.728) # /home/ashishpapanai/miniconda3/envs/parseq/lib/python3.7/site-packages/torch/nn/functional.py:2503:0
  %onnx::Pow_4990 : Float(1, 1, 384, strides=[384, 384, 1], device=cpu) = onnx::Sub[onnx_name="Sub_3055"](%input.728, %onnx::Sub_4989) # /home/ashishpapanai/miniconda3/envs/parseq/lib/python3.7/site-packages/torch/nn/functional.py:2503:0
  %onnx::Pow_4991 : Float(requires_grad=0, device=cpu) = onnx::Constant[value={2}, onnx_name="Constant_3056"]() # /home/ashishpapanai/miniconda3/envs/parseq/lib/python3.7/site-packages/torch/nn/functional.py:2503:0
  %onnx::ReduceMean_4992 : Float(1, 1, 384, strides=[384, 384, 1], device=cpu) = onnx::Pow[onnx_name="Pow_3057"](%onnx::Pow_4990, %onnx::Pow_4991) # /home/ashishpapanai/miniconda3/envs/parseq/lib/python3.7/site-packages/torch/nn/functional.py:2503:0
  %onnx::Add_4993 : Float(1, 1, 1, strides=[1, 1, 1], device=cpu) = onnx::ReduceMean[axes=[-1], onnx_name="ReduceMean_3058"](%onnx::ReduceMean_4992) # /home/ashishpapanai/miniconda3/envs/parseq/lib/python3.7/site-packages/torch/nn/functional.py:2503:0
  %onnx::Add_4994 : Float(requires_grad=0, device=cpu) = onnx::Constant[value={1e-05}, onnx_name="Constant_3059"]() # /home/ashishpapanai/miniconda3/envs/parseq/lib/python3.7/site-packages/torch/nn/functional.py:2503:0
  %onnx::Sqrt_4995 : Float(1, 1, 1, strides=[1, 1, 1], device=cpu) = onnx::Add[onnx_name="Add_3060"](%onnx::Add_4993, %onnx::Add_4994) # /home/ashishpapanai/miniconda3/envs/parseq/lib/python3.7/site-packages/torch/nn/functional.py:2503:0
  %onnx::Div_4996 : Float(1, 1, 1, strides=[1, 1, 1], device=cpu) = onnx::Sqrt[onnx_name="Sqrt_3061"](%onnx::Sqrt_4995) # /home/ashishpapanai/miniconda3/envs/parseq/lib/python3.7/site-packages/torch/nn/functional.py:2503:0
  %onnx::Mul_4997 : Float(1, 1, 384, strides=[384, 384, 1], device=cpu) = onnx::Div[onnx_name="Div_3062"](%onnx::Pow_4990, %onnx::Div_4996) # /home/ashishpapanai/miniconda3/envs/parseq/lib/python3.7/site-packages/torch/nn/functional.py:2503:0
  %onnx::Add_4998 : Float(1, 1, 384, strides=[384, 384, 1], device=cpu) = onnx::Mul[onnx_name="Mul_3063"](%onnx::Mul_4997, %decoder.norm.weight) # /home/ashishpapanai/miniconda3/envs/parseq/lib/python3.7/site-packages/torch/nn/functional.py:2503:0
  %onnx::MatMul_4999 : Float(1, 1, 384, strides=[384, 384, 1], requires_grad=0, device=cpu) = onnx::Add[onnx_name="Add_3064"](%onnx::Add_4998, %decoder.norm.bias) # /home/ashishpapanai/miniconda3/envs/parseq/lib/python3.7/site-packages/torch/nn/functional.py:2503:0
  %onnx::Add_5001 : Float(1, 1, 95, strides=[95, 95, 1], device=cpu) = onnx::MatMul[onnx_name="MatMul_3065"](%onnx::MatMul_4999, %onnx::MatMul_5952) # /home/ashishpapanai/miniconda3/envs/parseq/lib/python3.7/site-packages/torch/nn/modules/linear.py:114:0
  %onnx::Concat_5002 : Float(1, 1, 95, strides=[95, 95, 1], requires_grad=0, device=cpu) = onnx::Add[onnx_name="Add_3066"](%head.bias, %onnx::Add_5001) # /home/ashishpapanai/miniconda3/envs/parseq/lib/python3.7/site-packages/torch/nn/modules/linear.py:114:0
  %output : Float(1, 10, 95, strides=[950, 95, 1], requires_grad=0, device=cpu) = onnx::Concat[axis=1, onnx_name="Concat_3067"](%onnx::Squeeze_1645, %onnx::Squeeze_2018, %onnx::Squeeze_2391, %onnx::Squeeze_2764, %onnx::Squeeze_3137, %onnx::Squeeze_3510, %onnx::Squeeze_3883, %onnx::Squeeze_4256, %onnx::Squeeze_4629, %onnx::Concat_5002) # /home/ashishpapanai/Desktop/MAVI/parseq/strhub/models/parseq/system.py:132:0
  return (%output)

Additional keyword arguments: {}
Convert to onnx successfully!
demo_images/art-01107.jpg: CHEWBACCA
