Exported graph: graph(%input : Float(1, 3, 32, 128, strides=[12288, 4096, 128, 1], requires_grad=0, device=cpu),
      %encoder.pos_embed : Float(1, 128, 384, strides=[49152, 384, 1], requires_grad=1, device=cpu),
      %encoder.patch_embed.proj.weight : Float(384, 3, 4, 8, strides=[96, 32, 8, 1], requires_grad=1, device=cpu),
      %encoder.patch_embed.proj.bias : Float(384, strides=[1], requires_grad=1, device=cpu),
      %encoder.blocks.0.norm1.weight : Float(384, strides=[1], requires_grad=1, device=cpu),
      %encoder.blocks.0.norm1.bias : Float(384, strides=[1], requires_grad=1, device=cpu),
      %encoder.blocks.0.attn.qkv.bias : Float(1152, strides=[1], requires_grad=1, device=cpu),
      %encoder.blocks.0.attn.proj.bias : Float(384, strides=[1], requires_grad=1, device=cpu),
      %encoder.blocks.0.norm2.weight : Float(384, strides=[1], requires_grad=1, device=cpu),
      %encoder.blocks.0.norm2.bias : Float(384, strides=[1], requires_grad=1, device=cpu),
      %encoder.blocks.0.mlp.fc1.bias : Float(1536, strides=[1], requires_grad=1, device=cpu),
      %encoder.blocks.0.mlp.fc2.bias : Float(384, strides=[1], requires_grad=1, device=cpu),
      %encoder.blocks.1.norm1.weight : Float(384, strides=[1], requires_grad=1, device=cpu),
      %encoder.blocks.1.norm1.bias : Float(384, strides=[1], requires_grad=1, device=cpu),
      %encoder.blocks.1.attn.qkv.bias : Float(1152, strides=[1], requires_grad=1, device=cpu),
      %encoder.blocks.1.attn.proj.bias : Float(384, strides=[1], requires_grad=1, device=cpu),
      %encoder.blocks.1.norm2.weight : Float(384, strides=[1], requires_grad=1, device=cpu),
      %encoder.blocks.1.norm2.bias : Float(384, strides=[1], requires_grad=1, device=cpu),
      %encoder.blocks.1.mlp.fc1.bias : Float(1536, strides=[1], requires_grad=1, device=cpu),
      %encoder.blocks.1.mlp.fc2.bias : Float(384, strides=[1], requires_grad=1, device=cpu),
      %encoder.blocks.2.norm1.weight : Float(384, strides=[1], requires_grad=1, device=cpu),
      %encoder.blocks.2.norm1.bias : Float(384, strides=[1], requires_grad=1, device=cpu),
      %encoder.blocks.2.attn.qkv.bias : Float(1152, strides=[1], requires_grad=1, device=cpu),
      %encoder.blocks.2.attn.proj.bias : Float(384, strides=[1], requires_grad=1, device=cpu),
      %encoder.blocks.2.norm2.weight : Float(384, strides=[1], requires_grad=1, device=cpu),
      %encoder.blocks.2.norm2.bias : Float(384, strides=[1], requires_grad=1, device=cpu),
      %encoder.blocks.2.mlp.fc1.bias : Float(1536, strides=[1], requires_grad=1, device=cpu),
      %encoder.blocks.2.mlp.fc2.bias : Float(384, strides=[1], requires_grad=1, device=cpu),
      %encoder.blocks.3.norm1.weight : Float(384, strides=[1], requires_grad=1, device=cpu),
      %encoder.blocks.3.norm1.bias : Float(384, strides=[1], requires_grad=1, device=cpu),
      %encoder.blocks.3.attn.qkv.bias : Float(1152, strides=[1], requires_grad=1, device=cpu),
      %encoder.blocks.3.attn.proj.bias : Float(384, strides=[1], requires_grad=1, device=cpu),
      %encoder.blocks.3.norm2.weight : Float(384, strides=[1], requires_grad=1, device=cpu),
      %encoder.blocks.3.norm2.bias : Float(384, strides=[1], requires_grad=1, device=cpu),
      %encoder.blocks.3.mlp.fc1.bias : Float(1536, strides=[1], requires_grad=1, device=cpu),
      %encoder.blocks.3.mlp.fc2.bias : Float(384, strides=[1], requires_grad=1, device=cpu),
      %encoder.blocks.4.norm1.weight : Float(384, strides=[1], requires_grad=1, device=cpu),
      %encoder.blocks.4.norm1.bias : Float(384, strides=[1], requires_grad=1, device=cpu),
      %encoder.blocks.4.attn.qkv.bias : Float(1152, strides=[1], requires_grad=1, device=cpu),
      %encoder.blocks.4.attn.proj.bias : Float(384, strides=[1], requires_grad=1, device=cpu),
      %encoder.blocks.4.norm2.weight : Float(384, strides=[1], requires_grad=1, device=cpu),
      %encoder.blocks.4.norm2.bias : Float(384, strides=[1], requires_grad=1, device=cpu),
      %encoder.blocks.4.mlp.fc1.bias : Float(1536, strides=[1], requires_grad=1, device=cpu),
      %encoder.blocks.4.mlp.fc2.bias : Float(384, strides=[1], requires_grad=1, device=cpu),
      %encoder.blocks.5.norm1.weight : Float(384, strides=[1], requires_grad=1, device=cpu),
      %encoder.blocks.5.norm1.bias : Float(384, strides=[1], requires_grad=1, device=cpu),
      %encoder.blocks.5.attn.qkv.bias : Float(1152, strides=[1], requires_grad=1, device=cpu),
      %encoder.blocks.5.attn.proj.bias : Float(384, strides=[1], requires_grad=1, device=cpu),
      %encoder.blocks.5.norm2.weight : Float(384, strides=[1], requires_grad=1, device=cpu),
      %encoder.blocks.5.norm2.bias : Float(384, strides=[1], requires_grad=1, device=cpu),
      %encoder.blocks.5.mlp.fc1.bias : Float(1536, strides=[1], requires_grad=1, device=cpu),
      %encoder.blocks.5.mlp.fc2.bias : Float(384, strides=[1], requires_grad=1, device=cpu),
      %encoder.blocks.6.norm1.weight : Float(384, strides=[1], requires_grad=1, device=cpu),
      %encoder.blocks.6.norm1.bias : Float(384, strides=[1], requires_grad=1, device=cpu),
      %encoder.blocks.6.attn.qkv.bias : Float(1152, strides=[1], requires_grad=1, device=cpu),
      %encoder.blocks.6.attn.proj.bias : Float(384, strides=[1], requires_grad=1, device=cpu),
      %encoder.blocks.6.norm2.weight : Float(384, strides=[1], requires_grad=1, device=cpu),
      %encoder.blocks.6.norm2.bias : Float(384, strides=[1], requires_grad=1, device=cpu),
      %encoder.blocks.6.mlp.fc1.bias : Float(1536, strides=[1], requires_grad=1, device=cpu),
      %encoder.blocks.6.mlp.fc2.bias : Float(384, strides=[1], requires_grad=1, device=cpu),
      %encoder.blocks.7.norm1.weight : Float(384, strides=[1], requires_grad=1, device=cpu),
      %encoder.blocks.7.norm1.bias : Float(384, strides=[1], requires_grad=1, device=cpu),
      %encoder.blocks.7.attn.qkv.bias : Float(1152, strides=[1], requires_grad=1, device=cpu),
      %encoder.blocks.7.attn.proj.bias : Float(384, strides=[1], requires_grad=1, device=cpu),
      %encoder.blocks.7.norm2.weight : Float(384, strides=[1], requires_grad=1, device=cpu),
      %encoder.blocks.7.norm2.bias : Float(384, strides=[1], requires_grad=1, device=cpu),
      %encoder.blocks.7.mlp.fc1.bias : Float(1536, strides=[1], requires_grad=1, device=cpu),
      %encoder.blocks.7.mlp.fc2.bias : Float(384, strides=[1], requires_grad=1, device=cpu),
      %encoder.blocks.8.norm1.weight : Float(384, strides=[1], requires_grad=1, device=cpu),
      %encoder.blocks.8.norm1.bias : Float(384, strides=[1], requires_grad=1, device=cpu),
      %encoder.blocks.8.attn.qkv.bias : Float(1152, strides=[1], requires_grad=1, device=cpu),
      %encoder.blocks.8.attn.proj.bias : Float(384, strides=[1], requires_grad=1, device=cpu),
      %encoder.blocks.8.norm2.weight : Float(384, strides=[1], requires_grad=1, device=cpu),
      %encoder.blocks.8.norm2.bias : Float(384, strides=[1], requires_grad=1, device=cpu),
      %encoder.blocks.8.mlp.fc1.bias : Float(1536, strides=[1], requires_grad=1, device=cpu),
      %encoder.blocks.8.mlp.fc2.bias : Float(384, strides=[1], requires_grad=1, device=cpu),
      %encoder.blocks.9.norm1.weight : Float(384, strides=[1], requires_grad=1, device=cpu),
      %encoder.blocks.9.norm1.bias : Float(384, strides=[1], requires_grad=1, device=cpu),
      %encoder.blocks.9.attn.qkv.bias : Float(1152, strides=[1], requires_grad=1, device=cpu),
      %encoder.blocks.9.attn.proj.bias : Float(384, strides=[1], requires_grad=1, device=cpu),
      %encoder.blocks.9.norm2.weight : Float(384, strides=[1], requires_grad=1, device=cpu),
      %encoder.blocks.9.norm2.bias : Float(384, strides=[1], requires_grad=1, device=cpu),
      %encoder.blocks.9.mlp.fc1.bias : Float(1536, strides=[1], requires_grad=1, device=cpu),
      %encoder.blocks.9.mlp.fc2.bias : Float(384, strides=[1], requires_grad=1, device=cpu),
      %encoder.blocks.10.norm1.weight : Float(384, strides=[1], requires_grad=1, device=cpu),
      %encoder.blocks.10.norm1.bias : Float(384, strides=[1], requires_grad=1, device=cpu),
      %encoder.blocks.10.attn.qkv.bias : Float(1152, strides=[1], requires_grad=1, device=cpu),
      %encoder.blocks.10.attn.proj.bias : Float(384, strides=[1], requires_grad=1, device=cpu),
      %encoder.blocks.10.norm2.weight : Float(384, strides=[1], requires_grad=1, device=cpu),
      %encoder.blocks.10.norm2.bias : Float(384, strides=[1], requires_grad=1, device=cpu),
      %encoder.blocks.10.mlp.fc1.bias : Float(1536, strides=[1], requires_grad=1, device=cpu),
      %encoder.blocks.10.mlp.fc2.bias : Float(384, strides=[1], requires_grad=1, device=cpu),
      %encoder.blocks.11.norm1.weight : Float(384, strides=[1], requires_grad=1, device=cpu),
      %encoder.blocks.11.norm1.bias : Float(384, strides=[1], requires_grad=1, device=cpu),
      %encoder.blocks.11.attn.qkv.bias : Float(1152, strides=[1], requires_grad=1, device=cpu),
      %encoder.blocks.11.attn.proj.bias : Float(384, strides=[1], requires_grad=1, device=cpu),
      %encoder.blocks.11.norm2.weight : Float(384, strides=[1], requires_grad=1, device=cpu),
      %encoder.blocks.11.norm2.bias : Float(384, strides=[1], requires_grad=1, device=cpu),
      %encoder.blocks.11.mlp.fc1.bias : Float(1536, strides=[1], requires_grad=1, device=cpu),
      %encoder.blocks.11.mlp.fc2.bias : Float(384, strides=[1], requires_grad=1, device=cpu),
      %encoder.norm.weight : Float(384, strides=[1], requires_grad=1, device=cpu),
      %encoder.norm.bias : Float(384, strides=[1], requires_grad=1, device=cpu),
      %decoder.layers.0.self_attn.out_proj.weight : Float(384, 384, strides=[384, 1], requires_grad=1, device=cpu),
      %decoder.layers.0.self_attn.out_proj.bias : Float(384, strides=[1], requires_grad=1, device=cpu),
      %decoder.layers.0.cross_attn.out_proj.weight : Float(384, 384, strides=[384, 1], requires_grad=1, device=cpu),
      %decoder.layers.0.cross_attn.out_proj.bias : Float(384, strides=[1], requires_grad=1, device=cpu),
      %decoder.layers.0.linear1.bias : Float(1536, strides=[1], requires_grad=1, device=cpu),
      %decoder.layers.0.linear2.bias : Float(384, strides=[1], requires_grad=1, device=cpu),
      %decoder.layers.0.norm1.weight : Float(384, strides=[1], requires_grad=1, device=cpu),
      %decoder.layers.0.norm1.bias : Float(384, strides=[1], requires_grad=1, device=cpu),
      %decoder.layers.0.norm2.weight : Float(384, strides=[1], requires_grad=1, device=cpu),
      %decoder.layers.0.norm2.bias : Float(384, strides=[1], requires_grad=1, device=cpu),
      %decoder.layers.0.norm_q.weight : Float(384, strides=[1], requires_grad=1, device=cpu),
      %decoder.layers.0.norm_q.bias : Float(384, strides=[1], requires_grad=1, device=cpu),
      %decoder.layers.0.norm_c.weight : Float(384, strides=[1], requires_grad=1, device=cpu),
      %decoder.layers.0.norm_c.bias : Float(384, strides=[1], requires_grad=1, device=cpu),
      %decoder.norm.weight : Float(384, strides=[1], requires_grad=1, device=cpu),
      %decoder.norm.bias : Float(384, strides=[1], requires_grad=1, device=cpu),
      %head.bias : Float(95, strides=[1], requires_grad=1, device=cpu),
      %text_embed.embedding.weight : Float(97, 384, strides=[384, 1], requires_grad=1, device=cpu),
      %onnx::MatMul_4666 : Float(384, 1152, strides=[1, 384], requires_grad=0, device=cpu),
      %onnx::Reshape_4672 : Long(5, strides=[1], requires_grad=0, device=cpu),
      %onnx::Reshape_4676 : Long(3, strides=[1], requires_grad=0, device=cpu),
      %onnx::MatMul_4677 : Float(384, 384, strides=[1, 384], requires_grad=0, device=cpu),
      %onnx::MatMul_4678 : Float(384, 1536, strides=[1, 384], requires_grad=0, device=cpu),
      %onnx::MatMul_4679 : Float(1536, 384, strides=[1, 1536], requires_grad=0, device=cpu),
      %onnx::MatMul_4680 : Float(384, 1152, strides=[1, 384], requires_grad=0, device=cpu),
      %onnx::MatMul_4691 : Float(384, 384, strides=[1, 384], requires_grad=0, device=cpu),
      %onnx::MatMul_4692 : Float(384, 1536, strides=[1, 384], requires_grad=0, device=cpu),
      %onnx::MatMul_4693 : Float(1536, 384, strides=[1, 1536], requires_grad=0, device=cpu),
      %onnx::MatMul_4694 : Float(384, 1152, strides=[1, 384], requires_grad=0, device=cpu),
      %onnx::MatMul_4705 : Float(384, 384, strides=[1, 384], requires_grad=0, device=cpu),
      %onnx::MatMul_4706 : Float(384, 1536, strides=[1, 384], requires_grad=0, device=cpu),
      %onnx::MatMul_4707 : Float(1536, 384, strides=[1, 1536], requires_grad=0, device=cpu),
      %onnx::MatMul_4708 : Float(384, 1152, strides=[1, 384], requires_grad=0, device=cpu),
      %onnx::MatMul_4719 : Float(384, 384, strides=[1, 384], requires_grad=0, device=cpu),
      %onnx::MatMul_4720 : Float(384, 1536, strides=[1, 384], requires_grad=0, device=cpu),
      %onnx::MatMul_4721 : Float(1536, 384, strides=[1, 1536], requires_grad=0, device=cpu),
      %onnx::MatMul_4722 : Float(384, 1152, strides=[1, 384], requires_grad=0, device=cpu),
      %onnx::MatMul_4733 : Float(384, 384, strides=[1, 384], requires_grad=0, device=cpu),
      %onnx::MatMul_4734 : Float(384, 1536, strides=[1, 384], requires_grad=0, device=cpu),
      %onnx::MatMul_4735 : Float(1536, 384, strides=[1, 1536], requires_grad=0, device=cpu),
      %onnx::MatMul_4736 : Float(384, 1152, strides=[1, 384], requires_grad=0, device=cpu),
      %onnx::MatMul_4747 : Float(384, 384, strides=[1, 384], requires_grad=0, device=cpu),
      %onnx::MatMul_4748 : Float(384, 1536, strides=[1, 384], requires_grad=0, device=cpu),
      %onnx::MatMul_4749 : Float(1536, 384, strides=[1, 1536], requires_grad=0, device=cpu),
      %onnx::MatMul_4750 : Float(384, 1152, strides=[1, 384], requires_grad=0, device=cpu),
      %onnx::MatMul_4761 : Float(384, 384, strides=[1, 384], requires_grad=0, device=cpu),
      %onnx::MatMul_4762 : Float(384, 1536, strides=[1, 384], requires_grad=0, device=cpu),
      %onnx::MatMul_4763 : Float(1536, 384, strides=[1, 1536], requires_grad=0, device=cpu),
      %onnx::MatMul_4764 : Float(384, 1152, strides=[1, 384], requires_grad=0, device=cpu),
      %onnx::MatMul_4775 : Float(384, 384, strides=[1, 384], requires_grad=0, device=cpu),
      %onnx::MatMul_4776 : Float(384, 1536, strides=[1, 384], requires_grad=0, device=cpu),
      %onnx::MatMul_4777 : Float(1536, 384, strides=[1, 1536], requires_grad=0, device=cpu),
      %onnx::MatMul_4778 : Float(384, 1152, strides=[1, 384], requires_grad=0, device=cpu),
      %onnx::MatMul_4789 : Float(384, 384, strides=[1, 384], requires_grad=0, device=cpu),
      %onnx::MatMul_4790 : Float(384, 1536, strides=[1, 384], requires_grad=0, device=cpu),
      %onnx::MatMul_4791 : Float(1536, 384, strides=[1, 1536], requires_grad=0, device=cpu),
      %onnx::MatMul_4792 : Float(384, 1152, strides=[1, 384], requires_grad=0, device=cpu),
      %onnx::MatMul_4803 : Float(384, 384, strides=[1, 384], requires_grad=0, device=cpu),
      %onnx::MatMul_4804 : Float(384, 1536, strides=[1, 384], requires_grad=0, device=cpu),
      %onnx::MatMul_4805 : Float(1536, 384, strides=[1, 1536], requires_grad=0, device=cpu),
      %onnx::MatMul_4806 : Float(384, 1152, strides=[1, 384], requires_grad=0, device=cpu),
      %onnx::MatMul_4817 : Float(384, 384, strides=[1, 384], requires_grad=0, device=cpu),
      %onnx::MatMul_4818 : Float(384, 1536, strides=[1, 384], requires_grad=0, device=cpu),
      %onnx::MatMul_4819 : Float(1536, 384, strides=[1, 1536], requires_grad=0, device=cpu),
      %onnx::MatMul_4820 : Float(384, 1152, strides=[1, 384], requires_grad=0, device=cpu),
      %onnx::MatMul_4831 : Float(384, 384, strides=[1, 384], requires_grad=0, device=cpu),
      %onnx::MatMul_4832 : Float(384, 1536, strides=[1, 384], requires_grad=0, device=cpu),
      %onnx::MatMul_4833 : Float(1536, 384, strides=[1, 1536], requires_grad=0, device=cpu),
      %onnx::Expand_4834 : Float(1, 26, 384, strides=[9984, 384, 1], requires_grad=0, device=cpu),
      %onnx::Equal_4839 : Long(3, strides=[1], requires_grad=0, device=cpu),
      %onnx::ConstantOfShape_4840 : Long(1, strides=[1], requires_grad=0, device=cpu),
      %onnx::Add_4841 : Float(1, 0, 384, strides=[9984, 384, 1], requires_grad=0, device=cpu),
      %onnx::Add_4851 : Float(384, strides=[1], requires_grad=0, device=cpu),
      %onnx::Add_4853 : Float(768, strides=[1], requires_grad=0, device=cpu),
      %onnx::MatMul_4854 : Float(384, 384, strides=[1, 384], requires_grad=0, device=cpu),
      %onnx::MatMul_4855 : Float(384, 768, strides=[1, 384], requires_grad=0, device=cpu),
      %onnx::Reshape_4859 : Long(3, strides=[1], requires_grad=0, device=cpu),
      %onnx::Mul_4868 : Float(requires_grad=0, device=cpu),
      %onnx::Add_4870 : Float(1, 1, 1, strides=[1, 1, 1], requires_grad=0, device=cpu),
      %onnx::Reshape_4873 : Long(2, strides=[1], requires_grad=0, device=cpu),
      %onnx::Reshape_4877 : Long(3, strides=[1], requires_grad=0, device=cpu),
      %onnx::Add_4887 : Float(384, strides=[1], requires_grad=0, device=cpu),
      %onnx::Add_4889 : Float(768, strides=[1], requires_grad=0, device=cpu),
      %onnx::MatMul_4890 : Float(384, 384, strides=[1, 384], requires_grad=0, device=cpu),
      %onnx::MatMul_4891 : Float(384, 768, strides=[1, 384], requires_grad=0, device=cpu),
      %onnx::Reshape_4899 : Long(3, strides=[1], requires_grad=0, device=cpu),
      %onnx::MatMul_4911 : Float(384, 1536, strides=[1, 384], requires_grad=0, device=cpu),
      %onnx::MatMul_4912 : Float(1536, 384, strides=[1, 1536], requires_grad=0, device=cpu),
      %onnx::MatMul_4913 : Float(384, 95, strides=[1, 384], requires_grad=0, device=cpu),
      %onnx::Add_4914 : Float(1, 1, 384, strides=[9984, 384, 1], requires_grad=0, device=cpu),
      %onnx::Reshape_4936 : Long(3, strides=[1], requires_grad=0, device=cpu),
      %onnx::Add_4943 : Float(1, 1, 2, strides=[2, 2, 1], requires_grad=0, device=cpu),
      %onnx::Add_4987 : Float(1, 2, 384, strides=[9984, 384, 1], requires_grad=0, device=cpu),
      %onnx::Reshape_5009 : Long(3, strides=[1], requires_grad=0, device=cpu),
      %onnx::Add_5016 : Float(1, 1, 3, strides=[3, 3, 1], requires_grad=0, device=cpu),
      %onnx::Add_5060 : Float(1, 3, 384, strides=[9984, 384, 1], requires_grad=0, device=cpu),
      %onnx::Reshape_5082 : Long(3, strides=[1], requires_grad=0, device=cpu),
      %onnx::Add_5089 : Float(1, 1, 4, strides=[4, 4, 1], requires_grad=0, device=cpu),
      %onnx::Add_5133 : Float(1, 4, 384, strides=[9984, 384, 1], requires_grad=0, device=cpu),
      %onnx::Reshape_5155 : Long(3, strides=[1], requires_grad=0, device=cpu),
      %onnx::Add_5162 : Float(1, 1, 5, strides=[5, 5, 1], requires_grad=0, device=cpu),
      %onnx::Add_5206 : Float(1, 5, 384, strides=[9984, 384, 1], requires_grad=0, device=cpu),
      %onnx::Reshape_5228 : Long(3, strides=[1], requires_grad=0, device=cpu),
      %onnx::Add_5235 : Float(1, 1, 6, strides=[6, 6, 1], requires_grad=0, device=cpu),
      %onnx::Add_5279 : Float(1, 6, 384, strides=[9984, 384, 1], requires_grad=0, device=cpu),
      %onnx::Reshape_5301 : Long(3, strides=[1], requires_grad=0, device=cpu),
      %onnx::Add_5308 : Float(1, 1, 7, strides=[7, 7, 1], requires_grad=0, device=cpu),
      %onnx::Add_5352 : Float(1, 7, 384, strides=[9984, 384, 1], requires_grad=0, device=cpu),
      %onnx::Reshape_5374 : Long(3, strides=[1], requires_grad=0, device=cpu),
      %onnx::Add_5381 : Float(1, 1, 8, strides=[8, 8, 1], requires_grad=0, device=cpu),
      %onnx::Add_5425 : Float(1, 8, 384, strides=[9984, 384, 1], requires_grad=0, device=cpu),
      %onnx::Reshape_5447 : Long(3, strides=[1], requires_grad=0, device=cpu),
      %onnx::Add_5454 : Float(1, 1, 9, strides=[9, 9, 1], requires_grad=0, device=cpu),
      %onnx::Add_5498 : Float(1, 9, 384, strides=[9984, 384, 1], requires_grad=0, device=cpu),
      %onnx::Reshape_5520 : Long(3, strides=[1], requires_grad=0, device=cpu),
      %onnx::Add_5527 : Float(1, 1, 10, strides=[10, 10, 1], requires_grad=0, device=cpu)):
  %onnx::Reshape_5567 : Long(3, strides=[1], requires_grad=0, device=cpu) = onnx::Identity[onnx_name="Identity_0"](%onnx::Reshape_4877)
  %onnx::Reshape_5563 : Long(2, strides=[1], requires_grad=0, device=cpu) = onnx::Identity[onnx_name="Identity_1"](%onnx::Reshape_4873)
  %onnx::Reshape_5560 : Long(3, strides=[1], requires_grad=0, device=cpu) = onnx::Identity[onnx_name="Identity_2"](%onnx::Reshape_4899)
  %onnx::Reshape_5556 : Long(3, strides=[1], requires_grad=0, device=cpu) = onnx::Identity[onnx_name="Identity_3"](%onnx::Reshape_4899)
  %onnx::Reshape_5552 : Long(3, strides=[1], requires_grad=0, device=cpu) = onnx::Identity[onnx_name="Identity_4"](%onnx::Reshape_4859)
  %onnx::Reshape_5534 : Long(3, strides=[1], requires_grad=0, device=cpu) = onnx::Identity[onnx_name="Identity_5"](%onnx::Reshape_4877)
  %onnx::Reshape_5530 : Long(2, strides=[1], requires_grad=0, device=cpu) = onnx::Identity[onnx_name="Identity_6"](%onnx::Reshape_4873)
  %onnx::Mul_5525 : Float(requires_grad=0, device=cpu) = onnx::Identity[onnx_name="Identity_7"](%onnx::Mul_4868)
  %onnx::Reshape_5524 : Long(3, strides=[1], requires_grad=0, device=cpu) = onnx::Identity[onnx_name="Identity_8"](%onnx::Reshape_5520)
  %onnx::Reshape_5516 : Long(3, strides=[1], requires_grad=0, device=cpu) = onnx::Identity[onnx_name="Identity_9"](%onnx::Reshape_4859)
  %onnx::Reshape_5494 : Long(3, strides=[1], requires_grad=0, device=cpu) = onnx::Identity[onnx_name="Identity_10"](%onnx::Reshape_4877)
  %onnx::Reshape_5490 : Long(2, strides=[1], requires_grad=0, device=cpu) = onnx::Identity[onnx_name="Identity_11"](%onnx::Reshape_4873)
  %onnx::Reshape_5487 : Long(3, strides=[1], requires_grad=0, device=cpu) = onnx::Identity[onnx_name="Identity_12"](%onnx::Reshape_4899)
  %onnx::Reshape_5483 : Long(3, strides=[1], requires_grad=0, device=cpu) = onnx::Identity[onnx_name="Identity_13"](%onnx::Reshape_4899)
  %onnx::Reshape_5479 : Long(3, strides=[1], requires_grad=0, device=cpu) = onnx::Identity[onnx_name="Identity_14"](%onnx::Reshape_4859)
  %onnx::Reshape_5461 : Long(3, strides=[1], requires_grad=0, device=cpu) = onnx::Identity[onnx_name="Identity_15"](%onnx::Reshape_4877)
  %onnx::Reshape_5457 : Long(2, strides=[1], requires_grad=0, device=cpu) = onnx::Identity[onnx_name="Identity_16"](%onnx::Reshape_4873)
  %onnx::Mul_5452 : Float(requires_grad=0, device=cpu) = onnx::Identity[onnx_name="Identity_17"](%onnx::Mul_4868)
  %onnx::Reshape_5451 : Long(3, strides=[1], requires_grad=0, device=cpu) = onnx::Identity[onnx_name="Identity_18"](%onnx::Reshape_5447)
  %onnx::Reshape_5443 : Long(3, strides=[1], requires_grad=0, device=cpu) = onnx::Identity[onnx_name="Identity_19"](%onnx::Reshape_4859)
  %onnx::Reshape_5421 : Long(3, strides=[1], requires_grad=0, device=cpu) = onnx::Identity[onnx_name="Identity_20"](%onnx::Reshape_4877)
  %onnx::Reshape_5417 : Long(2, strides=[1], requires_grad=0, device=cpu) = onnx::Identity[onnx_name="Identity_21"](%onnx::Reshape_4873)
  %onnx::Reshape_5414 : Long(3, strides=[1], requires_grad=0, device=cpu) = onnx::Identity[onnx_name="Identity_22"](%onnx::Reshape_4899)
  %onnx::Reshape_5410 : Long(3, strides=[1], requires_grad=0, device=cpu) = onnx::Identity[onnx_name="Identity_23"](%onnx::Reshape_4899)
  %onnx::Reshape_5406 : Long(3, strides=[1], requires_grad=0, device=cpu) = onnx::Identity[onnx_name="Identity_24"](%onnx::Reshape_4859)
  %onnx::Reshape_5388 : Long(3, strides=[1], requires_grad=0, device=cpu) = onnx::Identity[onnx_name="Identity_25"](%onnx::Reshape_4877)
  %onnx::Reshape_5384 : Long(2, strides=[1], requires_grad=0, device=cpu) = onnx::Identity[onnx_name="Identity_26"](%onnx::Reshape_4873)
  %onnx::Mul_5379 : Float(requires_grad=0, device=cpu) = onnx::Identity[onnx_name="Identity_27"](%onnx::Mul_4868)
  %onnx::Reshape_5378 : Long(3, strides=[1], requires_grad=0, device=cpu) = onnx::Identity[onnx_name="Identity_28"](%onnx::Reshape_5374)
  %onnx::Reshape_5370 : Long(3, strides=[1], requires_grad=0, device=cpu) = onnx::Identity[onnx_name="Identity_29"](%onnx::Reshape_4859)
  %onnx::Reshape_5348 : Long(3, strides=[1], requires_grad=0, device=cpu) = onnx::Identity[onnx_name="Identity_30"](%onnx::Reshape_4877)
  %onnx::Reshape_5344 : Long(2, strides=[1], requires_grad=0, device=cpu) = onnx::Identity[onnx_name="Identity_31"](%onnx::Reshape_4873)
  %onnx::Reshape_5341 : Long(3, strides=[1], requires_grad=0, device=cpu) = onnx::Identity[onnx_name="Identity_32"](%onnx::Reshape_4899)
  %onnx::Reshape_5337 : Long(3, strides=[1], requires_grad=0, device=cpu) = onnx::Identity[onnx_name="Identity_33"](%onnx::Reshape_4899)
  %onnx::Reshape_5333 : Long(3, strides=[1], requires_grad=0, device=cpu) = onnx::Identity[onnx_name="Identity_34"](%onnx::Reshape_4859)
  %onnx::Reshape_5315 : Long(3, strides=[1], requires_grad=0, device=cpu) = onnx::Identity[onnx_name="Identity_35"](%onnx::Reshape_4877)
  %onnx::Reshape_5311 : Long(2, strides=[1], requires_grad=0, device=cpu) = onnx::Identity[onnx_name="Identity_36"](%onnx::Reshape_4873)
  %onnx::Mul_5306 : Float(requires_grad=0, device=cpu) = onnx::Identity[onnx_name="Identity_37"](%onnx::Mul_4868)
  %onnx::Reshape_5305 : Long(3, strides=[1], requires_grad=0, device=cpu) = onnx::Identity[onnx_name="Identity_38"](%onnx::Reshape_5301)
  %onnx::Reshape_5297 : Long(3, strides=[1], requires_grad=0, device=cpu) = onnx::Identity[onnx_name="Identity_39"](%onnx::Reshape_4859)
  %onnx::Reshape_5275 : Long(3, strides=[1], requires_grad=0, device=cpu) = onnx::Identity[onnx_name="Identity_40"](%onnx::Reshape_4877)
  %onnx::Reshape_5271 : Long(2, strides=[1], requires_grad=0, device=cpu) = onnx::Identity[onnx_name="Identity_41"](%onnx::Reshape_4873)
  %onnx::Reshape_5268 : Long(3, strides=[1], requires_grad=0, device=cpu) = onnx::Identity[onnx_name="Identity_42"](%onnx::Reshape_4899)
  %onnx::Reshape_5264 : Long(3, strides=[1], requires_grad=0, device=cpu) = onnx::Identity[onnx_name="Identity_43"](%onnx::Reshape_4899)
  %onnx::Reshape_5260 : Long(3, strides=[1], requires_grad=0, device=cpu) = onnx::Identity[onnx_name="Identity_44"](%onnx::Reshape_4859)
  %onnx::Reshape_5242 : Long(3, strides=[1], requires_grad=0, device=cpu) = onnx::Identity[onnx_name="Identity_45"](%onnx::Reshape_4877)
  %onnx::Reshape_5238 : Long(2, strides=[1], requires_grad=0, device=cpu) = onnx::Identity[onnx_name="Identity_46"](%onnx::Reshape_4873)
  %onnx::Mul_5233 : Float(requires_grad=0, device=cpu) = onnx::Identity[onnx_name="Identity_47"](%onnx::Mul_4868)
  %onnx::Reshape_5232 : Long(3, strides=[1], requires_grad=0, device=cpu) = onnx::Identity[onnx_name="Identity_48"](%onnx::Reshape_5228)
  %onnx::Reshape_5224 : Long(3, strides=[1], requires_grad=0, device=cpu) = onnx::Identity[onnx_name="Identity_49"](%onnx::Reshape_4859)
  %onnx::Reshape_5202 : Long(3, strides=[1], requires_grad=0, device=cpu) = onnx::Identity[onnx_name="Identity_50"](%onnx::Reshape_4877)
  %onnx::Reshape_5198 : Long(2, strides=[1], requires_grad=0, device=cpu) = onnx::Identity[onnx_name="Identity_51"](%onnx::Reshape_4873)
  %onnx::Reshape_5195 : Long(3, strides=[1], requires_grad=0, device=cpu) = onnx::Identity[onnx_name="Identity_52"](%onnx::Reshape_4899)
  %onnx::Reshape_5191 : Long(3, strides=[1], requires_grad=0, device=cpu) = onnx::Identity[onnx_name="Identity_53"](%onnx::Reshape_4899)
  %onnx::Reshape_5187 : Long(3, strides=[1], requires_grad=0, device=cpu) = onnx::Identity[onnx_name="Identity_54"](%onnx::Reshape_4859)
  %onnx::Reshape_5169 : Long(3, strides=[1], requires_grad=0, device=cpu) = onnx::Identity[onnx_name="Identity_55"](%onnx::Reshape_4877)
  %onnx::Reshape_5165 : Long(2, strides=[1], requires_grad=0, device=cpu) = onnx::Identity[onnx_name="Identity_56"](%onnx::Reshape_4873)
  %onnx::Mul_5160 : Float(requires_grad=0, device=cpu) = onnx::Identity[onnx_name="Identity_57"](%onnx::Mul_4868)
  %onnx::Reshape_5159 : Long(3, strides=[1], requires_grad=0, device=cpu) = onnx::Identity[onnx_name="Identity_58"](%onnx::Reshape_5155)
  %onnx::Reshape_5151 : Long(3, strides=[1], requires_grad=0, device=cpu) = onnx::Identity[onnx_name="Identity_59"](%onnx::Reshape_4859)
  %onnx::Reshape_5129 : Long(3, strides=[1], requires_grad=0, device=cpu) = onnx::Identity[onnx_name="Identity_60"](%onnx::Reshape_4877)
  %onnx::Reshape_5125 : Long(2, strides=[1], requires_grad=0, device=cpu) = onnx::Identity[onnx_name="Identity_61"](%onnx::Reshape_4873)
  %onnx::Reshape_5122 : Long(3, strides=[1], requires_grad=0, device=cpu) = onnx::Identity[onnx_name="Identity_62"](%onnx::Reshape_4899)
  %onnx::Reshape_5118 : Long(3, strides=[1], requires_grad=0, device=cpu) = onnx::Identity[onnx_name="Identity_63"](%onnx::Reshape_4899)
  %onnx::Reshape_5114 : Long(3, strides=[1], requires_grad=0, device=cpu) = onnx::Identity[onnx_name="Identity_64"](%onnx::Reshape_4859)
  %onnx::Reshape_5096 : Long(3, strides=[1], requires_grad=0, device=cpu) = onnx::Identity[onnx_name="Identity_65"](%onnx::Reshape_4877)
  %onnx::Reshape_5092 : Long(2, strides=[1], requires_grad=0, device=cpu) = onnx::Identity[onnx_name="Identity_66"](%onnx::Reshape_4873)
  %onnx::Mul_5087 : Float(requires_grad=0, device=cpu) = onnx::Identity[onnx_name="Identity_67"](%onnx::Mul_4868)
  %onnx::Reshape_5086 : Long(3, strides=[1], requires_grad=0, device=cpu) = onnx::Identity[onnx_name="Identity_68"](%onnx::Reshape_5082)
  %onnx::Reshape_5078 : Long(3, strides=[1], requires_grad=0, device=cpu) = onnx::Identity[onnx_name="Identity_69"](%onnx::Reshape_4859)
  %onnx::Reshape_5056 : Long(3, strides=[1], requires_grad=0, device=cpu) = onnx::Identity[onnx_name="Identity_70"](%onnx::Reshape_4877)
  %onnx::Reshape_5052 : Long(2, strides=[1], requires_grad=0, device=cpu) = onnx::Identity[onnx_name="Identity_71"](%onnx::Reshape_4873)
  %onnx::Reshape_5049 : Long(3, strides=[1], requires_grad=0, device=cpu) = onnx::Identity[onnx_name="Identity_72"](%onnx::Reshape_4899)
  %onnx::Reshape_5045 : Long(3, strides=[1], requires_grad=0, device=cpu) = onnx::Identity[onnx_name="Identity_73"](%onnx::Reshape_4899)
  %onnx::Reshape_5041 : Long(3, strides=[1], requires_grad=0, device=cpu) = onnx::Identity[onnx_name="Identity_74"](%onnx::Reshape_4859)
  %onnx::Reshape_5023 : Long(3, strides=[1], requires_grad=0, device=cpu) = onnx::Identity[onnx_name="Identity_75"](%onnx::Reshape_4877)
  %onnx::Reshape_5019 : Long(2, strides=[1], requires_grad=0, device=cpu) = onnx::Identity[onnx_name="Identity_76"](%onnx::Reshape_4873)
  %onnx::Mul_5014 : Float(requires_grad=0, device=cpu) = onnx::Identity[onnx_name="Identity_77"](%onnx::Mul_4868)
  %onnx::Reshape_5013 : Long(3, strides=[1], requires_grad=0, device=cpu) = onnx::Identity[onnx_name="Identity_78"](%onnx::Reshape_5009)
  %onnx::Reshape_5005 : Long(3, strides=[1], requires_grad=0, device=cpu) = onnx::Identity[onnx_name="Identity_79"](%onnx::Reshape_4859)
  %onnx::Reshape_4983 : Long(3, strides=[1], requires_grad=0, device=cpu) = onnx::Identity[onnx_name="Identity_80"](%onnx::Reshape_4877)
  %onnx::Reshape_4979 : Long(2, strides=[1], requires_grad=0, device=cpu) = onnx::Identity[onnx_name="Identity_81"](%onnx::Reshape_4873)
  %onnx::Reshape_4976 : Long(3, strides=[1], requires_grad=0, device=cpu) = onnx::Identity[onnx_name="Identity_82"](%onnx::Reshape_4899)
  %onnx::Reshape_4972 : Long(3, strides=[1], requires_grad=0, device=cpu) = onnx::Identity[onnx_name="Identity_83"](%onnx::Reshape_4899)
  %onnx::Reshape_4968 : Long(3, strides=[1], requires_grad=0, device=cpu) = onnx::Identity[onnx_name="Identity_84"](%onnx::Reshape_4859)
  %onnx::Reshape_4950 : Long(3, strides=[1], requires_grad=0, device=cpu) = onnx::Identity[onnx_name="Identity_85"](%onnx::Reshape_4877)
  %onnx::Reshape_4946 : Long(2, strides=[1], requires_grad=0, device=cpu) = onnx::Identity[onnx_name="Identity_86"](%onnx::Reshape_4873)
  %onnx::Mul_4941 : Float(requires_grad=0, device=cpu) = onnx::Identity[onnx_name="Identity_87"](%onnx::Mul_4868)
  %onnx::Reshape_4940 : Long(3, strides=[1], requires_grad=0, device=cpu) = onnx::Identity[onnx_name="Identity_88"](%onnx::Reshape_4936)
  %onnx::Reshape_4932 : Long(3, strides=[1], requires_grad=0, device=cpu) = onnx::Identity[onnx_name="Identity_89"](%onnx::Reshape_4859)
  %onnx::Reshape_4910 : Long(3, strides=[1], requires_grad=0, device=cpu) = onnx::Identity[onnx_name="Identity_90"](%onnx::Reshape_4877)
  %onnx::Reshape_4906 : Long(2, strides=[1], requires_grad=0, device=cpu) = onnx::Identity[onnx_name="Identity_91"](%onnx::Reshape_4873)
  %onnx::Reshape_4903 : Long(3, strides=[1], requires_grad=0, device=cpu) = onnx::Identity[onnx_name="Identity_92"](%onnx::Reshape_4899)
  %onnx::Reshape_4895 : Long(3, strides=[1], requires_grad=0, device=cpu) = onnx::Identity[onnx_name="Identity_93"](%onnx::Reshape_4859)
  %onnx::Reshape_4867 : Long(3, strides=[1], requires_grad=0, device=cpu) = onnx::Identity[onnx_name="Identity_94"](%onnx::Reshape_4859)
  %onnx::Reshape_4863 : Long(3, strides=[1], requires_grad=0, device=cpu) = onnx::Identity[onnx_name="Identity_95"](%onnx::Reshape_4859)
  %onnx::Reshape_4830 : Long(3, strides=[1], requires_grad=0, device=cpu) = onnx::Identity[onnx_name="Identity_96"](%onnx::Reshape_4676)
  %onnx::Reshape_4826 : Long(5, strides=[1], requires_grad=0, device=cpu) = onnx::Identity[onnx_name="Identity_97"](%onnx::Reshape_4672)
  %onnx::Reshape_4816 : Long(3, strides=[1], requires_grad=0, device=cpu) = onnx::Identity[onnx_name="Identity_98"](%onnx::Reshape_4676)
  %onnx::Reshape_4812 : Long(5, strides=[1], requires_grad=0, device=cpu) = onnx::Identity[onnx_name="Identity_99"](%onnx::Reshape_4672)
  %onnx::Reshape_4802 : Long(3, strides=[1], requires_grad=0, device=cpu) = onnx::Identity[onnx_name="Identity_100"](%onnx::Reshape_4676)
  %onnx::Reshape_4798 : Long(5, strides=[1], requires_grad=0, device=cpu) = onnx::Identity[onnx_name="Identity_101"](%onnx::Reshape_4672)
  %onnx::Reshape_4788 : Long(3, strides=[1], requires_grad=0, device=cpu) = onnx::Identity[onnx_name="Identity_102"](%onnx::Reshape_4676)
  %onnx::Reshape_4784 : Long(5, strides=[1], requires_grad=0, device=cpu) = onnx::Identity[onnx_name="Identity_103"](%onnx::Reshape_4672)
  %onnx::Reshape_4774 : Long(3, strides=[1], requires_grad=0, device=cpu) = onnx::Identity[onnx_name="Identity_104"](%onnx::Reshape_4676)
  %onnx::Reshape_4770 : Long(5, strides=[1], requires_grad=0, device=cpu) = onnx::Identity[onnx_name="Identity_105"](%onnx::Reshape_4672)
  %onnx::Reshape_4760 : Long(3, strides=[1], requires_grad=0, device=cpu) = onnx::Identity[onnx_name="Identity_106"](%onnx::Reshape_4676)
  %onnx::Reshape_4756 : Long(5, strides=[1], requires_grad=0, device=cpu) = onnx::Identity[onnx_name="Identity_107"](%onnx::Reshape_4672)
  %onnx::Reshape_4746 : Long(3, strides=[1], requires_grad=0, device=cpu) = onnx::Identity[onnx_name="Identity_108"](%onnx::Reshape_4676)
  %onnx::Reshape_4742 : Long(5, strides=[1], requires_grad=0, device=cpu) = onnx::Identity[onnx_name="Identity_109"](%onnx::Reshape_4672)
  %onnx::Reshape_4732 : Long(3, strides=[1], requires_grad=0, device=cpu) = onnx::Identity[onnx_name="Identity_110"](%onnx::Reshape_4676)
  %onnx::Reshape_4728 : Long(5, strides=[1], requires_grad=0, device=cpu) = onnx::Identity[onnx_name="Identity_111"](%onnx::Reshape_4672)
  %onnx::Reshape_4718 : Long(3, strides=[1], requires_grad=0, device=cpu) = onnx::Identity[onnx_name="Identity_112"](%onnx::Reshape_4676)
  %onnx::Reshape_4714 : Long(5, strides=[1], requires_grad=0, device=cpu) = onnx::Identity[onnx_name="Identity_113"](%onnx::Reshape_4672)
  %onnx::Reshape_4704 : Long(3, strides=[1], requires_grad=0, device=cpu) = onnx::Identity[onnx_name="Identity_114"](%onnx::Reshape_4676)
  %onnx::Reshape_4700 : Long(5, strides=[1], requires_grad=0, device=cpu) = onnx::Identity[onnx_name="Identity_115"](%onnx::Reshape_4672)
  %onnx::Reshape_4690 : Long(3, strides=[1], requires_grad=0, device=cpu) = onnx::Identity[onnx_name="Identity_116"](%onnx::Reshape_4676)
  %onnx::Reshape_4686 : Long(5, strides=[1], requires_grad=0, device=cpu) = onnx::Identity[onnx_name="Identity_117"](%onnx::Reshape_4672)
  %onnx::MatMul_5570 : Float(384, 95, strides=[1, 384], requires_grad=0, device=cpu) = onnx::Identity[onnx_name="Identity_118"](%onnx::MatMul_4913)
  %onnx::MatMul_5569 : Float(1536, 384, strides=[1, 1536], requires_grad=0, device=cpu) = onnx::Identity[onnx_name="Identity_119"](%onnx::MatMul_4912)
  %onnx::MatMul_5568 : Float(384, 1536, strides=[1, 384], requires_grad=0, device=cpu) = onnx::Identity[onnx_name="Identity_120"](%onnx::MatMul_4911)
  %onnx::MatMul_5548 : Float(384, 768, strides=[1, 384], requires_grad=0, device=cpu) = onnx::Identity[onnx_name="Identity_121"](%onnx::MatMul_4891)
  %onnx::MatMul_5547 : Float(384, 384, strides=[1, 384], requires_grad=0, device=cpu) = onnx::Identity[onnx_name="Identity_122"](%onnx::MatMul_4890)
  %onnx::Add_5546 : Float(768, strides=[1], requires_grad=0, device=cpu) = onnx::Identity[onnx_name="Identity_123"](%onnx::Add_4889)
  %onnx::Add_5544 : Float(384, strides=[1], requires_grad=0, device=cpu) = onnx::Identity[onnx_name="Identity_124"](%onnx::Add_4887)
  %onnx::MatMul_5512 : Float(384, 768, strides=[1, 384], requires_grad=0, device=cpu) = onnx::Identity[onnx_name="Identity_125"](%onnx::MatMul_4855)
  %onnx::MatMul_5511 : Float(384, 384, strides=[1, 384], requires_grad=0, device=cpu) = onnx::Identity[onnx_name="Identity_126"](%onnx::MatMul_4854)
  %onnx::Add_5510 : Float(768, strides=[1], requires_grad=0, device=cpu) = onnx::Identity[onnx_name="Identity_127"](%onnx::Add_4853)
  %onnx::Add_5508 : Float(384, strides=[1], requires_grad=0, device=cpu) = onnx::Identity[onnx_name="Identity_128"](%onnx::Add_4851)
  %onnx::MatMul_5497 : Float(384, 95, strides=[1, 384], requires_grad=0, device=cpu) = onnx::Identity[onnx_name="Identity_129"](%onnx::MatMul_4913)
  %onnx::MatMul_5496 : Float(1536, 384, strides=[1, 1536], requires_grad=0, device=cpu) = onnx::Identity[onnx_name="Identity_130"](%onnx::MatMul_4912)
  %onnx::MatMul_5495 : Float(384, 1536, strides=[1, 384], requires_grad=0, device=cpu) = onnx::Identity[onnx_name="Identity_131"](%onnx::MatMul_4911)
  %onnx::MatMul_5475 : Float(384, 768, strides=[1, 384], requires_grad=0, device=cpu) = onnx::Identity[onnx_name="Identity_132"](%onnx::MatMul_4891)
  %onnx::MatMul_5474 : Float(384, 384, strides=[1, 384], requires_grad=0, device=cpu) = onnx::Identity[onnx_name="Identity_133"](%onnx::MatMul_4890)
  %onnx::Add_5473 : Float(768, strides=[1], requires_grad=0, device=cpu) = onnx::Identity[onnx_name="Identity_134"](%onnx::Add_4889)
  %onnx::Add_5471 : Float(384, strides=[1], requires_grad=0, device=cpu) = onnx::Identity[onnx_name="Identity_135"](%onnx::Add_4887)
  %onnx::MatMul_5439 : Float(384, 768, strides=[1, 384], requires_grad=0, device=cpu) = onnx::Identity[onnx_name="Identity_136"](%onnx::MatMul_4855)
  %onnx::MatMul_5438 : Float(384, 384, strides=[1, 384], requires_grad=0, device=cpu) = onnx::Identity[onnx_name="Identity_137"](%onnx::MatMul_4854)
  %onnx::Add_5437 : Float(768, strides=[1], requires_grad=0, device=cpu) = onnx::Identity[onnx_name="Identity_138"](%onnx::Add_4853)
  %onnx::Add_5435 : Float(384, strides=[1], requires_grad=0, device=cpu) = onnx::Identity[onnx_name="Identity_139"](%onnx::Add_4851)
  %onnx::MatMul_5424 : Float(384, 95, strides=[1, 384], requires_grad=0, device=cpu) = onnx::Identity[onnx_name="Identity_140"](%onnx::MatMul_4913)
  %onnx::MatMul_5423 : Float(1536, 384, strides=[1, 1536], requires_grad=0, device=cpu) = onnx::Identity[onnx_name="Identity_141"](%onnx::MatMul_4912)
  %onnx::MatMul_5422 : Float(384, 1536, strides=[1, 384], requires_grad=0, device=cpu) = onnx::Identity[onnx_name="Identity_142"](%onnx::MatMul_4911)
  %onnx::MatMul_5402 : Float(384, 768, strides=[1, 384], requires_grad=0, device=cpu) = onnx::Identity[onnx_name="Identity_143"](%onnx::MatMul_4891)
  %onnx::MatMul_5401 : Float(384, 384, strides=[1, 384], requires_grad=0, device=cpu) = onnx::Identity[onnx_name="Identity_144"](%onnx::MatMul_4890)
  %onnx::Add_5400 : Float(768, strides=[1], requires_grad=0, device=cpu) = onnx::Identity[onnx_name="Identity_145"](%onnx::Add_4889)
  %onnx::Add_5398 : Float(384, strides=[1], requires_grad=0, device=cpu) = onnx::Identity[onnx_name="Identity_146"](%onnx::Add_4887)
  %onnx::MatMul_5366 : Float(384, 768, strides=[1, 384], requires_grad=0, device=cpu) = onnx::Identity[onnx_name="Identity_147"](%onnx::MatMul_4855)
  %onnx::MatMul_5365 : Float(384, 384, strides=[1, 384], requires_grad=0, device=cpu) = onnx::Identity[onnx_name="Identity_148"](%onnx::MatMul_4854)
  %onnx::Add_5364 : Float(768, strides=[1], requires_grad=0, device=cpu) = onnx::Identity[onnx_name="Identity_149"](%onnx::Add_4853)
  %onnx::Add_5362 : Float(384, strides=[1], requires_grad=0, device=cpu) = onnx::Identity[onnx_name="Identity_150"](%onnx::Add_4851)
  %onnx::MatMul_5351 : Float(384, 95, strides=[1, 384], requires_grad=0, device=cpu) = onnx::Identity[onnx_name="Identity_151"](%onnx::MatMul_4913)
  %onnx::MatMul_5350 : Float(1536, 384, strides=[1, 1536], requires_grad=0, device=cpu) = onnx::Identity[onnx_name="Identity_152"](%onnx::MatMul_4912)
  %onnx::MatMul_5349 : Float(384, 1536, strides=[1, 384], requires_grad=0, device=cpu) = onnx::Identity[onnx_name="Identity_153"](%onnx::MatMul_4911)
  %onnx::MatMul_5329 : Float(384, 768, strides=[1, 384], requires_grad=0, device=cpu) = onnx::Identity[onnx_name="Identity_154"](%onnx::MatMul_4891)
  %onnx::MatMul_5328 : Float(384, 384, strides=[1, 384], requires_grad=0, device=cpu) = onnx::Identity[onnx_name="Identity_155"](%onnx::MatMul_4890)
  %onnx::Add_5327 : Float(768, strides=[1], requires_grad=0, device=cpu) = onnx::Identity[onnx_name="Identity_156"](%onnx::Add_4889)
  %onnx::Add_5325 : Float(384, strides=[1], requires_grad=0, device=cpu) = onnx::Identity[onnx_name="Identity_157"](%onnx::Add_4887)
  %onnx::MatMul_5293 : Float(384, 768, strides=[1, 384], requires_grad=0, device=cpu) = onnx::Identity[onnx_name="Identity_158"](%onnx::MatMul_4855)
  %onnx::MatMul_5292 : Float(384, 384, strides=[1, 384], requires_grad=0, device=cpu) = onnx::Identity[onnx_name="Identity_159"](%onnx::MatMul_4854)
  %onnx::Add_5291 : Float(768, strides=[1], requires_grad=0, device=cpu) = onnx::Identity[onnx_name="Identity_160"](%onnx::Add_4853)
  %onnx::Add_5289 : Float(384, strides=[1], requires_grad=0, device=cpu) = onnx::Identity[onnx_name="Identity_161"](%onnx::Add_4851)
  %onnx::MatMul_5278 : Float(384, 95, strides=[1, 384], requires_grad=0, device=cpu) = onnx::Identity[onnx_name="Identity_162"](%onnx::MatMul_4913)
  %onnx::MatMul_5277 : Float(1536, 384, strides=[1, 1536], requires_grad=0, device=cpu) = onnx::Identity[onnx_name="Identity_163"](%onnx::MatMul_4912)
  %onnx::MatMul_5276 : Float(384, 1536, strides=[1, 384], requires_grad=0, device=cpu) = onnx::Identity[onnx_name="Identity_164"](%onnx::MatMul_4911)
  %onnx::MatMul_5256 : Float(384, 768, strides=[1, 384], requires_grad=0, device=cpu) = onnx::Identity[onnx_name="Identity_165"](%onnx::MatMul_4891)
  %onnx::MatMul_5255 : Float(384, 384, strides=[1, 384], requires_grad=0, device=cpu) = onnx::Identity[onnx_name="Identity_166"](%onnx::MatMul_4890)
  %onnx::Add_5254 : Float(768, strides=[1], requires_grad=0, device=cpu) = onnx::Identity[onnx_name="Identity_167"](%onnx::Add_4889)
  %onnx::Add_5252 : Float(384, strides=[1], requires_grad=0, device=cpu) = onnx::Identity[onnx_name="Identity_168"](%onnx::Add_4887)
  %onnx::MatMul_5220 : Float(384, 768, strides=[1, 384], requires_grad=0, device=cpu) = onnx::Identity[onnx_name="Identity_169"](%onnx::MatMul_4855)
  %onnx::MatMul_5219 : Float(384, 384, strides=[1, 384], requires_grad=0, device=cpu) = onnx::Identity[onnx_name="Identity_170"](%onnx::MatMul_4854)
  %onnx::Add_5218 : Float(768, strides=[1], requires_grad=0, device=cpu) = onnx::Identity[onnx_name="Identity_171"](%onnx::Add_4853)
  %onnx::Add_5216 : Float(384, strides=[1], requires_grad=0, device=cpu) = onnx::Identity[onnx_name="Identity_172"](%onnx::Add_4851)
  %onnx::MatMul_5205 : Float(384, 95, strides=[1, 384], requires_grad=0, device=cpu) = onnx::Identity[onnx_name="Identity_173"](%onnx::MatMul_4913)
  %onnx::MatMul_5204 : Float(1536, 384, strides=[1, 1536], requires_grad=0, device=cpu) = onnx::Identity[onnx_name="Identity_174"](%onnx::MatMul_4912)
  %onnx::MatMul_5203 : Float(384, 1536, strides=[1, 384], requires_grad=0, device=cpu) = onnx::Identity[onnx_name="Identity_175"](%onnx::MatMul_4911)
  %onnx::MatMul_5183 : Float(384, 768, strides=[1, 384], requires_grad=0, device=cpu) = onnx::Identity[onnx_name="Identity_176"](%onnx::MatMul_4891)
  %onnx::MatMul_5182 : Float(384, 384, strides=[1, 384], requires_grad=0, device=cpu) = onnx::Identity[onnx_name="Identity_177"](%onnx::MatMul_4890)
  %onnx::Add_5181 : Float(768, strides=[1], requires_grad=0, device=cpu) = onnx::Identity[onnx_name="Identity_178"](%onnx::Add_4889)
  %onnx::Add_5179 : Float(384, strides=[1], requires_grad=0, device=cpu) = onnx::Identity[onnx_name="Identity_179"](%onnx::Add_4887)
  %onnx::MatMul_5147 : Float(384, 768, strides=[1, 384], requires_grad=0, device=cpu) = onnx::Identity[onnx_name="Identity_180"](%onnx::MatMul_4855)
  %onnx::MatMul_5146 : Float(384, 384, strides=[1, 384], requires_grad=0, device=cpu) = onnx::Identity[onnx_name="Identity_181"](%onnx::MatMul_4854)
  %onnx::Add_5145 : Float(768, strides=[1], requires_grad=0, device=cpu) = onnx::Identity[onnx_name="Identity_182"](%onnx::Add_4853)
  %onnx::Add_5143 : Float(384, strides=[1], requires_grad=0, device=cpu) = onnx::Identity[onnx_name="Identity_183"](%onnx::Add_4851)
  %onnx::MatMul_5132 : Float(384, 95, strides=[1, 384], requires_grad=0, device=cpu) = onnx::Identity[onnx_name="Identity_184"](%onnx::MatMul_4913)
  %onnx::MatMul_5131 : Float(1536, 384, strides=[1, 1536], requires_grad=0, device=cpu) = onnx::Identity[onnx_name="Identity_185"](%onnx::MatMul_4912)
  %onnx::MatMul_5130 : Float(384, 1536, strides=[1, 384], requires_grad=0, device=cpu) = onnx::Identity[onnx_name="Identity_186"](%onnx::MatMul_4911)
  %onnx::MatMul_5110 : Float(384, 768, strides=[1, 384], requires_grad=0, device=cpu) = onnx::Identity[onnx_name="Identity_187"](%onnx::MatMul_4891)
  %onnx::MatMul_5109 : Float(384, 384, strides=[1, 384], requires_grad=0, device=cpu) = onnx::Identity[onnx_name="Identity_188"](%onnx::MatMul_4890)
  %onnx::Add_5108 : Float(768, strides=[1], requires_grad=0, device=cpu) = onnx::Identity[onnx_name="Identity_189"](%onnx::Add_4889)
  %onnx::Add_5106 : Float(384, strides=[1], requires_grad=0, device=cpu) = onnx::Identity[onnx_name="Identity_190"](%onnx::Add_4887)
  %onnx::MatMul_5074 : Float(384, 768, strides=[1, 384], requires_grad=0, device=cpu) = onnx::Identity[onnx_name="Identity_191"](%onnx::MatMul_4855)
  %onnx::MatMul_5073 : Float(384, 384, strides=[1, 384], requires_grad=0, device=cpu) = onnx::Identity[onnx_name="Identity_192"](%onnx::MatMul_4854)
  %onnx::Add_5072 : Float(768, strides=[1], requires_grad=0, device=cpu) = onnx::Identity[onnx_name="Identity_193"](%onnx::Add_4853)
  %onnx::Add_5070 : Float(384, strides=[1], requires_grad=0, device=cpu) = onnx::Identity[onnx_name="Identity_194"](%onnx::Add_4851)
  %onnx::MatMul_5059 : Float(384, 95, strides=[1, 384], requires_grad=0, device=cpu) = onnx::Identity[onnx_name="Identity_195"](%onnx::MatMul_4913)
  %onnx::MatMul_5058 : Float(1536, 384, strides=[1, 1536], requires_grad=0, device=cpu) = onnx::Identity[onnx_name="Identity_196"](%onnx::MatMul_4912)
  %onnx::MatMul_5057 : Float(384, 1536, strides=[1, 384], requires_grad=0, device=cpu) = onnx::Identity[onnx_name="Identity_197"](%onnx::MatMul_4911)
  %onnx::MatMul_5037 : Float(384, 768, strides=[1, 384], requires_grad=0, device=cpu) = onnx::Identity[onnx_name="Identity_198"](%onnx::MatMul_4891)
  %onnx::MatMul_5036 : Float(384, 384, strides=[1, 384], requires_grad=0, device=cpu) = onnx::Identity[onnx_name="Identity_199"](%onnx::MatMul_4890)
  %onnx::Add_5035 : Float(768, strides=[1], requires_grad=0, device=cpu) = onnx::Identity[onnx_name="Identity_200"](%onnx::Add_4889)
  %onnx::Add_5033 : Float(384, strides=[1], requires_grad=0, device=cpu) = onnx::Identity[onnx_name="Identity_201"](%onnx::Add_4887)
  %onnx::MatMul_5001 : Float(384, 768, strides=[1, 384], requires_grad=0, device=cpu) = onnx::Identity[onnx_name="Identity_202"](%onnx::MatMul_4855)
  %onnx::MatMul_5000 : Float(384, 384, strides=[1, 384], requires_grad=0, device=cpu) = onnx::Identity[onnx_name="Identity_203"](%onnx::MatMul_4854)
  %onnx::Add_4999 : Float(768, strides=[1], requires_grad=0, device=cpu) = onnx::Identity[onnx_name="Identity_204"](%onnx::Add_4853)
  %onnx::Add_4997 : Float(384, strides=[1], requires_grad=0, device=cpu) = onnx::Identity[onnx_name="Identity_205"](%onnx::Add_4851)
  %onnx::MatMul_4986 : Float(384, 95, strides=[1, 384], requires_grad=0, device=cpu) = onnx::Identity[onnx_name="Identity_206"](%onnx::MatMul_4913)
  %onnx::MatMul_4985 : Float(1536, 384, strides=[1, 1536], requires_grad=0, device=cpu) = onnx::Identity[onnx_name="Identity_207"](%onnx::MatMul_4912)
  %onnx::MatMul_4984 : Float(384, 1536, strides=[1, 384], requires_grad=0, device=cpu) = onnx::Identity[onnx_name="Identity_208"](%onnx::MatMul_4911)
  %onnx::MatMul_4964 : Float(384, 768, strides=[1, 384], requires_grad=0, device=cpu) = onnx::Identity[onnx_name="Identity_209"](%onnx::MatMul_4891)
  %onnx::MatMul_4963 : Float(384, 384, strides=[1, 384], requires_grad=0, device=cpu) = onnx::Identity[onnx_name="Identity_210"](%onnx::MatMul_4890)
  %onnx::Add_4962 : Float(768, strides=[1], requires_grad=0, device=cpu) = onnx::Identity[onnx_name="Identity_211"](%onnx::Add_4889)
  %onnx::Add_4960 : Float(384, strides=[1], requires_grad=0, device=cpu) = onnx::Identity[onnx_name="Identity_212"](%onnx::Add_4887)
  %onnx::MatMul_4928 : Float(384, 768, strides=[1, 384], requires_grad=0, device=cpu) = onnx::Identity[onnx_name="Identity_213"](%onnx::MatMul_4855)
  %onnx::MatMul_4927 : Float(384, 384, strides=[1, 384], requires_grad=0, device=cpu) = onnx::Identity[onnx_name="Identity_214"](%onnx::MatMul_4854)
  %onnx::Add_4926 : Float(768, strides=[1], requires_grad=0, device=cpu) = onnx::Identity[onnx_name="Identity_215"](%onnx::Add_4853)
  %onnx::Add_4924 : Float(384, strides=[1], requires_grad=0, device=cpu) = onnx::Identity[onnx_name="Identity_216"](%onnx::Add_4851)
  %onnx::Shape_177 : Float(1, 384, 8, 16, strides=[49152, 128, 16, 1], requires_grad=0, device=cpu) = onnx::Conv[dilations=[1, 1], group=1, kernel_shape=[4, 8], pads=[0, 0, 0, 0], strides=[4, 8], onnx_name="Conv_217"](%input, %encoder.patch_embed.proj.weight, %encoder.patch_embed.proj.bias) # /home/ashishpapanai/miniconda3/envs/parseq/lib/python3.7/site-packages/torch/nn/modules/conv.py:454:0
  %onnx::Slice_178 : Long(4, strides=[1], device=cpu) = onnx::Shape[onnx_name="Shape_218"](%onnx::Shape_177) # /home/ashishpapanai/miniconda3/envs/parseq/lib/python3.7/site-packages/timm/models/layers/patch_embed.py:46:0
  %onnx::Slice_179 : Long(1, strides=[1], device=cpu) = onnx::Constant[value={0}, onnx_name="Constant_219"]() # /home/ashishpapanai/miniconda3/envs/parseq/lib/python3.7/site-packages/timm/models/layers/patch_embed.py:46:0
  %onnx::Slice_180 : Long(1, strides=[1], device=cpu) = onnx::Constant[value={0}, onnx_name="Constant_220"]() # /home/ashishpapanai/miniconda3/envs/parseq/lib/python3.7/site-packages/timm/models/layers/patch_embed.py:46:0
  %onnx::Slice_181 : Long(1, strides=[1], device=cpu) = onnx::Constant[value={2}, onnx_name="Constant_221"]() # /home/ashishpapanai/miniconda3/envs/parseq/lib/python3.7/site-packages/timm/models/layers/patch_embed.py:46:0
  %onnx::Concat_182 : Long(2, strides=[1], device=cpu) = onnx::Slice[onnx_name="Slice_222"](%onnx::Slice_178, %onnx::Slice_180, %onnx::Slice_181, %onnx::Slice_179) # /home/ashishpapanai/miniconda3/envs/parseq/lib/python3.7/site-packages/timm/models/layers/patch_embed.py:46:0
  %onnx::Concat_183 : Long(1, strides=[1], requires_grad=0, device=cpu) = onnx::Constant[value={-1}, onnx_name="Constant_223"]() # /home/ashishpapanai/miniconda3/envs/parseq/lib/python3.7/site-packages/timm/models/layers/patch_embed.py:46:0
  %onnx::Reshape_184 : Long(3, strides=[1], device=cpu) = onnx::Concat[axis=0, onnx_name="Concat_224"](%onnx::Concat_182, %onnx::Concat_183) # /home/ashishpapanai/miniconda3/envs/parseq/lib/python3.7/site-packages/timm/models/layers/patch_embed.py:46:0
  %onnx::Transpose_185 : Float(1, 384, 128, strides=[49152, 128, 1], requires_grad=0, device=cpu) = onnx::Reshape[allowzero=0, onnx_name="Reshape_225"](%onnx::Shape_177, %onnx::Reshape_184) # /home/ashishpapanai/miniconda3/envs/parseq/lib/python3.7/site-packages/timm/models/layers/patch_embed.py:46:0
  %x : Float(1, 128, 384, strides=[49152, 1, 128], requires_grad=0, device=cpu) = onnx::Transpose[perm=[0, 2, 1], onnx_name="Transpose_226"](%onnx::Transpose_185) # /home/ashishpapanai/miniconda3/envs/parseq/lib/python3.7/site-packages/timm/models/layers/patch_embed.py:46:0
  %input.1 : Float(1, 128, 384, strides=[49152, 1, 128], requires_grad=0, device=cpu) = onnx::Add[onnx_name="Add_227"](%x, %encoder.pos_embed) # /home/ashishpapanai/miniconda3/envs/parseq/lib/python3.7/site-packages/timm/models/vision_transformer.py:528:0
  %onnx::Sub_188 : Float(1, 128, 1, strides=[128, 1, 1], device=cpu) = onnx::ReduceMean[axes=[-1], onnx_name="ReduceMean_228"](%input.1) # /home/ashishpapanai/miniconda3/envs/parseq/lib/python3.7/site-packages/torch/nn/functional.py:2503:0
  %onnx::Pow_189 : Float(1, 128, 384, strides=[49152, 384, 1], device=cpu) = onnx::Sub[onnx_name="Sub_229"](%input.1, %onnx::Sub_188) # /home/ashishpapanai/miniconda3/envs/parseq/lib/python3.7/site-packages/torch/nn/functional.py:2503:0
  %onnx::Pow_190 : Float(requires_grad=0, device=cpu) = onnx::Constant[value={2}, onnx_name="Constant_230"]() # /home/ashishpapanai/miniconda3/envs/parseq/lib/python3.7/site-packages/torch/nn/functional.py:2503:0
  %onnx::ReduceMean_191 : Float(1, 128, 384, strides=[49152, 384, 1], device=cpu) = onnx::Pow[onnx_name="Pow_231"](%onnx::Pow_189, %onnx::Pow_190) # /home/ashishpapanai/miniconda3/envs/parseq/lib/python3.7/site-packages/torch/nn/functional.py:2503:0
  %onnx::Add_192 : Float(1, 128, 1, strides=[128, 1, 1], device=cpu) = onnx::ReduceMean[axes=[-1], onnx_name="ReduceMean_232"](%onnx::ReduceMean_191) # /home/ashishpapanai/miniconda3/envs/parseq/lib/python3.7/site-packages/torch/nn/functional.py:2503:0
  %onnx::Add_193 : Float(requires_grad=0, device=cpu) = onnx::Constant[value={1e-06}, onnx_name="Constant_233"]() # /home/ashishpapanai/miniconda3/envs/parseq/lib/python3.7/site-packages/torch/nn/functional.py:2503:0
  %onnx::Sqrt_194 : Float(1, 128, 1, strides=[128, 1, 1], device=cpu) = onnx::Add[onnx_name="Add_234"](%onnx::Add_192, %onnx::Add_193) # /home/ashishpapanai/miniconda3/envs/parseq/lib/python3.7/site-packages/torch/nn/functional.py:2503:0
  %onnx::Div_195 : Float(1, 128, 1, strides=[128, 1, 1], device=cpu) = onnx::Sqrt[onnx_name="Sqrt_235"](%onnx::Sqrt_194) # /home/ashishpapanai/miniconda3/envs/parseq/lib/python3.7/site-packages/torch/nn/functional.py:2503:0
  %onnx::Mul_196 : Float(1, 128, 384, strides=[49152, 384, 1], device=cpu) = onnx::Div[onnx_name="Div_236"](%onnx::Pow_189, %onnx::Div_195) # /home/ashishpapanai/miniconda3/envs/parseq/lib/python3.7/site-packages/torch/nn/functional.py:2503:0
  %onnx::Add_197 : Float(1, 128, 384, strides=[49152, 384, 1], device=cpu) = onnx::Mul[onnx_name="Mul_237"](%onnx::Mul_196, %encoder.blocks.0.norm1.weight) # /home/ashishpapanai/miniconda3/envs/parseq/lib/python3.7/site-packages/torch/nn/functional.py:2503:0
  %onnx::MatMul_198 : Float(1, 128, 384, strides=[49152, 384, 1], requires_grad=0, device=cpu) = onnx::Add[onnx_name="Add_238"](%onnx::Add_197, %encoder.blocks.0.norm1.bias) # /home/ashishpapanai/miniconda3/envs/parseq/lib/python3.7/site-packages/torch/nn/functional.py:2503:0
  %onnx::Add_203 : Float(1, 128, 1152, strides=[147456, 1152, 1], device=cpu) = onnx::MatMul[onnx_name="MatMul_239"](%onnx::MatMul_198, %onnx::MatMul_4666) # /home/ashishpapanai/miniconda3/envs/parseq/lib/python3.7/site-packages/torch/nn/modules/linear.py:114:0
  %onnx::Reshape_204 : Float(1, 128, 1152, strides=[147456, 1152, 1], requires_grad=0, device=cpu) = onnx::Add[onnx_name="Add_240"](%encoder.blocks.0.attn.qkv.bias, %onnx::Add_203) # /home/ashishpapanai/miniconda3/envs/parseq/lib/python3.7/site-packages/torch/nn/modules/linear.py:114:0
  %onnx::Transpose_219 : Float(1, 128, 3, 6, 64, strides=[147456, 1152, 384, 64, 1], requires_grad=0, device=cpu) = onnx::Reshape[allowzero=0, onnx_name="Reshape_241"](%onnx::Reshape_204, %onnx::Reshape_4672) # /home/ashishpapanai/miniconda3/envs/parseq/lib/python3.7/site-packages/timm/models/vision_transformer.py:217:0
  %onnx::Split_220 : Float(3, 1, 6, 128, 64, strides=[384, 147456, 64, 1152, 1], requires_grad=0, device=cpu) = onnx::Transpose[perm=[2, 0, 3, 1, 4], onnx_name="Transpose_242"](%onnx::Transpose_219) # /home/ashishpapanai/miniconda3/envs/parseq/lib/python3.7/site-packages/timm/models/vision_transformer.py:217:0
  %onnx::Split_221 : Long(3, strides=[1], device=cpu) = onnx::Constant[value= 1  1  1 [ CPULongType{3} ], onnx_name="Constant_243"]() # /home/ashishpapanai/miniconda3/envs/parseq/lib/python3.7/site-packages/timm/models/vision_transformer.py:218:0
  %onnx::Squeeze_222 : Float(1, 1, 6, 128, 64, strides=[49152, 49152, 8192, 64, 1], device=cpu), %onnx::Squeeze_223 : Float(1, 1, 6, 128, 64, strides=[49152, 49152, 8192, 64, 1], device=cpu), %onnx::Squeeze_224 : Float(1, 1, 6, 128, 64, strides=[49152, 49152, 8192, 64, 1], device=cpu) = onnx::Split[axis=0, onnx_name="Split_244"](%onnx::Split_220, %onnx::Split_221) # /home/ashishpapanai/miniconda3/envs/parseq/lib/python3.7/site-packages/timm/models/vision_transformer.py:218:0
  %onnx::Squeeze_225 : Long(1, strides=[1], device=cpu) = onnx::Constant[value={0}, onnx_name="Constant_245"]() # /home/ashishpapanai/miniconda3/envs/parseq/lib/python3.7/site-packages/timm/models/vision_transformer.py:218:0
  %onnx::MatMul_226 : Float(1, 6, 128, 64, strides=[147456, 64, 1152, 1], requires_grad=0, device=cpu) = onnx::Squeeze[onnx_name="Squeeze_246"](%onnx::Squeeze_222, %onnx::Squeeze_225) # /home/ashishpapanai/miniconda3/envs/parseq/lib/python3.7/site-packages/timm/models/vision_transformer.py:218:0
  %onnx::Squeeze_227 : Long(1, strides=[1], device=cpu) = onnx::Constant[value={0}, onnx_name="Constant_247"]() # /home/ashishpapanai/miniconda3/envs/parseq/lib/python3.7/site-packages/timm/models/vision_transformer.py:218:0
  %onnx::Transpose_228 : Float(1, 6, 128, 64, strides=[147456, 64, 1152, 1], requires_grad=0, device=cpu) = onnx::Squeeze[onnx_name="Squeeze_248"](%onnx::Squeeze_223, %onnx::Squeeze_227) # /home/ashishpapanai/miniconda3/envs/parseq/lib/python3.7/site-packages/timm/models/vision_transformer.py:218:0
  %onnx::Squeeze_229 : Long(1, strides=[1], device=cpu) = onnx::Constant[value={0}, onnx_name="Constant_249"]() # /home/ashishpapanai/miniconda3/envs/parseq/lib/python3.7/site-packages/timm/models/vision_transformer.py:218:0
  %onnx::MatMul_230 : Float(1, 6, 128, 64, strides=[147456, 64, 1152, 1], requires_grad=0, device=cpu) = onnx::Squeeze[onnx_name="Squeeze_250"](%onnx::Squeeze_224, %onnx::Squeeze_229) # /home/ashishpapanai/miniconda3/envs/parseq/lib/python3.7/site-packages/timm/models/vision_transformer.py:218:0
  %onnx::MatMul_231 : Float(1, 6, 64, 128, strides=[147456, 64, 1, 1152], requires_grad=0, device=cpu) = onnx::Transpose[perm=[0, 1, 3, 2], onnx_name="Transpose_251"](%onnx::Transpose_228) # /home/ashishpapanai/miniconda3/envs/parseq/lib/python3.7/site-packages/timm/models/vision_transformer.py:220:0
  %onnx::Mul_232 : Float(1, 6, 128, 128, strides=[98304, 16384, 128, 1], requires_grad=0, device=cpu) = onnx::MatMul[onnx_name="MatMul_252"](%onnx::MatMul_226, %onnx::MatMul_231) # /home/ashishpapanai/miniconda3/envs/parseq/lib/python3.7/site-packages/timm/models/vision_transformer.py:220:0
  %onnx::Mul_233 : Float(requires_grad=0, device=cpu) = onnx::Constant[value={0.125}, onnx_name="Constant_253"]()
  %onnx::Softmax_234 : Float(1, 6, 128, 128, strides=[98304, 16384, 128, 1], requires_grad=0, device=cpu) = onnx::Mul[onnx_name="Mul_254"](%onnx::Mul_232, %onnx::Mul_233) # /home/ashishpapanai/miniconda3/envs/parseq/lib/python3.7/site-packages/timm/models/vision_transformer.py:220:0
  %input.4 : Float(1, 6, 128, 128, strides=[98304, 16384, 128, 1], requires_grad=0, device=cpu) = onnx::Softmax[axis=-1, onnx_name="Softmax_255"](%onnx::Softmax_234) # /home/ashishpapanai/miniconda3/envs/parseq/lib/python3.7/site-packages/timm/models/vision_transformer.py:221:0
  %onnx::Transpose_236 : Float(1, 6, 128, 64, strides=[49152, 8192, 64, 1], requires_grad=0, device=cpu) = onnx::MatMul[onnx_name="MatMul_256"](%input.4, %onnx::MatMul_230) # /home/ashishpapanai/miniconda3/envs/parseq/lib/python3.7/site-packages/timm/models/vision_transformer.py:224:0
  %onnx::Reshape_237 : Float(1, 128, 6, 64, strides=[49152, 64, 8192, 1], requires_grad=0, device=cpu) = onnx::Transpose[perm=[0, 2, 1, 3], onnx_name="Transpose_257"](%onnx::Transpose_236) # /home/ashishpapanai/miniconda3/envs/parseq/lib/python3.7/site-packages/timm/models/vision_transformer.py:224:0
  %onnx::MatMul_245 : Float(1, 128, 384, strides=[49152, 384, 1], requires_grad=0, device=cpu) = onnx::Reshape[allowzero=0, onnx_name="Reshape_258"](%onnx::Reshape_237, %onnx::Reshape_4676) # /home/ashishpapanai/miniconda3/envs/parseq/lib/python3.7/site-packages/timm/models/vision_transformer.py:224:0
  %onnx::Add_247 : Float(1, 128, 384, strides=[49152, 384, 1], device=cpu) = onnx::MatMul[onnx_name="MatMul_259"](%onnx::MatMul_245, %onnx::MatMul_4677) # /home/ashishpapanai/miniconda3/envs/parseq/lib/python3.7/site-packages/torch/nn/modules/linear.py:114:0
  %input.8 : Float(1, 128, 384, strides=[49152, 384, 1], requires_grad=0, device=cpu) = onnx::Add[onnx_name="Add_260"](%encoder.blocks.0.attn.proj.bias, %onnx::Add_247) # /home/ashishpapanai/miniconda3/envs/parseq/lib/python3.7/site-packages/torch/nn/modules/linear.py:114:0
  %input.12 : Float(1, 128, 384, strides=[49152, 1, 128], requires_grad=0, device=cpu) = onnx::Add[onnx_name="Add_261"](%input.1, %input.8) # /home/ashishpapanai/miniconda3/envs/parseq/lib/python3.7/site-packages/timm/models/vision_transformer.py:268:0
  %onnx::Sub_250 : Float(1, 128, 1, strides=[128, 1, 1], device=cpu) = onnx::ReduceMean[axes=[-1], onnx_name="ReduceMean_262"](%input.12) # /home/ashishpapanai/miniconda3/envs/parseq/lib/python3.7/site-packages/torch/nn/functional.py:2503:0
  %onnx::Pow_251 : Float(1, 128, 384, strides=[49152, 384, 1], device=cpu) = onnx::Sub[onnx_name="Sub_263"](%input.12, %onnx::Sub_250) # /home/ashishpapanai/miniconda3/envs/parseq/lib/python3.7/site-packages/torch/nn/functional.py:2503:0
  %onnx::Pow_252 : Float(requires_grad=0, device=cpu) = onnx::Constant[value={2}, onnx_name="Constant_264"]() # /home/ashishpapanai/miniconda3/envs/parseq/lib/python3.7/site-packages/torch/nn/functional.py:2503:0
  %onnx::ReduceMean_253 : Float(1, 128, 384, strides=[49152, 384, 1], device=cpu) = onnx::Pow[onnx_name="Pow_265"](%onnx::Pow_251, %onnx::Pow_252) # /home/ashishpapanai/miniconda3/envs/parseq/lib/python3.7/site-packages/torch/nn/functional.py:2503:0
  %onnx::Add_254 : Float(1, 128, 1, strides=[128, 1, 1], device=cpu) = onnx::ReduceMean[axes=[-1], onnx_name="ReduceMean_266"](%onnx::ReduceMean_253) # /home/ashishpapanai/miniconda3/envs/parseq/lib/python3.7/site-packages/torch/nn/functional.py:2503:0
  %onnx::Add_255 : Float(requires_grad=0, device=cpu) = onnx::Constant[value={1e-06}, onnx_name="Constant_267"]() # /home/ashishpapanai/miniconda3/envs/parseq/lib/python3.7/site-packages/torch/nn/functional.py:2503:0
  %onnx::Sqrt_256 : Float(1, 128, 1, strides=[128, 1, 1], device=cpu) = onnx::Add[onnx_name="Add_268"](%onnx::Add_254, %onnx::Add_255) # /home/ashishpapanai/miniconda3/envs/parseq/lib/python3.7/site-packages/torch/nn/functional.py:2503:0
  %onnx::Div_257 : Float(1, 128, 1, strides=[128, 1, 1], device=cpu) = onnx::Sqrt[onnx_name="Sqrt_269"](%onnx::Sqrt_256) # /home/ashishpapanai/miniconda3/envs/parseq/lib/python3.7/site-packages/torch/nn/functional.py:2503:0
  %onnx::Mul_258 : Float(1, 128, 384, strides=[49152, 384, 1], device=cpu) = onnx::Div[onnx_name="Div_270"](%onnx::Pow_251, %onnx::Div_257) # /home/ashishpapanai/miniconda3/envs/parseq/lib/python3.7/site-packages/torch/nn/functional.py:2503:0
  %onnx::Add_259 : Float(1, 128, 384, strides=[49152, 384, 1], device=cpu) = onnx::Mul[onnx_name="Mul_271"](%onnx::Mul_258, %encoder.blocks.0.norm2.weight) # /home/ashishpapanai/miniconda3/envs/parseq/lib/python3.7/site-packages/torch/nn/functional.py:2503:0
  %onnx::MatMul_260 : Float(1, 128, 384, strides=[49152, 384, 1], requires_grad=0, device=cpu) = onnx::Add[onnx_name="Add_272"](%onnx::Add_259, %encoder.blocks.0.norm2.bias) # /home/ashishpapanai/miniconda3/envs/parseq/lib/python3.7/site-packages/torch/nn/functional.py:2503:0
  %onnx::Add_262 : Float(1, 128, 1536, strides=[196608, 1536, 1], device=cpu) = onnx::MatMul[onnx_name="MatMul_273"](%onnx::MatMul_260, %onnx::MatMul_4678) # /home/ashishpapanai/miniconda3/envs/parseq/lib/python3.7/site-packages/torch/nn/modules/linear.py:114:0
  %onnx::Div_263 : Float(1, 128, 1536, strides=[196608, 1536, 1], requires_grad=0, device=cpu) = onnx::Add[onnx_name="Add_274"](%encoder.blocks.0.mlp.fc1.bias, %onnx::Add_262) # /home/ashishpapanai/miniconda3/envs/parseq/lib/python3.7/site-packages/torch/nn/modules/linear.py:114:0
  %onnx::Div_264 : Float(requires_grad=0, device=cpu) = onnx::Constant[value={1.41421}, onnx_name="Constant_275"]() # /home/ashishpapanai/miniconda3/envs/parseq/lib/python3.7/site-packages/torch/nn/modules/activation.py:681:0
  %onnx::Erf_265 : Float(1, 128, 1536, strides=[196608, 1536, 1], device=cpu) = onnx::Div[onnx_name="Div_276"](%onnx::Div_263, %onnx::Div_264) # /home/ashishpapanai/miniconda3/envs/parseq/lib/python3.7/site-packages/torch/nn/modules/activation.py:681:0
  %onnx::Add_266 : Float(1, 128, 1536, strides=[196608, 1536, 1], device=cpu) = onnx::Erf[onnx_name="Erf_277"](%onnx::Erf_265) # /home/ashishpapanai/miniconda3/envs/parseq/lib/python3.7/site-packages/torch/nn/modules/activation.py:681:0
  %onnx::Add_267 : Float(requires_grad=0, device=cpu) = onnx::Constant[value={1}, onnx_name="Constant_278"]() # /home/ashishpapanai/miniconda3/envs/parseq/lib/python3.7/site-packages/torch/nn/modules/activation.py:681:0
  %onnx::Mul_268 : Float(1, 128, 1536, strides=[196608, 1536, 1], device=cpu) = onnx::Add[onnx_name="Add_279"](%onnx::Add_266, %onnx::Add_267) # /home/ashishpapanai/miniconda3/envs/parseq/lib/python3.7/site-packages/torch/nn/modules/activation.py:681:0
  %onnx::Mul_269 : Float(1, 128, 1536, strides=[196608, 1536, 1], device=cpu) = onnx::Mul[onnx_name="Mul_280"](%onnx::Div_263, %onnx::Mul_268) # /home/ashishpapanai/miniconda3/envs/parseq/lib/python3.7/site-packages/torch/nn/modules/activation.py:681:0
  %onnx::Mul_270 : Float(requires_grad=0, device=cpu) = onnx::Constant[value={0.5}, onnx_name="Constant_281"]() # /home/ashishpapanai/miniconda3/envs/parseq/lib/python3.7/site-packages/torch/nn/modules/activation.py:681:0
  %input.16 : Float(1, 128, 1536, strides=[196608, 1536, 1], requires_grad=0, device=cpu) = onnx::Mul[onnx_name="Mul_282"](%onnx::Mul_269, %onnx::Mul_270) # /home/ashishpapanai/miniconda3/envs/parseq/lib/python3.7/site-packages/torch/nn/modules/activation.py:681:0
  %onnx::Add_273 : Float(1, 128, 384, strides=[49152, 384, 1], device=cpu) = onnx::MatMul[onnx_name="MatMul_283"](%input.16, %onnx::MatMul_4679) # /home/ashishpapanai/miniconda3/envs/parseq/lib/python3.7/site-packages/torch/nn/modules/linear.py:114:0
  %input.20 : Float(1, 128, 384, strides=[49152, 384, 1], requires_grad=0, device=cpu) = onnx::Add[onnx_name="Add_284"](%encoder.blocks.0.mlp.fc2.bias, %onnx::Add_273) # /home/ashishpapanai/miniconda3/envs/parseq/lib/python3.7/site-packages/torch/nn/modules/linear.py:114:0
  %input.24 : Float(1, 128, 384, strides=[49152, 1, 128], requires_grad=0, device=cpu) = onnx::Add[onnx_name="Add_285"](%input.12, %input.20) # /home/ashishpapanai/miniconda3/envs/parseq/lib/python3.7/site-packages/timm/models/vision_transformer.py:269:0
  %onnx::Sub_276 : Float(1, 128, 1, strides=[128, 1, 1], device=cpu) = onnx::ReduceMean[axes=[-1], onnx_name="ReduceMean_286"](%input.24) # /home/ashishpapanai/miniconda3/envs/parseq/lib/python3.7/site-packages/torch/nn/functional.py:2503:0
  %onnx::Pow_277 : Float(1, 128, 384, strides=[49152, 384, 1], device=cpu) = onnx::Sub[onnx_name="Sub_287"](%input.24, %onnx::Sub_276) # /home/ashishpapanai/miniconda3/envs/parseq/lib/python3.7/site-packages/torch/nn/functional.py:2503:0
  %onnx::Pow_278 : Float(requires_grad=0, device=cpu) = onnx::Constant[value={2}, onnx_name="Constant_288"]() # /home/ashishpapanai/miniconda3/envs/parseq/lib/python3.7/site-packages/torch/nn/functional.py:2503:0
  %onnx::ReduceMean_279 : Float(1, 128, 384, strides=[49152, 384, 1], device=cpu) = onnx::Pow[onnx_name="Pow_289"](%onnx::Pow_277, %onnx::Pow_278) # /home/ashishpapanai/miniconda3/envs/parseq/lib/python3.7/site-packages/torch/nn/functional.py:2503:0
  %onnx::Add_280 : Float(1, 128, 1, strides=[128, 1, 1], device=cpu) = onnx::ReduceMean[axes=[-1], onnx_name="ReduceMean_290"](%onnx::ReduceMean_279) # /home/ashishpapanai/miniconda3/envs/parseq/lib/python3.7/site-packages/torch/nn/functional.py:2503:0
  %onnx::Add_281 : Float(requires_grad=0, device=cpu) = onnx::Constant[value={1e-06}, onnx_name="Constant_291"]() # /home/ashishpapanai/miniconda3/envs/parseq/lib/python3.7/site-packages/torch/nn/functional.py:2503:0
  %onnx::Sqrt_282 : Float(1, 128, 1, strides=[128, 1, 1], device=cpu) = onnx::Add[onnx_name="Add_292"](%onnx::Add_280, %onnx::Add_281) # /home/ashishpapanai/miniconda3/envs/parseq/lib/python3.7/site-packages/torch/nn/functional.py:2503:0
  %onnx::Div_283 : Float(1, 128, 1, strides=[128, 1, 1], device=cpu) = onnx::Sqrt[onnx_name="Sqrt_293"](%onnx::Sqrt_282) # /home/ashishpapanai/miniconda3/envs/parseq/lib/python3.7/site-packages/torch/nn/functional.py:2503:0
  %onnx::Mul_284 : Float(1, 128, 384, strides=[49152, 384, 1], device=cpu) = onnx::Div[onnx_name="Div_294"](%onnx::Pow_277, %onnx::Div_283) # /home/ashishpapanai/miniconda3/envs/parseq/lib/python3.7/site-packages/torch/nn/functional.py:2503:0
  %onnx::Add_285 : Float(1, 128, 384, strides=[49152, 384, 1], device=cpu) = onnx::Mul[onnx_name="Mul_295"](%onnx::Mul_284, %encoder.blocks.1.norm1.weight) # /home/ashishpapanai/miniconda3/envs/parseq/lib/python3.7/site-packages/torch/nn/functional.py:2503:0
  %onnx::MatMul_286 : Float(1, 128, 384, strides=[49152, 384, 1], requires_grad=0, device=cpu) = onnx::Add[onnx_name="Add_296"](%onnx::Add_285, %encoder.blocks.1.norm1.bias) # /home/ashishpapanai/miniconda3/envs/parseq/lib/python3.7/site-packages/torch/nn/functional.py:2503:0
  %onnx::Add_291 : Float(1, 128, 1152, strides=[147456, 1152, 1], device=cpu) = onnx::MatMul[onnx_name="MatMul_297"](%onnx::MatMul_286, %onnx::MatMul_4680) # /home/ashishpapanai/miniconda3/envs/parseq/lib/python3.7/site-packages/torch/nn/modules/linear.py:114:0
  %onnx::Reshape_292 : Float(1, 128, 1152, strides=[147456, 1152, 1], requires_grad=0, device=cpu) = onnx::Add[onnx_name="Add_298"](%encoder.blocks.1.attn.qkv.bias, %onnx::Add_291) # /home/ashishpapanai/miniconda3/envs/parseq/lib/python3.7/site-packages/torch/nn/modules/linear.py:114:0
  %onnx::Transpose_307 : Float(1, 128, 3, 6, 64, strides=[147456, 1152, 384, 64, 1], requires_grad=0, device=cpu) = onnx::Reshape[allowzero=0, onnx_name="Reshape_299"](%onnx::Reshape_292, %onnx::Reshape_4686) # /home/ashishpapanai/miniconda3/envs/parseq/lib/python3.7/site-packages/timm/models/vision_transformer.py:217:0
  %onnx::Split_308 : Float(3, 1, 6, 128, 64, strides=[384, 147456, 64, 1152, 1], requires_grad=0, device=cpu) = onnx::Transpose[perm=[2, 0, 3, 1, 4], onnx_name="Transpose_300"](%onnx::Transpose_307) # /home/ashishpapanai/miniconda3/envs/parseq/lib/python3.7/site-packages/timm/models/vision_transformer.py:217:0
  %onnx::Split_309 : Long(3, strides=[1], device=cpu) = onnx::Constant[value= 1  1  1 [ CPULongType{3} ], onnx_name="Constant_301"]() # /home/ashishpapanai/miniconda3/envs/parseq/lib/python3.7/site-packages/timm/models/vision_transformer.py:218:0
  %onnx::Squeeze_310 : Float(1, 1, 6, 128, 64, strides=[49152, 49152, 8192, 64, 1], device=cpu), %onnx::Squeeze_311 : Float(1, 1, 6, 128, 64, strides=[49152, 49152, 8192, 64, 1], device=cpu), %onnx::Squeeze_312 : Float(1, 1, 6, 128, 64, strides=[49152, 49152, 8192, 64, 1], device=cpu) = onnx::Split[axis=0, onnx_name="Split_302"](%onnx::Split_308, %onnx::Split_309) # /home/ashishpapanai/miniconda3/envs/parseq/lib/python3.7/site-packages/timm/models/vision_transformer.py:218:0
  %onnx::Squeeze_313 : Long(1, strides=[1], device=cpu) = onnx::Constant[value={0}, onnx_name="Constant_303"]() # /home/ashishpapanai/miniconda3/envs/parseq/lib/python3.7/site-packages/timm/models/vision_transformer.py:218:0
  %onnx::MatMul_314 : Float(1, 6, 128, 64, strides=[147456, 64, 1152, 1], requires_grad=0, device=cpu) = onnx::Squeeze[onnx_name="Squeeze_304"](%onnx::Squeeze_310, %onnx::Squeeze_313) # /home/ashishpapanai/miniconda3/envs/parseq/lib/python3.7/site-packages/timm/models/vision_transformer.py:218:0
  %onnx::Squeeze_315 : Long(1, strides=[1], device=cpu) = onnx::Constant[value={0}, onnx_name="Constant_305"]() # /home/ashishpapanai/miniconda3/envs/parseq/lib/python3.7/site-packages/timm/models/vision_transformer.py:218:0
  %onnx::Transpose_316 : Float(1, 6, 128, 64, strides=[147456, 64, 1152, 1], requires_grad=0, device=cpu) = onnx::Squeeze[onnx_name="Squeeze_306"](%onnx::Squeeze_311, %onnx::Squeeze_315) # /home/ashishpapanai/miniconda3/envs/parseq/lib/python3.7/site-packages/timm/models/vision_transformer.py:218:0
  %onnx::Squeeze_317 : Long(1, strides=[1], device=cpu) = onnx::Constant[value={0}, onnx_name="Constant_307"]() # /home/ashishpapanai/miniconda3/envs/parseq/lib/python3.7/site-packages/timm/models/vision_transformer.py:218:0
  %onnx::MatMul_318 : Float(1, 6, 128, 64, strides=[147456, 64, 1152, 1], requires_grad=0, device=cpu) = onnx::Squeeze[onnx_name="Squeeze_308"](%onnx::Squeeze_312, %onnx::Squeeze_317) # /home/ashishpapanai/miniconda3/envs/parseq/lib/python3.7/site-packages/timm/models/vision_transformer.py:218:0
  %onnx::MatMul_319 : Float(1, 6, 64, 128, strides=[147456, 64, 1, 1152], requires_grad=0, device=cpu) = onnx::Transpose[perm=[0, 1, 3, 2], onnx_name="Transpose_309"](%onnx::Transpose_316) # /home/ashishpapanai/miniconda3/envs/parseq/lib/python3.7/site-packages/timm/models/vision_transformer.py:220:0
  %onnx::Mul_320 : Float(1, 6, 128, 128, strides=[98304, 16384, 128, 1], requires_grad=0, device=cpu) = onnx::MatMul[onnx_name="MatMul_310"](%onnx::MatMul_314, %onnx::MatMul_319) # /home/ashishpapanai/miniconda3/envs/parseq/lib/python3.7/site-packages/timm/models/vision_transformer.py:220:0
  %onnx::Mul_321 : Float(requires_grad=0, device=cpu) = onnx::Constant[value={0.125}, onnx_name="Constant_311"]()
  %onnx::Softmax_322 : Float(1, 6, 128, 128, strides=[98304, 16384, 128, 1], requires_grad=0, device=cpu) = onnx::Mul[onnx_name="Mul_312"](%onnx::Mul_320, %onnx::Mul_321) # /home/ashishpapanai/miniconda3/envs/parseq/lib/python3.7/site-packages/timm/models/vision_transformer.py:220:0
  %input.28 : Float(1, 6, 128, 128, strides=[98304, 16384, 128, 1], requires_grad=0, device=cpu) = onnx::Softmax[axis=-1, onnx_name="Softmax_313"](%onnx::Softmax_322) # /home/ashishpapanai/miniconda3/envs/parseq/lib/python3.7/site-packages/timm/models/vision_transformer.py:221:0
  %onnx::Transpose_324 : Float(1, 6, 128, 64, strides=[49152, 8192, 64, 1], requires_grad=0, device=cpu) = onnx::MatMul[onnx_name="MatMul_314"](%input.28, %onnx::MatMul_318) # /home/ashishpapanai/miniconda3/envs/parseq/lib/python3.7/site-packages/timm/models/vision_transformer.py:224:0
  %onnx::Reshape_325 : Float(1, 128, 6, 64, strides=[49152, 64, 8192, 1], requires_grad=0, device=cpu) = onnx::Transpose[perm=[0, 2, 1, 3], onnx_name="Transpose_315"](%onnx::Transpose_324) # /home/ashishpapanai/miniconda3/envs/parseq/lib/python3.7/site-packages/timm/models/vision_transformer.py:224:0
  %onnx::MatMul_333 : Float(1, 128, 384, strides=[49152, 384, 1], requires_grad=0, device=cpu) = onnx::Reshape[allowzero=0, onnx_name="Reshape_316"](%onnx::Reshape_325, %onnx::Reshape_4690) # /home/ashishpapanai/miniconda3/envs/parseq/lib/python3.7/site-packages/timm/models/vision_transformer.py:224:0
  %onnx::Add_335 : Float(1, 128, 384, strides=[49152, 384, 1], device=cpu) = onnx::MatMul[onnx_name="MatMul_317"](%onnx::MatMul_333, %onnx::MatMul_4691) # /home/ashishpapanai/miniconda3/envs/parseq/lib/python3.7/site-packages/torch/nn/modules/linear.py:114:0
  %input.32 : Float(1, 128, 384, strides=[49152, 384, 1], requires_grad=0, device=cpu) = onnx::Add[onnx_name="Add_318"](%encoder.blocks.1.attn.proj.bias, %onnx::Add_335) # /home/ashishpapanai/miniconda3/envs/parseq/lib/python3.7/site-packages/torch/nn/modules/linear.py:114:0
  %input.36 : Float(1, 128, 384, strides=[49152, 1, 128], requires_grad=0, device=cpu) = onnx::Add[onnx_name="Add_319"](%input.24, %input.32) # /home/ashishpapanai/miniconda3/envs/parseq/lib/python3.7/site-packages/timm/models/vision_transformer.py:268:0
  %onnx::Sub_338 : Float(1, 128, 1, strides=[128, 1, 1], device=cpu) = onnx::ReduceMean[axes=[-1], onnx_name="ReduceMean_320"](%input.36) # /home/ashishpapanai/miniconda3/envs/parseq/lib/python3.7/site-packages/torch/nn/functional.py:2503:0
  %onnx::Pow_339 : Float(1, 128, 384, strides=[49152, 384, 1], device=cpu) = onnx::Sub[onnx_name="Sub_321"](%input.36, %onnx::Sub_338) # /home/ashishpapanai/miniconda3/envs/parseq/lib/python3.7/site-packages/torch/nn/functional.py:2503:0
  %onnx::Pow_340 : Float(requires_grad=0, device=cpu) = onnx::Constant[value={2}, onnx_name="Constant_322"]() # /home/ashishpapanai/miniconda3/envs/parseq/lib/python3.7/site-packages/torch/nn/functional.py:2503:0
  %onnx::ReduceMean_341 : Float(1, 128, 384, strides=[49152, 384, 1], device=cpu) = onnx::Pow[onnx_name="Pow_323"](%onnx::Pow_339, %onnx::Pow_340) # /home/ashishpapanai/miniconda3/envs/parseq/lib/python3.7/site-packages/torch/nn/functional.py:2503:0
  %onnx::Add_342 : Float(1, 128, 1, strides=[128, 1, 1], device=cpu) = onnx::ReduceMean[axes=[-1], onnx_name="ReduceMean_324"](%onnx::ReduceMean_341) # /home/ashishpapanai/miniconda3/envs/parseq/lib/python3.7/site-packages/torch/nn/functional.py:2503:0
  %onnx::Add_343 : Float(requires_grad=0, device=cpu) = onnx::Constant[value={1e-06}, onnx_name="Constant_325"]() # /home/ashishpapanai/miniconda3/envs/parseq/lib/python3.7/site-packages/torch/nn/functional.py:2503:0
  %onnx::Sqrt_344 : Float(1, 128, 1, strides=[128, 1, 1], device=cpu) = onnx::Add[onnx_name="Add_326"](%onnx::Add_342, %onnx::Add_343) # /home/ashishpapanai/miniconda3/envs/parseq/lib/python3.7/site-packages/torch/nn/functional.py:2503:0
  %onnx::Div_345 : Float(1, 128, 1, strides=[128, 1, 1], device=cpu) = onnx::Sqrt[onnx_name="Sqrt_327"](%onnx::Sqrt_344) # /home/ashishpapanai/miniconda3/envs/parseq/lib/python3.7/site-packages/torch/nn/functional.py:2503:0
  %onnx::Mul_346 : Float(1, 128, 384, strides=[49152, 384, 1], device=cpu) = onnx::Div[onnx_name="Div_328"](%onnx::Pow_339, %onnx::Div_345) # /home/ashishpapanai/miniconda3/envs/parseq/lib/python3.7/site-packages/torch/nn/functional.py:2503:0
  %onnx::Add_347 : Float(1, 128, 384, strides=[49152, 384, 1], device=cpu) = onnx::Mul[onnx_name="Mul_329"](%onnx::Mul_346, %encoder.blocks.1.norm2.weight) # /home/ashishpapanai/miniconda3/envs/parseq/lib/python3.7/site-packages/torch/nn/functional.py:2503:0
  %onnx::MatMul_348 : Float(1, 128, 384, strides=[49152, 384, 1], requires_grad=0, device=cpu) = onnx::Add[onnx_name="Add_330"](%onnx::Add_347, %encoder.blocks.1.norm2.bias) # /home/ashishpapanai/miniconda3/envs/parseq/lib/python3.7/site-packages/torch/nn/functional.py:2503:0
  %onnx::Add_350 : Float(1, 128, 1536, strides=[196608, 1536, 1], device=cpu) = onnx::MatMul[onnx_name="MatMul_331"](%onnx::MatMul_348, %onnx::MatMul_4692) # /home/ashishpapanai/miniconda3/envs/parseq/lib/python3.7/site-packages/torch/nn/modules/linear.py:114:0
  %onnx::Div_351 : Float(1, 128, 1536, strides=[196608, 1536, 1], requires_grad=0, device=cpu) = onnx::Add[onnx_name="Add_332"](%encoder.blocks.1.mlp.fc1.bias, %onnx::Add_350) # /home/ashishpapanai/miniconda3/envs/parseq/lib/python3.7/site-packages/torch/nn/modules/linear.py:114:0
  %onnx::Div_352 : Float(requires_grad=0, device=cpu) = onnx::Constant[value={1.41421}, onnx_name="Constant_333"]() # /home/ashishpapanai/miniconda3/envs/parseq/lib/python3.7/site-packages/torch/nn/modules/activation.py:681:0
  %onnx::Erf_353 : Float(1, 128, 1536, strides=[196608, 1536, 1], device=cpu) = onnx::Div[onnx_name="Div_334"](%onnx::Div_351, %onnx::Div_352) # /home/ashishpapanai/miniconda3/envs/parseq/lib/python3.7/site-packages/torch/nn/modules/activation.py:681:0
  %onnx::Add_354 : Float(1, 128, 1536, strides=[196608, 1536, 1], device=cpu) = onnx::Erf[onnx_name="Erf_335"](%onnx::Erf_353) # /home/ashishpapanai/miniconda3/envs/parseq/lib/python3.7/site-packages/torch/nn/modules/activation.py:681:0
  %onnx::Add_355 : Float(requires_grad=0, device=cpu) = onnx::Constant[value={1}, onnx_name="Constant_336"]() # /home/ashishpapanai/miniconda3/envs/parseq/lib/python3.7/site-packages/torch/nn/modules/activation.py:681:0
  %onnx::Mul_356 : Float(1, 128, 1536, strides=[196608, 1536, 1], device=cpu) = onnx::Add[onnx_name="Add_337"](%onnx::Add_354, %onnx::Add_355) # /home/ashishpapanai/miniconda3/envs/parseq/lib/python3.7/site-packages/torch/nn/modules/activation.py:681:0
  %onnx::Mul_357 : Float(1, 128, 1536, strides=[196608, 1536, 1], device=cpu) = onnx::Mul[onnx_name="Mul_338"](%onnx::Div_351, %onnx::Mul_356) # /home/ashishpapanai/miniconda3/envs/parseq/lib/python3.7/site-packages/torch/nn/modules/activation.py:681:0
  %onnx::Mul_358 : Float(requires_grad=0, device=cpu) = onnx::Constant[value={0.5}, onnx_name="Constant_339"]() # /home/ashishpapanai/miniconda3/envs/parseq/lib/python3.7/site-packages/torch/nn/modules/activation.py:681:0
  %input.40 : Float(1, 128, 1536, strides=[196608, 1536, 1], requires_grad=0, device=cpu) = onnx::Mul[onnx_name="Mul_340"](%onnx::Mul_357, %onnx::Mul_358) # /home/ashishpapanai/miniconda3/envs/parseq/lib/python3.7/site-packages/torch/nn/modules/activation.py:681:0
  %onnx::Add_361 : Float(1, 128, 384, strides=[49152, 384, 1], device=cpu) = onnx::MatMul[onnx_name="MatMul_341"](%input.40, %onnx::MatMul_4693) # /home/ashishpapanai/miniconda3/envs/parseq/lib/python3.7/site-packages/torch/nn/modules/linear.py:114:0
  %input.44 : Float(1, 128, 384, strides=[49152, 384, 1], requires_grad=0, device=cpu) = onnx::Add[onnx_name="Add_342"](%encoder.blocks.1.mlp.fc2.bias, %onnx::Add_361) # /home/ashishpapanai/miniconda3/envs/parseq/lib/python3.7/site-packages/torch/nn/modules/linear.py:114:0
  %input.48 : Float(1, 128, 384, strides=[49152, 1, 128], requires_grad=0, device=cpu) = onnx::Add[onnx_name="Add_343"](%input.36, %input.44) # /home/ashishpapanai/miniconda3/envs/parseq/lib/python3.7/site-packages/timm/models/vision_transformer.py:269:0
  %onnx::Sub_364 : Float(1, 128, 1, strides=[128, 1, 1], device=cpu) = onnx::ReduceMean[axes=[-1], onnx_name="ReduceMean_344"](%input.48) # /home/ashishpapanai/miniconda3/envs/parseq/lib/python3.7/site-packages/torch/nn/functional.py:2503:0
  %onnx::Pow_365 : Float(1, 128, 384, strides=[49152, 384, 1], device=cpu) = onnx::Sub[onnx_name="Sub_345"](%input.48, %onnx::Sub_364) # /home/ashishpapanai/miniconda3/envs/parseq/lib/python3.7/site-packages/torch/nn/functional.py:2503:0
  %onnx::Pow_366 : Float(requires_grad=0, device=cpu) = onnx::Constant[value={2}, onnx_name="Constant_346"]() # /home/ashishpapanai/miniconda3/envs/parseq/lib/python3.7/site-packages/torch/nn/functional.py:2503:0
  %onnx::ReduceMean_367 : Float(1, 128, 384, strides=[49152, 384, 1], device=cpu) = onnx::Pow[onnx_name="Pow_347"](%onnx::Pow_365, %onnx::Pow_366) # /home/ashishpapanai/miniconda3/envs/parseq/lib/python3.7/site-packages/torch/nn/functional.py:2503:0
  %onnx::Add_368 : Float(1, 128, 1, strides=[128, 1, 1], device=cpu) = onnx::ReduceMean[axes=[-1], onnx_name="ReduceMean_348"](%onnx::ReduceMean_367) # /home/ashishpapanai/miniconda3/envs/parseq/lib/python3.7/site-packages/torch/nn/functional.py:2503:0
  %onnx::Add_369 : Float(requires_grad=0, device=cpu) = onnx::Constant[value={1e-06}, onnx_name="Constant_349"]() # /home/ashishpapanai/miniconda3/envs/parseq/lib/python3.7/site-packages/torch/nn/functional.py:2503:0
  %onnx::Sqrt_370 : Float(1, 128, 1, strides=[128, 1, 1], device=cpu) = onnx::Add[onnx_name="Add_350"](%onnx::Add_368, %onnx::Add_369) # /home/ashishpapanai/miniconda3/envs/parseq/lib/python3.7/site-packages/torch/nn/functional.py:2503:0
  %onnx::Div_371 : Float(1, 128, 1, strides=[128, 1, 1], device=cpu) = onnx::Sqrt[onnx_name="Sqrt_351"](%onnx::Sqrt_370) # /home/ashishpapanai/miniconda3/envs/parseq/lib/python3.7/site-packages/torch/nn/functional.py:2503:0
  %onnx::Mul_372 : Float(1, 128, 384, strides=[49152, 384, 1], device=cpu) = onnx::Div[onnx_name="Div_352"](%onnx::Pow_365, %onnx::Div_371) # /home/ashishpapanai/miniconda3/envs/parseq/lib/python3.7/site-packages/torch/nn/functional.py:2503:0
  %onnx::Add_373 : Float(1, 128, 384, strides=[49152, 384, 1], device=cpu) = onnx::Mul[onnx_name="Mul_353"](%onnx::Mul_372, %encoder.blocks.2.norm1.weight) # /home/ashishpapanai/miniconda3/envs/parseq/lib/python3.7/site-packages/torch/nn/functional.py:2503:0
  %onnx::MatMul_374 : Float(1, 128, 384, strides=[49152, 384, 1], requires_grad=0, device=cpu) = onnx::Add[onnx_name="Add_354"](%onnx::Add_373, %encoder.blocks.2.norm1.bias) # /home/ashishpapanai/miniconda3/envs/parseq/lib/python3.7/site-packages/torch/nn/functional.py:2503:0
  %onnx::Add_379 : Float(1, 128, 1152, strides=[147456, 1152, 1], device=cpu) = onnx::MatMul[onnx_name="MatMul_355"](%onnx::MatMul_374, %onnx::MatMul_4694) # /home/ashishpapanai/miniconda3/envs/parseq/lib/python3.7/site-packages/torch/nn/modules/linear.py:114:0
  %onnx::Reshape_380 : Float(1, 128, 1152, strides=[147456, 1152, 1], requires_grad=0, device=cpu) = onnx::Add[onnx_name="Add_356"](%encoder.blocks.2.attn.qkv.bias, %onnx::Add_379) # /home/ashishpapanai/miniconda3/envs/parseq/lib/python3.7/site-packages/torch/nn/modules/linear.py:114:0
  %onnx::Transpose_395 : Float(1, 128, 3, 6, 64, strides=[147456, 1152, 384, 64, 1], requires_grad=0, device=cpu) = onnx::Reshape[allowzero=0, onnx_name="Reshape_357"](%onnx::Reshape_380, %onnx::Reshape_4700) # /home/ashishpapanai/miniconda3/envs/parseq/lib/python3.7/site-packages/timm/models/vision_transformer.py:217:0
  %onnx::Split_396 : Float(3, 1, 6, 128, 64, strides=[384, 147456, 64, 1152, 1], requires_grad=0, device=cpu) = onnx::Transpose[perm=[2, 0, 3, 1, 4], onnx_name="Transpose_358"](%onnx::Transpose_395) # /home/ashishpapanai/miniconda3/envs/parseq/lib/python3.7/site-packages/timm/models/vision_transformer.py:217:0
  %onnx::Split_397 : Long(3, strides=[1], device=cpu) = onnx::Constant[value= 1  1  1 [ CPULongType{3} ], onnx_name="Constant_359"]() # /home/ashishpapanai/miniconda3/envs/parseq/lib/python3.7/site-packages/timm/models/vision_transformer.py:218:0
  %onnx::Squeeze_398 : Float(1, 1, 6, 128, 64, strides=[49152, 49152, 8192, 64, 1], device=cpu), %onnx::Squeeze_399 : Float(1, 1, 6, 128, 64, strides=[49152, 49152, 8192, 64, 1], device=cpu), %onnx::Squeeze_400 : Float(1, 1, 6, 128, 64, strides=[49152, 49152, 8192, 64, 1], device=cpu) = onnx::Split[axis=0, onnx_name="Split_360"](%onnx::Split_396, %onnx::Split_397) # /home/ashishpapanai/miniconda3/envs/parseq/lib/python3.7/site-packages/timm/models/vision_transformer.py:218:0
  %onnx::Squeeze_401 : Long(1, strides=[1], device=cpu) = onnx::Constant[value={0}, onnx_name="Constant_361"]() # /home/ashishpapanai/miniconda3/envs/parseq/lib/python3.7/site-packages/timm/models/vision_transformer.py:218:0
  %onnx::MatMul_402 : Float(1, 6, 128, 64, strides=[147456, 64, 1152, 1], requires_grad=0, device=cpu) = onnx::Squeeze[onnx_name="Squeeze_362"](%onnx::Squeeze_398, %onnx::Squeeze_401) # /home/ashishpapanai/miniconda3/envs/parseq/lib/python3.7/site-packages/timm/models/vision_transformer.py:218:0
  %onnx::Squeeze_403 : Long(1, strides=[1], device=cpu) = onnx::Constant[value={0}, onnx_name="Constant_363"]() # /home/ashishpapanai/miniconda3/envs/parseq/lib/python3.7/site-packages/timm/models/vision_transformer.py:218:0
  %onnx::Transpose_404 : Float(1, 6, 128, 64, strides=[147456, 64, 1152, 1], requires_grad=0, device=cpu) = onnx::Squeeze[onnx_name="Squeeze_364"](%onnx::Squeeze_399, %onnx::Squeeze_403) # /home/ashishpapanai/miniconda3/envs/parseq/lib/python3.7/site-packages/timm/models/vision_transformer.py:218:0
  %onnx::Squeeze_405 : Long(1, strides=[1], device=cpu) = onnx::Constant[value={0}, onnx_name="Constant_365"]() # /home/ashishpapanai/miniconda3/envs/parseq/lib/python3.7/site-packages/timm/models/vision_transformer.py:218:0
  %onnx::MatMul_406 : Float(1, 6, 128, 64, strides=[147456, 64, 1152, 1], requires_grad=0, device=cpu) = onnx::Squeeze[onnx_name="Squeeze_366"](%onnx::Squeeze_400, %onnx::Squeeze_405) # /home/ashishpapanai/miniconda3/envs/parseq/lib/python3.7/site-packages/timm/models/vision_transformer.py:218:0
  %onnx::MatMul_407 : Float(1, 6, 64, 128, strides=[147456, 64, 1, 1152], requires_grad=0, device=cpu) = onnx::Transpose[perm=[0, 1, 3, 2], onnx_name="Transpose_367"](%onnx::Transpose_404) # /home/ashishpapanai/miniconda3/envs/parseq/lib/python3.7/site-packages/timm/models/vision_transformer.py:220:0
  %onnx::Mul_408 : Float(1, 6, 128, 128, strides=[98304, 16384, 128, 1], requires_grad=0, device=cpu) = onnx::MatMul[onnx_name="MatMul_368"](%onnx::MatMul_402, %onnx::MatMul_407) # /home/ashishpapanai/miniconda3/envs/parseq/lib/python3.7/site-packages/timm/models/vision_transformer.py:220:0
  %onnx::Mul_409 : Float(requires_grad=0, device=cpu) = onnx::Constant[value={0.125}, onnx_name="Constant_369"]()
  %onnx::Softmax_410 : Float(1, 6, 128, 128, strides=[98304, 16384, 128, 1], requires_grad=0, device=cpu) = onnx::Mul[onnx_name="Mul_370"](%onnx::Mul_408, %onnx::Mul_409) # /home/ashishpapanai/miniconda3/envs/parseq/lib/python3.7/site-packages/timm/models/vision_transformer.py:220:0
  %input.52 : Float(1, 6, 128, 128, strides=[98304, 16384, 128, 1], requires_grad=0, device=cpu) = onnx::Softmax[axis=-1, onnx_name="Softmax_371"](%onnx::Softmax_410) # /home/ashishpapanai/miniconda3/envs/parseq/lib/python3.7/site-packages/timm/models/vision_transformer.py:221:0
  %onnx::Transpose_412 : Float(1, 6, 128, 64, strides=[49152, 8192, 64, 1], requires_grad=0, device=cpu) = onnx::MatMul[onnx_name="MatMul_372"](%input.52, %onnx::MatMul_406) # /home/ashishpapanai/miniconda3/envs/parseq/lib/python3.7/site-packages/timm/models/vision_transformer.py:224:0
  %onnx::Reshape_413 : Float(1, 128, 6, 64, strides=[49152, 64, 8192, 1], requires_grad=0, device=cpu) = onnx::Transpose[perm=[0, 2, 1, 3], onnx_name="Transpose_373"](%onnx::Transpose_412) # /home/ashishpapanai/miniconda3/envs/parseq/lib/python3.7/site-packages/timm/models/vision_transformer.py:224:0
  %onnx::MatMul_421 : Float(1, 128, 384, strides=[49152, 384, 1], requires_grad=0, device=cpu) = onnx::Reshape[allowzero=0, onnx_name="Reshape_374"](%onnx::Reshape_413, %onnx::Reshape_4704) # /home/ashishpapanai/miniconda3/envs/parseq/lib/python3.7/site-packages/timm/models/vision_transformer.py:224:0
  %onnx::Add_423 : Float(1, 128, 384, strides=[49152, 384, 1], device=cpu) = onnx::MatMul[onnx_name="MatMul_375"](%onnx::MatMul_421, %onnx::MatMul_4705) # /home/ashishpapanai/miniconda3/envs/parseq/lib/python3.7/site-packages/torch/nn/modules/linear.py:114:0
  %input.56 : Float(1, 128, 384, strides=[49152, 384, 1], requires_grad=0, device=cpu) = onnx::Add[onnx_name="Add_376"](%encoder.blocks.2.attn.proj.bias, %onnx::Add_423) # /home/ashishpapanai/miniconda3/envs/parseq/lib/python3.7/site-packages/torch/nn/modules/linear.py:114:0
  %input.60 : Float(1, 128, 384, strides=[49152, 1, 128], requires_grad=0, device=cpu) = onnx::Add[onnx_name="Add_377"](%input.48, %input.56) # /home/ashishpapanai/miniconda3/envs/parseq/lib/python3.7/site-packages/timm/models/vision_transformer.py:268:0
  %onnx::Sub_426 : Float(1, 128, 1, strides=[128, 1, 1], device=cpu) = onnx::ReduceMean[axes=[-1], onnx_name="ReduceMean_378"](%input.60) # /home/ashishpapanai/miniconda3/envs/parseq/lib/python3.7/site-packages/torch/nn/functional.py:2503:0
  %onnx::Pow_427 : Float(1, 128, 384, strides=[49152, 384, 1], device=cpu) = onnx::Sub[onnx_name="Sub_379"](%input.60, %onnx::Sub_426) # /home/ashishpapanai/miniconda3/envs/parseq/lib/python3.7/site-packages/torch/nn/functional.py:2503:0
  %onnx::Pow_428 : Float(requires_grad=0, device=cpu) = onnx::Constant[value={2}, onnx_name="Constant_380"]() # /home/ashishpapanai/miniconda3/envs/parseq/lib/python3.7/site-packages/torch/nn/functional.py:2503:0
  %onnx::ReduceMean_429 : Float(1, 128, 384, strides=[49152, 384, 1], device=cpu) = onnx::Pow[onnx_name="Pow_381"](%onnx::Pow_427, %onnx::Pow_428) # /home/ashishpapanai/miniconda3/envs/parseq/lib/python3.7/site-packages/torch/nn/functional.py:2503:0
  %onnx::Add_430 : Float(1, 128, 1, strides=[128, 1, 1], device=cpu) = onnx::ReduceMean[axes=[-1], onnx_name="ReduceMean_382"](%onnx::ReduceMean_429) # /home/ashishpapanai/miniconda3/envs/parseq/lib/python3.7/site-packages/torch/nn/functional.py:2503:0
  %onnx::Add_431 : Float(requires_grad=0, device=cpu) = onnx::Constant[value={1e-06}, onnx_name="Constant_383"]() # /home/ashishpapanai/miniconda3/envs/parseq/lib/python3.7/site-packages/torch/nn/functional.py:2503:0
  %onnx::Sqrt_432 : Float(1, 128, 1, strides=[128, 1, 1], device=cpu) = onnx::Add[onnx_name="Add_384"](%onnx::Add_430, %onnx::Add_431) # /home/ashishpapanai/miniconda3/envs/parseq/lib/python3.7/site-packages/torch/nn/functional.py:2503:0
  %onnx::Div_433 : Float(1, 128, 1, strides=[128, 1, 1], device=cpu) = onnx::Sqrt[onnx_name="Sqrt_385"](%onnx::Sqrt_432) # /home/ashishpapanai/miniconda3/envs/parseq/lib/python3.7/site-packages/torch/nn/functional.py:2503:0
  %onnx::Mul_434 : Float(1, 128, 384, strides=[49152, 384, 1], device=cpu) = onnx::Div[onnx_name="Div_386"](%onnx::Pow_427, %onnx::Div_433) # /home/ashishpapanai/miniconda3/envs/parseq/lib/python3.7/site-packages/torch/nn/functional.py:2503:0
  %onnx::Add_435 : Float(1, 128, 384, strides=[49152, 384, 1], device=cpu) = onnx::Mul[onnx_name="Mul_387"](%onnx::Mul_434, %encoder.blocks.2.norm2.weight) # /home/ashishpapanai/miniconda3/envs/parseq/lib/python3.7/site-packages/torch/nn/functional.py:2503:0
  %onnx::MatMul_436 : Float(1, 128, 384, strides=[49152, 384, 1], requires_grad=0, device=cpu) = onnx::Add[onnx_name="Add_388"](%onnx::Add_435, %encoder.blocks.2.norm2.bias) # /home/ashishpapanai/miniconda3/envs/parseq/lib/python3.7/site-packages/torch/nn/functional.py:2503:0
  %onnx::Add_438 : Float(1, 128, 1536, strides=[196608, 1536, 1], device=cpu) = onnx::MatMul[onnx_name="MatMul_389"](%onnx::MatMul_436, %onnx::MatMul_4706) # /home/ashishpapanai/miniconda3/envs/parseq/lib/python3.7/site-packages/torch/nn/modules/linear.py:114:0
  %onnx::Div_439 : Float(1, 128, 1536, strides=[196608, 1536, 1], requires_grad=0, device=cpu) = onnx::Add[onnx_name="Add_390"](%encoder.blocks.2.mlp.fc1.bias, %onnx::Add_438) # /home/ashishpapanai/miniconda3/envs/parseq/lib/python3.7/site-packages/torch/nn/modules/linear.py:114:0
  %onnx::Div_440 : Float(requires_grad=0, device=cpu) = onnx::Constant[value={1.41421}, onnx_name="Constant_391"]() # /home/ashishpapanai/miniconda3/envs/parseq/lib/python3.7/site-packages/torch/nn/modules/activation.py:681:0
  %onnx::Erf_441 : Float(1, 128, 1536, strides=[196608, 1536, 1], device=cpu) = onnx::Div[onnx_name="Div_392"](%onnx::Div_439, %onnx::Div_440) # /home/ashishpapanai/miniconda3/envs/parseq/lib/python3.7/site-packages/torch/nn/modules/activation.py:681:0
  %onnx::Add_442 : Float(1, 128, 1536, strides=[196608, 1536, 1], device=cpu) = onnx::Erf[onnx_name="Erf_393"](%onnx::Erf_441) # /home/ashishpapanai/miniconda3/envs/parseq/lib/python3.7/site-packages/torch/nn/modules/activation.py:681:0
  %onnx::Add_443 : Float(requires_grad=0, device=cpu) = onnx::Constant[value={1}, onnx_name="Constant_394"]() # /home/ashishpapanai/miniconda3/envs/parseq/lib/python3.7/site-packages/torch/nn/modules/activation.py:681:0
  %onnx::Mul_444 : Float(1, 128, 1536, strides=[196608, 1536, 1], device=cpu) = onnx::Add[onnx_name="Add_395"](%onnx::Add_442, %onnx::Add_443) # /home/ashishpapanai/miniconda3/envs/parseq/lib/python3.7/site-packages/torch/nn/modules/activation.py:681:0
  %onnx::Mul_445 : Float(1, 128, 1536, strides=[196608, 1536, 1], device=cpu) = onnx::Mul[onnx_name="Mul_396"](%onnx::Div_439, %onnx::Mul_444) # /home/ashishpapanai/miniconda3/envs/parseq/lib/python3.7/site-packages/torch/nn/modules/activation.py:681:0
  %onnx::Mul_446 : Float(requires_grad=0, device=cpu) = onnx::Constant[value={0.5}, onnx_name="Constant_397"]() # /home/ashishpapanai/miniconda3/envs/parseq/lib/python3.7/site-packages/torch/nn/modules/activation.py:681:0
  %input.64 : Float(1, 128, 1536, strides=[196608, 1536, 1], requires_grad=0, device=cpu) = onnx::Mul[onnx_name="Mul_398"](%onnx::Mul_445, %onnx::Mul_446) # /home/ashishpapanai/miniconda3/envs/parseq/lib/python3.7/site-packages/torch/nn/modules/activation.py:681:0
  %onnx::Add_449 : Float(1, 128, 384, strides=[49152, 384, 1], device=cpu) = onnx::MatMul[onnx_name="MatMul_399"](%input.64, %onnx::MatMul_4707) # /home/ashishpapanai/miniconda3/envs/parseq/lib/python3.7/site-packages/torch/nn/modules/linear.py:114:0
  %input.68 : Float(1, 128, 384, strides=[49152, 384, 1], requires_grad=0, device=cpu) = onnx::Add[onnx_name="Add_400"](%encoder.blocks.2.mlp.fc2.bias, %onnx::Add_449) # /home/ashishpapanai/miniconda3/envs/parseq/lib/python3.7/site-packages/torch/nn/modules/linear.py:114:0
  %input.72 : Float(1, 128, 384, strides=[49152, 1, 128], requires_grad=0, device=cpu) = onnx::Add[onnx_name="Add_401"](%input.60, %input.68) # /home/ashishpapanai/miniconda3/envs/parseq/lib/python3.7/site-packages/timm/models/vision_transformer.py:269:0
  %onnx::Sub_452 : Float(1, 128, 1, strides=[128, 1, 1], device=cpu) = onnx::ReduceMean[axes=[-1], onnx_name="ReduceMean_402"](%input.72) # /home/ashishpapanai/miniconda3/envs/parseq/lib/python3.7/site-packages/torch/nn/functional.py:2503:0
  %onnx::Pow_453 : Float(1, 128, 384, strides=[49152, 384, 1], device=cpu) = onnx::Sub[onnx_name="Sub_403"](%input.72, %onnx::Sub_452) # /home/ashishpapanai/miniconda3/envs/parseq/lib/python3.7/site-packages/torch/nn/functional.py:2503:0
  %onnx::Pow_454 : Float(requires_grad=0, device=cpu) = onnx::Constant[value={2}, onnx_name="Constant_404"]() # /home/ashishpapanai/miniconda3/envs/parseq/lib/python3.7/site-packages/torch/nn/functional.py:2503:0
  %onnx::ReduceMean_455 : Float(1, 128, 384, strides=[49152, 384, 1], device=cpu) = onnx::Pow[onnx_name="Pow_405"](%onnx::Pow_453, %onnx::Pow_454) # /home/ashishpapanai/miniconda3/envs/parseq/lib/python3.7/site-packages/torch/nn/functional.py:2503:0
  %onnx::Add_456 : Float(1, 128, 1, strides=[128, 1, 1], device=cpu) = onnx::ReduceMean[axes=[-1], onnx_name="ReduceMean_406"](%onnx::ReduceMean_455) # /home/ashishpapanai/miniconda3/envs/parseq/lib/python3.7/site-packages/torch/nn/functional.py:2503:0
  %onnx::Add_457 : Float(requires_grad=0, device=cpu) = onnx::Constant[value={1e-06}, onnx_name="Constant_407"]() # /home/ashishpapanai/miniconda3/envs/parseq/lib/python3.7/site-packages/torch/nn/functional.py:2503:0
  %onnx::Sqrt_458 : Float(1, 128, 1, strides=[128, 1, 1], device=cpu) = onnx::Add[onnx_name="Add_408"](%onnx::Add_456, %onnx::Add_457) # /home/ashishpapanai/miniconda3/envs/parseq/lib/python3.7/site-packages/torch/nn/functional.py:2503:0
  %onnx::Div_459 : Float(1, 128, 1, strides=[128, 1, 1], device=cpu) = onnx::Sqrt[onnx_name="Sqrt_409"](%onnx::Sqrt_458) # /home/ashishpapanai/miniconda3/envs/parseq/lib/python3.7/site-packages/torch/nn/functional.py:2503:0
  %onnx::Mul_460 : Float(1, 128, 384, strides=[49152, 384, 1], device=cpu) = onnx::Div[onnx_name="Div_410"](%onnx::Pow_453, %onnx::Div_459) # /home/ashishpapanai/miniconda3/envs/parseq/lib/python3.7/site-packages/torch/nn/functional.py:2503:0
  %onnx::Add_461 : Float(1, 128, 384, strides=[49152, 384, 1], device=cpu) = onnx::Mul[onnx_name="Mul_411"](%onnx::Mul_460, %encoder.blocks.3.norm1.weight) # /home/ashishpapanai/miniconda3/envs/parseq/lib/python3.7/site-packages/torch/nn/functional.py:2503:0
  %onnx::MatMul_462 : Float(1, 128, 384, strides=[49152, 384, 1], requires_grad=0, device=cpu) = onnx::Add[onnx_name="Add_412"](%onnx::Add_461, %encoder.blocks.3.norm1.bias) # /home/ashishpapanai/miniconda3/envs/parseq/lib/python3.7/site-packages/torch/nn/functional.py:2503:0
  %onnx::Add_467 : Float(1, 128, 1152, strides=[147456, 1152, 1], device=cpu) = onnx::MatMul[onnx_name="MatMul_413"](%onnx::MatMul_462, %onnx::MatMul_4708) # /home/ashishpapanai/miniconda3/envs/parseq/lib/python3.7/site-packages/torch/nn/modules/linear.py:114:0
  %onnx::Reshape_468 : Float(1, 128, 1152, strides=[147456, 1152, 1], requires_grad=0, device=cpu) = onnx::Add[onnx_name="Add_414"](%encoder.blocks.3.attn.qkv.bias, %onnx::Add_467) # /home/ashishpapanai/miniconda3/envs/parseq/lib/python3.7/site-packages/torch/nn/modules/linear.py:114:0
  %onnx::Transpose_483 : Float(1, 128, 3, 6, 64, strides=[147456, 1152, 384, 64, 1], requires_grad=0, device=cpu) = onnx::Reshape[allowzero=0, onnx_name="Reshape_415"](%onnx::Reshape_468, %onnx::Reshape_4714) # /home/ashishpapanai/miniconda3/envs/parseq/lib/python3.7/site-packages/timm/models/vision_transformer.py:217:0
  %onnx::Split_484 : Float(3, 1, 6, 128, 64, strides=[384, 147456, 64, 1152, 1], requires_grad=0, device=cpu) = onnx::Transpose[perm=[2, 0, 3, 1, 4], onnx_name="Transpose_416"](%onnx::Transpose_483) # /home/ashishpapanai/miniconda3/envs/parseq/lib/python3.7/site-packages/timm/models/vision_transformer.py:217:0
  %onnx::Split_485 : Long(3, strides=[1], device=cpu) = onnx::Constant[value= 1  1  1 [ CPULongType{3} ], onnx_name="Constant_417"]() # /home/ashishpapanai/miniconda3/envs/parseq/lib/python3.7/site-packages/timm/models/vision_transformer.py:218:0
  %onnx::Squeeze_486 : Float(1, 1, 6, 128, 64, strides=[49152, 49152, 8192, 64, 1], device=cpu), %onnx::Squeeze_487 : Float(1, 1, 6, 128, 64, strides=[49152, 49152, 8192, 64, 1], device=cpu), %onnx::Squeeze_488 : Float(1, 1, 6, 128, 64, strides=[49152, 49152, 8192, 64, 1], device=cpu) = onnx::Split[axis=0, onnx_name="Split_418"](%onnx::Split_484, %onnx::Split_485) # /home/ashishpapanai/miniconda3/envs/parseq/lib/python3.7/site-packages/timm/models/vision_transformer.py:218:0
  %onnx::Squeeze_489 : Long(1, strides=[1], device=cpu) = onnx::Constant[value={0}, onnx_name="Constant_419"]() # /home/ashishpapanai/miniconda3/envs/parseq/lib/python3.7/site-packages/timm/models/vision_transformer.py:218:0
  %onnx::MatMul_490 : Float(1, 6, 128, 64, strides=[147456, 64, 1152, 1], requires_grad=0, device=cpu) = onnx::Squeeze[onnx_name="Squeeze_420"](%onnx::Squeeze_486, %onnx::Squeeze_489) # /home/ashishpapanai/miniconda3/envs/parseq/lib/python3.7/site-packages/timm/models/vision_transformer.py:218:0
  %onnx::Squeeze_491 : Long(1, strides=[1], device=cpu) = onnx::Constant[value={0}, onnx_name="Constant_421"]() # /home/ashishpapanai/miniconda3/envs/parseq/lib/python3.7/site-packages/timm/models/vision_transformer.py:218:0
  %onnx::Transpose_492 : Float(1, 6, 128, 64, strides=[147456, 64, 1152, 1], requires_grad=0, device=cpu) = onnx::Squeeze[onnx_name="Squeeze_422"](%onnx::Squeeze_487, %onnx::Squeeze_491) # /home/ashishpapanai/miniconda3/envs/parseq/lib/python3.7/site-packages/timm/models/vision_transformer.py:218:0
  %onnx::Squeeze_493 : Long(1, strides=[1], device=cpu) = onnx::Constant[value={0}, onnx_name="Constant_423"]() # /home/ashishpapanai/miniconda3/envs/parseq/lib/python3.7/site-packages/timm/models/vision_transformer.py:218:0
  %onnx::MatMul_494 : Float(1, 6, 128, 64, strides=[147456, 64, 1152, 1], requires_grad=0, device=cpu) = onnx::Squeeze[onnx_name="Squeeze_424"](%onnx::Squeeze_488, %onnx::Squeeze_493) # /home/ashishpapanai/miniconda3/envs/parseq/lib/python3.7/site-packages/timm/models/vision_transformer.py:218:0
  %onnx::MatMul_495 : Float(1, 6, 64, 128, strides=[147456, 64, 1, 1152], requires_grad=0, device=cpu) = onnx::Transpose[perm=[0, 1, 3, 2], onnx_name="Transpose_425"](%onnx::Transpose_492) # /home/ashishpapanai/miniconda3/envs/parseq/lib/python3.7/site-packages/timm/models/vision_transformer.py:220:0
  %onnx::Mul_496 : Float(1, 6, 128, 128, strides=[98304, 16384, 128, 1], requires_grad=0, device=cpu) = onnx::MatMul[onnx_name="MatMul_426"](%onnx::MatMul_490, %onnx::MatMul_495) # /home/ashishpapanai/miniconda3/envs/parseq/lib/python3.7/site-packages/timm/models/vision_transformer.py:220:0
  %onnx::Mul_497 : Float(requires_grad=0, device=cpu) = onnx::Constant[value={0.125}, onnx_name="Constant_427"]()
  %onnx::Softmax_498 : Float(1, 6, 128, 128, strides=[98304, 16384, 128, 1], requires_grad=0, device=cpu) = onnx::Mul[onnx_name="Mul_428"](%onnx::Mul_496, %onnx::Mul_497) # /home/ashishpapanai/miniconda3/envs/parseq/lib/python3.7/site-packages/timm/models/vision_transformer.py:220:0
  %input.76 : Float(1, 6, 128, 128, strides=[98304, 16384, 128, 1], requires_grad=0, device=cpu) = onnx::Softmax[axis=-1, onnx_name="Softmax_429"](%onnx::Softmax_498) # /home/ashishpapanai/miniconda3/envs/parseq/lib/python3.7/site-packages/timm/models/vision_transformer.py:221:0
  %onnx::Transpose_500 : Float(1, 6, 128, 64, strides=[49152, 8192, 64, 1], requires_grad=0, device=cpu) = onnx::MatMul[onnx_name="MatMul_430"](%input.76, %onnx::MatMul_494) # /home/ashishpapanai/miniconda3/envs/parseq/lib/python3.7/site-packages/timm/models/vision_transformer.py:224:0
  %onnx::Reshape_501 : Float(1, 128, 6, 64, strides=[49152, 64, 8192, 1], requires_grad=0, device=cpu) = onnx::Transpose[perm=[0, 2, 1, 3], onnx_name="Transpose_431"](%onnx::Transpose_500) # /home/ashishpapanai/miniconda3/envs/parseq/lib/python3.7/site-packages/timm/models/vision_transformer.py:224:0
  %onnx::MatMul_509 : Float(1, 128, 384, strides=[49152, 384, 1], requires_grad=0, device=cpu) = onnx::Reshape[allowzero=0, onnx_name="Reshape_432"](%onnx::Reshape_501, %onnx::Reshape_4718) # /home/ashishpapanai/miniconda3/envs/parseq/lib/python3.7/site-packages/timm/models/vision_transformer.py:224:0
  %onnx::Add_511 : Float(1, 128, 384, strides=[49152, 384, 1], device=cpu) = onnx::MatMul[onnx_name="MatMul_433"](%onnx::MatMul_509, %onnx::MatMul_4719) # /home/ashishpapanai/miniconda3/envs/parseq/lib/python3.7/site-packages/torch/nn/modules/linear.py:114:0
  %input.80 : Float(1, 128, 384, strides=[49152, 384, 1], requires_grad=0, device=cpu) = onnx::Add[onnx_name="Add_434"](%encoder.blocks.3.attn.proj.bias, %onnx::Add_511) # /home/ashishpapanai/miniconda3/envs/parseq/lib/python3.7/site-packages/torch/nn/modules/linear.py:114:0
  %input.84 : Float(1, 128, 384, strides=[49152, 1, 128], requires_grad=0, device=cpu) = onnx::Add[onnx_name="Add_435"](%input.72, %input.80) # /home/ashishpapanai/miniconda3/envs/parseq/lib/python3.7/site-packages/timm/models/vision_transformer.py:268:0
  %onnx::Sub_514 : Float(1, 128, 1, strides=[128, 1, 1], device=cpu) = onnx::ReduceMean[axes=[-1], onnx_name="ReduceMean_436"](%input.84) # /home/ashishpapanai/miniconda3/envs/parseq/lib/python3.7/site-packages/torch/nn/functional.py:2503:0
  %onnx::Pow_515 : Float(1, 128, 384, strides=[49152, 384, 1], device=cpu) = onnx::Sub[onnx_name="Sub_437"](%input.84, %onnx::Sub_514) # /home/ashishpapanai/miniconda3/envs/parseq/lib/python3.7/site-packages/torch/nn/functional.py:2503:0
  %onnx::Pow_516 : Float(requires_grad=0, device=cpu) = onnx::Constant[value={2}, onnx_name="Constant_438"]() # /home/ashishpapanai/miniconda3/envs/parseq/lib/python3.7/site-packages/torch/nn/functional.py:2503:0
  %onnx::ReduceMean_517 : Float(1, 128, 384, strides=[49152, 384, 1], device=cpu) = onnx::Pow[onnx_name="Pow_439"](%onnx::Pow_515, %onnx::Pow_516) # /home/ashishpapanai/miniconda3/envs/parseq/lib/python3.7/site-packages/torch/nn/functional.py:2503:0
  %onnx::Add_518 : Float(1, 128, 1, strides=[128, 1, 1], device=cpu) = onnx::ReduceMean[axes=[-1], onnx_name="ReduceMean_440"](%onnx::ReduceMean_517) # /home/ashishpapanai/miniconda3/envs/parseq/lib/python3.7/site-packages/torch/nn/functional.py:2503:0
  %onnx::Add_519 : Float(requires_grad=0, device=cpu) = onnx::Constant[value={1e-06}, onnx_name="Constant_441"]() # /home/ashishpapanai/miniconda3/envs/parseq/lib/python3.7/site-packages/torch/nn/functional.py:2503:0
  %onnx::Sqrt_520 : Float(1, 128, 1, strides=[128, 1, 1], device=cpu) = onnx::Add[onnx_name="Add_442"](%onnx::Add_518, %onnx::Add_519) # /home/ashishpapanai/miniconda3/envs/parseq/lib/python3.7/site-packages/torch/nn/functional.py:2503:0
  %onnx::Div_521 : Float(1, 128, 1, strides=[128, 1, 1], device=cpu) = onnx::Sqrt[onnx_name="Sqrt_443"](%onnx::Sqrt_520) # /home/ashishpapanai/miniconda3/envs/parseq/lib/python3.7/site-packages/torch/nn/functional.py:2503:0
  %onnx::Mul_522 : Float(1, 128, 384, strides=[49152, 384, 1], device=cpu) = onnx::Div[onnx_name="Div_444"](%onnx::Pow_515, %onnx::Div_521) # /home/ashishpapanai/miniconda3/envs/parseq/lib/python3.7/site-packages/torch/nn/functional.py:2503:0
  %onnx::Add_523 : Float(1, 128, 384, strides=[49152, 384, 1], device=cpu) = onnx::Mul[onnx_name="Mul_445"](%onnx::Mul_522, %encoder.blocks.3.norm2.weight) # /home/ashishpapanai/miniconda3/envs/parseq/lib/python3.7/site-packages/torch/nn/functional.py:2503:0
  %onnx::MatMul_524 : Float(1, 128, 384, strides=[49152, 384, 1], requires_grad=0, device=cpu) = onnx::Add[onnx_name="Add_446"](%onnx::Add_523, %encoder.blocks.3.norm2.bias) # /home/ashishpapanai/miniconda3/envs/parseq/lib/python3.7/site-packages/torch/nn/functional.py:2503:0
  %onnx::Add_526 : Float(1, 128, 1536, strides=[196608, 1536, 1], device=cpu) = onnx::MatMul[onnx_name="MatMul_447"](%onnx::MatMul_524, %onnx::MatMul_4720) # /home/ashishpapanai/miniconda3/envs/parseq/lib/python3.7/site-packages/torch/nn/modules/linear.py:114:0
  %onnx::Div_527 : Float(1, 128, 1536, strides=[196608, 1536, 1], requires_grad=0, device=cpu) = onnx::Add[onnx_name="Add_448"](%encoder.blocks.3.mlp.fc1.bias, %onnx::Add_526) # /home/ashishpapanai/miniconda3/envs/parseq/lib/python3.7/site-packages/torch/nn/modules/linear.py:114:0
  %onnx::Div_528 : Float(requires_grad=0, device=cpu) = onnx::Constant[value={1.41421}, onnx_name="Constant_449"]() # /home/ashishpapanai/miniconda3/envs/parseq/lib/python3.7/site-packages/torch/nn/modules/activation.py:681:0
  %onnx::Erf_529 : Float(1, 128, 1536, strides=[196608, 1536, 1], device=cpu) = onnx::Div[onnx_name="Div_450"](%onnx::Div_527, %onnx::Div_528) # /home/ashishpapanai/miniconda3/envs/parseq/lib/python3.7/site-packages/torch/nn/modules/activation.py:681:0
  %onnx::Add_530 : Float(1, 128, 1536, strides=[196608, 1536, 1], device=cpu) = onnx::Erf[onnx_name="Erf_451"](%onnx::Erf_529) # /home/ashishpapanai/miniconda3/envs/parseq/lib/python3.7/site-packages/torch/nn/modules/activation.py:681:0
  %onnx::Add_531 : Float(requires_grad=0, device=cpu) = onnx::Constant[value={1}, onnx_name="Constant_452"]() # /home/ashishpapanai/miniconda3/envs/parseq/lib/python3.7/site-packages/torch/nn/modules/activation.py:681:0
  %onnx::Mul_532 : Float(1, 128, 1536, strides=[196608, 1536, 1], device=cpu) = onnx::Add[onnx_name="Add_453"](%onnx::Add_530, %onnx::Add_531) # /home/ashishpapanai/miniconda3/envs/parseq/lib/python3.7/site-packages/torch/nn/modules/activation.py:681:0
  %onnx::Mul_533 : Float(1, 128, 1536, strides=[196608, 1536, 1], device=cpu) = onnx::Mul[onnx_name="Mul_454"](%onnx::Div_527, %onnx::Mul_532) # /home/ashishpapanai/miniconda3/envs/parseq/lib/python3.7/site-packages/torch/nn/modules/activation.py:681:0
  %onnx::Mul_534 : Float(requires_grad=0, device=cpu) = onnx::Constant[value={0.5}, onnx_name="Constant_455"]() # /home/ashishpapanai/miniconda3/envs/parseq/lib/python3.7/site-packages/torch/nn/modules/activation.py:681:0
  %input.88 : Float(1, 128, 1536, strides=[196608, 1536, 1], requires_grad=0, device=cpu) = onnx::Mul[onnx_name="Mul_456"](%onnx::Mul_533, %onnx::Mul_534) # /home/ashishpapanai/miniconda3/envs/parseq/lib/python3.7/site-packages/torch/nn/modules/activation.py:681:0
  %onnx::Add_537 : Float(1, 128, 384, strides=[49152, 384, 1], device=cpu) = onnx::MatMul[onnx_name="MatMul_457"](%input.88, %onnx::MatMul_4721) # /home/ashishpapanai/miniconda3/envs/parseq/lib/python3.7/site-packages/torch/nn/modules/linear.py:114:0
  %input.92 : Float(1, 128, 384, strides=[49152, 384, 1], requires_grad=0, device=cpu) = onnx::Add[onnx_name="Add_458"](%encoder.blocks.3.mlp.fc2.bias, %onnx::Add_537) # /home/ashishpapanai/miniconda3/envs/parseq/lib/python3.7/site-packages/torch/nn/modules/linear.py:114:0
  %input.96 : Float(1, 128, 384, strides=[49152, 1, 128], requires_grad=0, device=cpu) = onnx::Add[onnx_name="Add_459"](%input.84, %input.92) # /home/ashishpapanai/miniconda3/envs/parseq/lib/python3.7/site-packages/timm/models/vision_transformer.py:269:0
  %onnx::Sub_540 : Float(1, 128, 1, strides=[128, 1, 1], device=cpu) = onnx::ReduceMean[axes=[-1], onnx_name="ReduceMean_460"](%input.96) # /home/ashishpapanai/miniconda3/envs/parseq/lib/python3.7/site-packages/torch/nn/functional.py:2503:0
  %onnx::Pow_541 : Float(1, 128, 384, strides=[49152, 384, 1], device=cpu) = onnx::Sub[onnx_name="Sub_461"](%input.96, %onnx::Sub_540) # /home/ashishpapanai/miniconda3/envs/parseq/lib/python3.7/site-packages/torch/nn/functional.py:2503:0
  %onnx::Pow_542 : Float(requires_grad=0, device=cpu) = onnx::Constant[value={2}, onnx_name="Constant_462"]() # /home/ashishpapanai/miniconda3/envs/parseq/lib/python3.7/site-packages/torch/nn/functional.py:2503:0
  %onnx::ReduceMean_543 : Float(1, 128, 384, strides=[49152, 384, 1], device=cpu) = onnx::Pow[onnx_name="Pow_463"](%onnx::Pow_541, %onnx::Pow_542) # /home/ashishpapanai/miniconda3/envs/parseq/lib/python3.7/site-packages/torch/nn/functional.py:2503:0
  %onnx::Add_544 : Float(1, 128, 1, strides=[128, 1, 1], device=cpu) = onnx::ReduceMean[axes=[-1], onnx_name="ReduceMean_464"](%onnx::ReduceMean_543) # /home/ashishpapanai/miniconda3/envs/parseq/lib/python3.7/site-packages/torch/nn/functional.py:2503:0
  %onnx::Add_545 : Float(requires_grad=0, device=cpu) = onnx::Constant[value={1e-06}, onnx_name="Constant_465"]() # /home/ashishpapanai/miniconda3/envs/parseq/lib/python3.7/site-packages/torch/nn/functional.py:2503:0
  %onnx::Sqrt_546 : Float(1, 128, 1, strides=[128, 1, 1], device=cpu) = onnx::Add[onnx_name="Add_466"](%onnx::Add_544, %onnx::Add_545) # /home/ashishpapanai/miniconda3/envs/parseq/lib/python3.7/site-packages/torch/nn/functional.py:2503:0
  %onnx::Div_547 : Float(1, 128, 1, strides=[128, 1, 1], device=cpu) = onnx::Sqrt[onnx_name="Sqrt_467"](%onnx::Sqrt_546) # /home/ashishpapanai/miniconda3/envs/parseq/lib/python3.7/site-packages/torch/nn/functional.py:2503:0
  %onnx::Mul_548 : Float(1, 128, 384, strides=[49152, 384, 1], device=cpu) = onnx::Div[onnx_name="Div_468"](%onnx::Pow_541, %onnx::Div_547) # /home/ashishpapanai/miniconda3/envs/parseq/lib/python3.7/site-packages/torch/nn/functional.py:2503:0
  %onnx::Add_549 : Float(1, 128, 384, strides=[49152, 384, 1], device=cpu) = onnx::Mul[onnx_name="Mul_469"](%onnx::Mul_548, %encoder.blocks.4.norm1.weight) # /home/ashishpapanai/miniconda3/envs/parseq/lib/python3.7/site-packages/torch/nn/functional.py:2503:0
  %onnx::MatMul_550 : Float(1, 128, 384, strides=[49152, 384, 1], requires_grad=0, device=cpu) = onnx::Add[onnx_name="Add_470"](%onnx::Add_549, %encoder.blocks.4.norm1.bias) # /home/ashishpapanai/miniconda3/envs/parseq/lib/python3.7/site-packages/torch/nn/functional.py:2503:0
  %onnx::Add_555 : Float(1, 128, 1152, strides=[147456, 1152, 1], device=cpu) = onnx::MatMul[onnx_name="MatMul_471"](%onnx::MatMul_550, %onnx::MatMul_4722) # /home/ashishpapanai/miniconda3/envs/parseq/lib/python3.7/site-packages/torch/nn/modules/linear.py:114:0
  %onnx::Reshape_556 : Float(1, 128, 1152, strides=[147456, 1152, 1], requires_grad=0, device=cpu) = onnx::Add[onnx_name="Add_472"](%encoder.blocks.4.attn.qkv.bias, %onnx::Add_555) # /home/ashishpapanai/miniconda3/envs/parseq/lib/python3.7/site-packages/torch/nn/modules/linear.py:114:0
  %onnx::Transpose_571 : Float(1, 128, 3, 6, 64, strides=[147456, 1152, 384, 64, 1], requires_grad=0, device=cpu) = onnx::Reshape[allowzero=0, onnx_name="Reshape_473"](%onnx::Reshape_556, %onnx::Reshape_4728) # /home/ashishpapanai/miniconda3/envs/parseq/lib/python3.7/site-packages/timm/models/vision_transformer.py:217:0
  %onnx::Split_572 : Float(3, 1, 6, 128, 64, strides=[384, 147456, 64, 1152, 1], requires_grad=0, device=cpu) = onnx::Transpose[perm=[2, 0, 3, 1, 4], onnx_name="Transpose_474"](%onnx::Transpose_571) # /home/ashishpapanai/miniconda3/envs/parseq/lib/python3.7/site-packages/timm/models/vision_transformer.py:217:0
  %onnx::Split_573 : Long(3, strides=[1], device=cpu) = onnx::Constant[value= 1  1  1 [ CPULongType{3} ], onnx_name="Constant_475"]() # /home/ashishpapanai/miniconda3/envs/parseq/lib/python3.7/site-packages/timm/models/vision_transformer.py:218:0
  %onnx::Squeeze_574 : Float(1, 1, 6, 128, 64, strides=[49152, 49152, 8192, 64, 1], device=cpu), %onnx::Squeeze_575 : Float(1, 1, 6, 128, 64, strides=[49152, 49152, 8192, 64, 1], device=cpu), %onnx::Squeeze_576 : Float(1, 1, 6, 128, 64, strides=[49152, 49152, 8192, 64, 1], device=cpu) = onnx::Split[axis=0, onnx_name="Split_476"](%onnx::Split_572, %onnx::Split_573) # /home/ashishpapanai/miniconda3/envs/parseq/lib/python3.7/site-packages/timm/models/vision_transformer.py:218:0
  %onnx::Squeeze_577 : Long(1, strides=[1], device=cpu) = onnx::Constant[value={0}, onnx_name="Constant_477"]() # /home/ashishpapanai/miniconda3/envs/parseq/lib/python3.7/site-packages/timm/models/vision_transformer.py:218:0
  %onnx::MatMul_578 : Float(1, 6, 128, 64, strides=[147456, 64, 1152, 1], requires_grad=0, device=cpu) = onnx::Squeeze[onnx_name="Squeeze_478"](%onnx::Squeeze_574, %onnx::Squeeze_577) # /home/ashishpapanai/miniconda3/envs/parseq/lib/python3.7/site-packages/timm/models/vision_transformer.py:218:0
  %onnx::Squeeze_579 : Long(1, strides=[1], device=cpu) = onnx::Constant[value={0}, onnx_name="Constant_479"]() # /home/ashishpapanai/miniconda3/envs/parseq/lib/python3.7/site-packages/timm/models/vision_transformer.py:218:0
  %onnx::Transpose_580 : Float(1, 6, 128, 64, strides=[147456, 64, 1152, 1], requires_grad=0, device=cpu) = onnx::Squeeze[onnx_name="Squeeze_480"](%onnx::Squeeze_575, %onnx::Squeeze_579) # /home/ashishpapanai/miniconda3/envs/parseq/lib/python3.7/site-packages/timm/models/vision_transformer.py:218:0
  %onnx::Squeeze_581 : Long(1, strides=[1], device=cpu) = onnx::Constant[value={0}, onnx_name="Constant_481"]() # /home/ashishpapanai/miniconda3/envs/parseq/lib/python3.7/site-packages/timm/models/vision_transformer.py:218:0
  %onnx::MatMul_582 : Float(1, 6, 128, 64, strides=[147456, 64, 1152, 1], requires_grad=0, device=cpu) = onnx::Squeeze[onnx_name="Squeeze_482"](%onnx::Squeeze_576, %onnx::Squeeze_581) # /home/ashishpapanai/miniconda3/envs/parseq/lib/python3.7/site-packages/timm/models/vision_transformer.py:218:0
  %onnx::MatMul_583 : Float(1, 6, 64, 128, strides=[147456, 64, 1, 1152], requires_grad=0, device=cpu) = onnx::Transpose[perm=[0, 1, 3, 2], onnx_name="Transpose_483"](%onnx::Transpose_580) # /home/ashishpapanai/miniconda3/envs/parseq/lib/python3.7/site-packages/timm/models/vision_transformer.py:220:0
  %onnx::Mul_584 : Float(1, 6, 128, 128, strides=[98304, 16384, 128, 1], requires_grad=0, device=cpu) = onnx::MatMul[onnx_name="MatMul_484"](%onnx::MatMul_578, %onnx::MatMul_583) # /home/ashishpapanai/miniconda3/envs/parseq/lib/python3.7/site-packages/timm/models/vision_transformer.py:220:0
  %onnx::Mul_585 : Float(requires_grad=0, device=cpu) = onnx::Constant[value={0.125}, onnx_name="Constant_485"]()
  %onnx::Softmax_586 : Float(1, 6, 128, 128, strides=[98304, 16384, 128, 1], requires_grad=0, device=cpu) = onnx::Mul[onnx_name="Mul_486"](%onnx::Mul_584, %onnx::Mul_585) # /home/ashishpapanai/miniconda3/envs/parseq/lib/python3.7/site-packages/timm/models/vision_transformer.py:220:0
  %input.100 : Float(1, 6, 128, 128, strides=[98304, 16384, 128, 1], requires_grad=0, device=cpu) = onnx::Softmax[axis=-1, onnx_name="Softmax_487"](%onnx::Softmax_586) # /home/ashishpapanai/miniconda3/envs/parseq/lib/python3.7/site-packages/timm/models/vision_transformer.py:221:0
  %onnx::Transpose_588 : Float(1, 6, 128, 64, strides=[49152, 8192, 64, 1], requires_grad=0, device=cpu) = onnx::MatMul[onnx_name="MatMul_488"](%input.100, %onnx::MatMul_582) # /home/ashishpapanai/miniconda3/envs/parseq/lib/python3.7/site-packages/timm/models/vision_transformer.py:224:0
  %onnx::Reshape_589 : Float(1, 128, 6, 64, strides=[49152, 64, 8192, 1], requires_grad=0, device=cpu) = onnx::Transpose[perm=[0, 2, 1, 3], onnx_name="Transpose_489"](%onnx::Transpose_588) # /home/ashishpapanai/miniconda3/envs/parseq/lib/python3.7/site-packages/timm/models/vision_transformer.py:224:0
  %onnx::MatMul_597 : Float(1, 128, 384, strides=[49152, 384, 1], requires_grad=0, device=cpu) = onnx::Reshape[allowzero=0, onnx_name="Reshape_490"](%onnx::Reshape_589, %onnx::Reshape_4732) # /home/ashishpapanai/miniconda3/envs/parseq/lib/python3.7/site-packages/timm/models/vision_transformer.py:224:0
  %onnx::Add_599 : Float(1, 128, 384, strides=[49152, 384, 1], device=cpu) = onnx::MatMul[onnx_name="MatMul_491"](%onnx::MatMul_597, %onnx::MatMul_4733) # /home/ashishpapanai/miniconda3/envs/parseq/lib/python3.7/site-packages/torch/nn/modules/linear.py:114:0
  %input.104 : Float(1, 128, 384, strides=[49152, 384, 1], requires_grad=0, device=cpu) = onnx::Add[onnx_name="Add_492"](%encoder.blocks.4.attn.proj.bias, %onnx::Add_599) # /home/ashishpapanai/miniconda3/envs/parseq/lib/python3.7/site-packages/torch/nn/modules/linear.py:114:0
  %input.108 : Float(1, 128, 384, strides=[49152, 1, 128], requires_grad=0, device=cpu) = onnx::Add[onnx_name="Add_493"](%input.96, %input.104) # /home/ashishpapanai/miniconda3/envs/parseq/lib/python3.7/site-packages/timm/models/vision_transformer.py:268:0
  %onnx::Sub_602 : Float(1, 128, 1, strides=[128, 1, 1], device=cpu) = onnx::ReduceMean[axes=[-1], onnx_name="ReduceMean_494"](%input.108) # /home/ashishpapanai/miniconda3/envs/parseq/lib/python3.7/site-packages/torch/nn/functional.py:2503:0
  %onnx::Pow_603 : Float(1, 128, 384, strides=[49152, 384, 1], device=cpu) = onnx::Sub[onnx_name="Sub_495"](%input.108, %onnx::Sub_602) # /home/ashishpapanai/miniconda3/envs/parseq/lib/python3.7/site-packages/torch/nn/functional.py:2503:0
  %onnx::Pow_604 : Float(requires_grad=0, device=cpu) = onnx::Constant[value={2}, onnx_name="Constant_496"]() # /home/ashishpapanai/miniconda3/envs/parseq/lib/python3.7/site-packages/torch/nn/functional.py:2503:0
  %onnx::ReduceMean_605 : Float(1, 128, 384, strides=[49152, 384, 1], device=cpu) = onnx::Pow[onnx_name="Pow_497"](%onnx::Pow_603, %onnx::Pow_604) # /home/ashishpapanai/miniconda3/envs/parseq/lib/python3.7/site-packages/torch/nn/functional.py:2503:0
  %onnx::Add_606 : Float(1, 128, 1, strides=[128, 1, 1], device=cpu) = onnx::ReduceMean[axes=[-1], onnx_name="ReduceMean_498"](%onnx::ReduceMean_605) # /home/ashishpapanai/miniconda3/envs/parseq/lib/python3.7/site-packages/torch/nn/functional.py:2503:0
  %onnx::Add_607 : Float(requires_grad=0, device=cpu) = onnx::Constant[value={1e-06}, onnx_name="Constant_499"]() # /home/ashishpapanai/miniconda3/envs/parseq/lib/python3.7/site-packages/torch/nn/functional.py:2503:0
  %onnx::Sqrt_608 : Float(1, 128, 1, strides=[128, 1, 1], device=cpu) = onnx::Add[onnx_name="Add_500"](%onnx::Add_606, %onnx::Add_607) # /home/ashishpapanai/miniconda3/envs/parseq/lib/python3.7/site-packages/torch/nn/functional.py:2503:0
  %onnx::Div_609 : Float(1, 128, 1, strides=[128, 1, 1], device=cpu) = onnx::Sqrt[onnx_name="Sqrt_501"](%onnx::Sqrt_608) # /home/ashishpapanai/miniconda3/envs/parseq/lib/python3.7/site-packages/torch/nn/functional.py:2503:0
  %onnx::Mul_610 : Float(1, 128, 384, strides=[49152, 384, 1], device=cpu) = onnx::Div[onnx_name="Div_502"](%onnx::Pow_603, %onnx::Div_609) # /home/ashishpapanai/miniconda3/envs/parseq/lib/python3.7/site-packages/torch/nn/functional.py:2503:0
  %onnx::Add_611 : Float(1, 128, 384, strides=[49152, 384, 1], device=cpu) = onnx::Mul[onnx_name="Mul_503"](%onnx::Mul_610, %encoder.blocks.4.norm2.weight) # /home/ashishpapanai/miniconda3/envs/parseq/lib/python3.7/site-packages/torch/nn/functional.py:2503:0
  %onnx::MatMul_612 : Float(1, 128, 384, strides=[49152, 384, 1], requires_grad=0, device=cpu) = onnx::Add[onnx_name="Add_504"](%onnx::Add_611, %encoder.blocks.4.norm2.bias) # /home/ashishpapanai/miniconda3/envs/parseq/lib/python3.7/site-packages/torch/nn/functional.py:2503:0
  %onnx::Add_614 : Float(1, 128, 1536, strides=[196608, 1536, 1], device=cpu) = onnx::MatMul[onnx_name="MatMul_505"](%onnx::MatMul_612, %onnx::MatMul_4734) # /home/ashishpapanai/miniconda3/envs/parseq/lib/python3.7/site-packages/torch/nn/modules/linear.py:114:0
  %onnx::Div_615 : Float(1, 128, 1536, strides=[196608, 1536, 1], requires_grad=0, device=cpu) = onnx::Add[onnx_name="Add_506"](%encoder.blocks.4.mlp.fc1.bias, %onnx::Add_614) # /home/ashishpapanai/miniconda3/envs/parseq/lib/python3.7/site-packages/torch/nn/modules/linear.py:114:0
  %onnx::Div_616 : Float(requires_grad=0, device=cpu) = onnx::Constant[value={1.41421}, onnx_name="Constant_507"]() # /home/ashishpapanai/miniconda3/envs/parseq/lib/python3.7/site-packages/torch/nn/modules/activation.py:681:0
  %onnx::Erf_617 : Float(1, 128, 1536, strides=[196608, 1536, 1], device=cpu) = onnx::Div[onnx_name="Div_508"](%onnx::Div_615, %onnx::Div_616) # /home/ashishpapanai/miniconda3/envs/parseq/lib/python3.7/site-packages/torch/nn/modules/activation.py:681:0
  %onnx::Add_618 : Float(1, 128, 1536, strides=[196608, 1536, 1], device=cpu) = onnx::Erf[onnx_name="Erf_509"](%onnx::Erf_617) # /home/ashishpapanai/miniconda3/envs/parseq/lib/python3.7/site-packages/torch/nn/modules/activation.py:681:0
  %onnx::Add_619 : Float(requires_grad=0, device=cpu) = onnx::Constant[value={1}, onnx_name="Constant_510"]() # /home/ashishpapanai/miniconda3/envs/parseq/lib/python3.7/site-packages/torch/nn/modules/activation.py:681:0
  %onnx::Mul_620 : Float(1, 128, 1536, strides=[196608, 1536, 1], device=cpu) = onnx::Add[onnx_name="Add_511"](%onnx::Add_618, %onnx::Add_619) # /home/ashishpapanai/miniconda3/envs/parseq/lib/python3.7/site-packages/torch/nn/modules/activation.py:681:0
  %onnx::Mul_621 : Float(1, 128, 1536, strides=[196608, 1536, 1], device=cpu) = onnx::Mul[onnx_name="Mul_512"](%onnx::Div_615, %onnx::Mul_620) # /home/ashishpapanai/miniconda3/envs/parseq/lib/python3.7/site-packages/torch/nn/modules/activation.py:681:0
  %onnx::Mul_622 : Float(requires_grad=0, device=cpu) = onnx::Constant[value={0.5}, onnx_name="Constant_513"]() # /home/ashishpapanai/miniconda3/envs/parseq/lib/python3.7/site-packages/torch/nn/modules/activation.py:681:0
  %input.112 : Float(1, 128, 1536, strides=[196608, 1536, 1], requires_grad=0, device=cpu) = onnx::Mul[onnx_name="Mul_514"](%onnx::Mul_621, %onnx::Mul_622) # /home/ashishpapanai/miniconda3/envs/parseq/lib/python3.7/site-packages/torch/nn/modules/activation.py:681:0
  %onnx::Add_625 : Float(1, 128, 384, strides=[49152, 384, 1], device=cpu) = onnx::MatMul[onnx_name="MatMul_515"](%input.112, %onnx::MatMul_4735) # /home/ashishpapanai/miniconda3/envs/parseq/lib/python3.7/site-packages/torch/nn/modules/linear.py:114:0
  %input.116 : Float(1, 128, 384, strides=[49152, 384, 1], requires_grad=0, device=cpu) = onnx::Add[onnx_name="Add_516"](%encoder.blocks.4.mlp.fc2.bias, %onnx::Add_625) # /home/ashishpapanai/miniconda3/envs/parseq/lib/python3.7/site-packages/torch/nn/modules/linear.py:114:0
  %input.120 : Float(1, 128, 384, strides=[49152, 1, 128], requires_grad=0, device=cpu) = onnx::Add[onnx_name="Add_517"](%input.108, %input.116) # /home/ashishpapanai/miniconda3/envs/parseq/lib/python3.7/site-packages/timm/models/vision_transformer.py:269:0
  %onnx::Sub_628 : Float(1, 128, 1, strides=[128, 1, 1], device=cpu) = onnx::ReduceMean[axes=[-1], onnx_name="ReduceMean_518"](%input.120) # /home/ashishpapanai/miniconda3/envs/parseq/lib/python3.7/site-packages/torch/nn/functional.py:2503:0
  %onnx::Pow_629 : Float(1, 128, 384, strides=[49152, 384, 1], device=cpu) = onnx::Sub[onnx_name="Sub_519"](%input.120, %onnx::Sub_628) # /home/ashishpapanai/miniconda3/envs/parseq/lib/python3.7/site-packages/torch/nn/functional.py:2503:0
  %onnx::Pow_630 : Float(requires_grad=0, device=cpu) = onnx::Constant[value={2}, onnx_name="Constant_520"]() # /home/ashishpapanai/miniconda3/envs/parseq/lib/python3.7/site-packages/torch/nn/functional.py:2503:0
  %onnx::ReduceMean_631 : Float(1, 128, 384, strides=[49152, 384, 1], device=cpu) = onnx::Pow[onnx_name="Pow_521"](%onnx::Pow_629, %onnx::Pow_630) # /home/ashishpapanai/miniconda3/envs/parseq/lib/python3.7/site-packages/torch/nn/functional.py:2503:0
  %onnx::Add_632 : Float(1, 128, 1, strides=[128, 1, 1], device=cpu) = onnx::ReduceMean[axes=[-1], onnx_name="ReduceMean_522"](%onnx::ReduceMean_631) # /home/ashishpapanai/miniconda3/envs/parseq/lib/python3.7/site-packages/torch/nn/functional.py:2503:0
  %onnx::Add_633 : Float(requires_grad=0, device=cpu) = onnx::Constant[value={1e-06}, onnx_name="Constant_523"]() # /home/ashishpapanai/miniconda3/envs/parseq/lib/python3.7/site-packages/torch/nn/functional.py:2503:0
  %onnx::Sqrt_634 : Float(1, 128, 1, strides=[128, 1, 1], device=cpu) = onnx::Add[onnx_name="Add_524"](%onnx::Add_632, %onnx::Add_633) # /home/ashishpapanai/miniconda3/envs/parseq/lib/python3.7/site-packages/torch/nn/functional.py:2503:0
  %onnx::Div_635 : Float(1, 128, 1, strides=[128, 1, 1], device=cpu) = onnx::Sqrt[onnx_name="Sqrt_525"](%onnx::Sqrt_634) # /home/ashishpapanai/miniconda3/envs/parseq/lib/python3.7/site-packages/torch/nn/functional.py:2503:0
  %onnx::Mul_636 : Float(1, 128, 384, strides=[49152, 384, 1], device=cpu) = onnx::Div[onnx_name="Div_526"](%onnx::Pow_629, %onnx::Div_635) # /home/ashishpapanai/miniconda3/envs/parseq/lib/python3.7/site-packages/torch/nn/functional.py:2503:0
  %onnx::Add_637 : Float(1, 128, 384, strides=[49152, 384, 1], device=cpu) = onnx::Mul[onnx_name="Mul_527"](%onnx::Mul_636, %encoder.blocks.5.norm1.weight) # /home/ashishpapanai/miniconda3/envs/parseq/lib/python3.7/site-packages/torch/nn/functional.py:2503:0
  %onnx::MatMul_638 : Float(1, 128, 384, strides=[49152, 384, 1], requires_grad=0, device=cpu) = onnx::Add[onnx_name="Add_528"](%onnx::Add_637, %encoder.blocks.5.norm1.bias) # /home/ashishpapanai/miniconda3/envs/parseq/lib/python3.7/site-packages/torch/nn/functional.py:2503:0
  %onnx::Add_643 : Float(1, 128, 1152, strides=[147456, 1152, 1], device=cpu) = onnx::MatMul[onnx_name="MatMul_529"](%onnx::MatMul_638, %onnx::MatMul_4736) # /home/ashishpapanai/miniconda3/envs/parseq/lib/python3.7/site-packages/torch/nn/modules/linear.py:114:0
  %onnx::Reshape_644 : Float(1, 128, 1152, strides=[147456, 1152, 1], requires_grad=0, device=cpu) = onnx::Add[onnx_name="Add_530"](%encoder.blocks.5.attn.qkv.bias, %onnx::Add_643) # /home/ashishpapanai/miniconda3/envs/parseq/lib/python3.7/site-packages/torch/nn/modules/linear.py:114:0
  %onnx::Transpose_659 : Float(1, 128, 3, 6, 64, strides=[147456, 1152, 384, 64, 1], requires_grad=0, device=cpu) = onnx::Reshape[allowzero=0, onnx_name="Reshape_531"](%onnx::Reshape_644, %onnx::Reshape_4742) # /home/ashishpapanai/miniconda3/envs/parseq/lib/python3.7/site-packages/timm/models/vision_transformer.py:217:0
  %onnx::Split_660 : Float(3, 1, 6, 128, 64, strides=[384, 147456, 64, 1152, 1], requires_grad=0, device=cpu) = onnx::Transpose[perm=[2, 0, 3, 1, 4], onnx_name="Transpose_532"](%onnx::Transpose_659) # /home/ashishpapanai/miniconda3/envs/parseq/lib/python3.7/site-packages/timm/models/vision_transformer.py:217:0
  %onnx::Split_661 : Long(3, strides=[1], device=cpu) = onnx::Constant[value= 1  1  1 [ CPULongType{3} ], onnx_name="Constant_533"]() # /home/ashishpapanai/miniconda3/envs/parseq/lib/python3.7/site-packages/timm/models/vision_transformer.py:218:0
  %onnx::Squeeze_662 : Float(1, 1, 6, 128, 64, strides=[49152, 49152, 8192, 64, 1], device=cpu), %onnx::Squeeze_663 : Float(1, 1, 6, 128, 64, strides=[49152, 49152, 8192, 64, 1], device=cpu), %onnx::Squeeze_664 : Float(1, 1, 6, 128, 64, strides=[49152, 49152, 8192, 64, 1], device=cpu) = onnx::Split[axis=0, onnx_name="Split_534"](%onnx::Split_660, %onnx::Split_661) # /home/ashishpapanai/miniconda3/envs/parseq/lib/python3.7/site-packages/timm/models/vision_transformer.py:218:0
  %onnx::Squeeze_665 : Long(1, strides=[1], device=cpu) = onnx::Constant[value={0}, onnx_name="Constant_535"]() # /home/ashishpapanai/miniconda3/envs/parseq/lib/python3.7/site-packages/timm/models/vision_transformer.py:218:0
  %onnx::MatMul_666 : Float(1, 6, 128, 64, strides=[147456, 64, 1152, 1], requires_grad=0, device=cpu) = onnx::Squeeze[onnx_name="Squeeze_536"](%onnx::Squeeze_662, %onnx::Squeeze_665) # /home/ashishpapanai/miniconda3/envs/parseq/lib/python3.7/site-packages/timm/models/vision_transformer.py:218:0
  %onnx::Squeeze_667 : Long(1, strides=[1], device=cpu) = onnx::Constant[value={0}, onnx_name="Constant_537"]() # /home/ashishpapanai/miniconda3/envs/parseq/lib/python3.7/site-packages/timm/models/vision_transformer.py:218:0
  %onnx::Transpose_668 : Float(1, 6, 128, 64, strides=[147456, 64, 1152, 1], requires_grad=0, device=cpu) = onnx::Squeeze[onnx_name="Squeeze_538"](%onnx::Squeeze_663, %onnx::Squeeze_667) # /home/ashishpapanai/miniconda3/envs/parseq/lib/python3.7/site-packages/timm/models/vision_transformer.py:218:0
  %onnx::Squeeze_669 : Long(1, strides=[1], device=cpu) = onnx::Constant[value={0}, onnx_name="Constant_539"]() # /home/ashishpapanai/miniconda3/envs/parseq/lib/python3.7/site-packages/timm/models/vision_transformer.py:218:0
  %onnx::MatMul_670 : Float(1, 6, 128, 64, strides=[147456, 64, 1152, 1], requires_grad=0, device=cpu) = onnx::Squeeze[onnx_name="Squeeze_540"](%onnx::Squeeze_664, %onnx::Squeeze_669) # /home/ashishpapanai/miniconda3/envs/parseq/lib/python3.7/site-packages/timm/models/vision_transformer.py:218:0
  %onnx::MatMul_671 : Float(1, 6, 64, 128, strides=[147456, 64, 1, 1152], requires_grad=0, device=cpu) = onnx::Transpose[perm=[0, 1, 3, 2], onnx_name="Transpose_541"](%onnx::Transpose_668) # /home/ashishpapanai/miniconda3/envs/parseq/lib/python3.7/site-packages/timm/models/vision_transformer.py:220:0
  %onnx::Mul_672 : Float(1, 6, 128, 128, strides=[98304, 16384, 128, 1], requires_grad=0, device=cpu) = onnx::MatMul[onnx_name="MatMul_542"](%onnx::MatMul_666, %onnx::MatMul_671) # /home/ashishpapanai/miniconda3/envs/parseq/lib/python3.7/site-packages/timm/models/vision_transformer.py:220:0
  %onnx::Mul_673 : Float(requires_grad=0, device=cpu) = onnx::Constant[value={0.125}, onnx_name="Constant_543"]()
  %onnx::Softmax_674 : Float(1, 6, 128, 128, strides=[98304, 16384, 128, 1], requires_grad=0, device=cpu) = onnx::Mul[onnx_name="Mul_544"](%onnx::Mul_672, %onnx::Mul_673) # /home/ashishpapanai/miniconda3/envs/parseq/lib/python3.7/site-packages/timm/models/vision_transformer.py:220:0
  %input.124 : Float(1, 6, 128, 128, strides=[98304, 16384, 128, 1], requires_grad=0, device=cpu) = onnx::Softmax[axis=-1, onnx_name="Softmax_545"](%onnx::Softmax_674) # /home/ashishpapanai/miniconda3/envs/parseq/lib/python3.7/site-packages/timm/models/vision_transformer.py:221:0
  %onnx::Transpose_676 : Float(1, 6, 128, 64, strides=[49152, 8192, 64, 1], requires_grad=0, device=cpu) = onnx::MatMul[onnx_name="MatMul_546"](%input.124, %onnx::MatMul_670) # /home/ashishpapanai/miniconda3/envs/parseq/lib/python3.7/site-packages/timm/models/vision_transformer.py:224:0
  %onnx::Reshape_677 : Float(1, 128, 6, 64, strides=[49152, 64, 8192, 1], requires_grad=0, device=cpu) = onnx::Transpose[perm=[0, 2, 1, 3], onnx_name="Transpose_547"](%onnx::Transpose_676) # /home/ashishpapanai/miniconda3/envs/parseq/lib/python3.7/site-packages/timm/models/vision_transformer.py:224:0
  %onnx::MatMul_685 : Float(1, 128, 384, strides=[49152, 384, 1], requires_grad=0, device=cpu) = onnx::Reshape[allowzero=0, onnx_name="Reshape_548"](%onnx::Reshape_677, %onnx::Reshape_4746) # /home/ashishpapanai/miniconda3/envs/parseq/lib/python3.7/site-packages/timm/models/vision_transformer.py:224:0
  %onnx::Add_687 : Float(1, 128, 384, strides=[49152, 384, 1], device=cpu) = onnx::MatMul[onnx_name="MatMul_549"](%onnx::MatMul_685, %onnx::MatMul_4747) # /home/ashishpapanai/miniconda3/envs/parseq/lib/python3.7/site-packages/torch/nn/modules/linear.py:114:0
  %input.128 : Float(1, 128, 384, strides=[49152, 384, 1], requires_grad=0, device=cpu) = onnx::Add[onnx_name="Add_550"](%encoder.blocks.5.attn.proj.bias, %onnx::Add_687) # /home/ashishpapanai/miniconda3/envs/parseq/lib/python3.7/site-packages/torch/nn/modules/linear.py:114:0
  %input.132 : Float(1, 128, 384, strides=[49152, 1, 128], requires_grad=0, device=cpu) = onnx::Add[onnx_name="Add_551"](%input.120, %input.128) # /home/ashishpapanai/miniconda3/envs/parseq/lib/python3.7/site-packages/timm/models/vision_transformer.py:268:0
  %onnx::Sub_690 : Float(1, 128, 1, strides=[128, 1, 1], device=cpu) = onnx::ReduceMean[axes=[-1], onnx_name="ReduceMean_552"](%input.132) # /home/ashishpapanai/miniconda3/envs/parseq/lib/python3.7/site-packages/torch/nn/functional.py:2503:0
  %onnx::Pow_691 : Float(1, 128, 384, strides=[49152, 384, 1], device=cpu) = onnx::Sub[onnx_name="Sub_553"](%input.132, %onnx::Sub_690) # /home/ashishpapanai/miniconda3/envs/parseq/lib/python3.7/site-packages/torch/nn/functional.py:2503:0
  %onnx::Pow_692 : Float(requires_grad=0, device=cpu) = onnx::Constant[value={2}, onnx_name="Constant_554"]() # /home/ashishpapanai/miniconda3/envs/parseq/lib/python3.7/site-packages/torch/nn/functional.py:2503:0
  %onnx::ReduceMean_693 : Float(1, 128, 384, strides=[49152, 384, 1], device=cpu) = onnx::Pow[onnx_name="Pow_555"](%onnx::Pow_691, %onnx::Pow_692) # /home/ashishpapanai/miniconda3/envs/parseq/lib/python3.7/site-packages/torch/nn/functional.py:2503:0
  %onnx::Add_694 : Float(1, 128, 1, strides=[128, 1, 1], device=cpu) = onnx::ReduceMean[axes=[-1], onnx_name="ReduceMean_556"](%onnx::ReduceMean_693) # /home/ashishpapanai/miniconda3/envs/parseq/lib/python3.7/site-packages/torch/nn/functional.py:2503:0
  %onnx::Add_695 : Float(requires_grad=0, device=cpu) = onnx::Constant[value={1e-06}, onnx_name="Constant_557"]() # /home/ashishpapanai/miniconda3/envs/parseq/lib/python3.7/site-packages/torch/nn/functional.py:2503:0
  %onnx::Sqrt_696 : Float(1, 128, 1, strides=[128, 1, 1], device=cpu) = onnx::Add[onnx_name="Add_558"](%onnx::Add_694, %onnx::Add_695) # /home/ashishpapanai/miniconda3/envs/parseq/lib/python3.7/site-packages/torch/nn/functional.py:2503:0
  %onnx::Div_697 : Float(1, 128, 1, strides=[128, 1, 1], device=cpu) = onnx::Sqrt[onnx_name="Sqrt_559"](%onnx::Sqrt_696) # /home/ashishpapanai/miniconda3/envs/parseq/lib/python3.7/site-packages/torch/nn/functional.py:2503:0
  %onnx::Mul_698 : Float(1, 128, 384, strides=[49152, 384, 1], device=cpu) = onnx::Div[onnx_name="Div_560"](%onnx::Pow_691, %onnx::Div_697) # /home/ashishpapanai/miniconda3/envs/parseq/lib/python3.7/site-packages/torch/nn/functional.py:2503:0
  %onnx::Add_699 : Float(1, 128, 384, strides=[49152, 384, 1], device=cpu) = onnx::Mul[onnx_name="Mul_561"](%onnx::Mul_698, %encoder.blocks.5.norm2.weight) # /home/ashishpapanai/miniconda3/envs/parseq/lib/python3.7/site-packages/torch/nn/functional.py:2503:0
  %onnx::MatMul_700 : Float(1, 128, 384, strides=[49152, 384, 1], requires_grad=0, device=cpu) = onnx::Add[onnx_name="Add_562"](%onnx::Add_699, %encoder.blocks.5.norm2.bias) # /home/ashishpapanai/miniconda3/envs/parseq/lib/python3.7/site-packages/torch/nn/functional.py:2503:0
  %onnx::Add_702 : Float(1, 128, 1536, strides=[196608, 1536, 1], device=cpu) = onnx::MatMul[onnx_name="MatMul_563"](%onnx::MatMul_700, %onnx::MatMul_4748) # /home/ashishpapanai/miniconda3/envs/parseq/lib/python3.7/site-packages/torch/nn/modules/linear.py:114:0
  %onnx::Div_703 : Float(1, 128, 1536, strides=[196608, 1536, 1], requires_grad=0, device=cpu) = onnx::Add[onnx_name="Add_564"](%encoder.blocks.5.mlp.fc1.bias, %onnx::Add_702) # /home/ashishpapanai/miniconda3/envs/parseq/lib/python3.7/site-packages/torch/nn/modules/linear.py:114:0
  %onnx::Div_704 : Float(requires_grad=0, device=cpu) = onnx::Constant[value={1.41421}, onnx_name="Constant_565"]() # /home/ashishpapanai/miniconda3/envs/parseq/lib/python3.7/site-packages/torch/nn/modules/activation.py:681:0
  %onnx::Erf_705 : Float(1, 128, 1536, strides=[196608, 1536, 1], device=cpu) = onnx::Div[onnx_name="Div_566"](%onnx::Div_703, %onnx::Div_704) # /home/ashishpapanai/miniconda3/envs/parseq/lib/python3.7/site-packages/torch/nn/modules/activation.py:681:0
  %onnx::Add_706 : Float(1, 128, 1536, strides=[196608, 1536, 1], device=cpu) = onnx::Erf[onnx_name="Erf_567"](%onnx::Erf_705) # /home/ashishpapanai/miniconda3/envs/parseq/lib/python3.7/site-packages/torch/nn/modules/activation.py:681:0
  %onnx::Add_707 : Float(requires_grad=0, device=cpu) = onnx::Constant[value={1}, onnx_name="Constant_568"]() # /home/ashishpapanai/miniconda3/envs/parseq/lib/python3.7/site-packages/torch/nn/modules/activation.py:681:0
  %onnx::Mul_708 : Float(1, 128, 1536, strides=[196608, 1536, 1], device=cpu) = onnx::Add[onnx_name="Add_569"](%onnx::Add_706, %onnx::Add_707) # /home/ashishpapanai/miniconda3/envs/parseq/lib/python3.7/site-packages/torch/nn/modules/activation.py:681:0
  %onnx::Mul_709 : Float(1, 128, 1536, strides=[196608, 1536, 1], device=cpu) = onnx::Mul[onnx_name="Mul_570"](%onnx::Div_703, %onnx::Mul_708) # /home/ashishpapanai/miniconda3/envs/parseq/lib/python3.7/site-packages/torch/nn/modules/activation.py:681:0
  %onnx::Mul_710 : Float(requires_grad=0, device=cpu) = onnx::Constant[value={0.5}, onnx_name="Constant_571"]() # /home/ashishpapanai/miniconda3/envs/parseq/lib/python3.7/site-packages/torch/nn/modules/activation.py:681:0
  %input.136 : Float(1, 128, 1536, strides=[196608, 1536, 1], requires_grad=0, device=cpu) = onnx::Mul[onnx_name="Mul_572"](%onnx::Mul_709, %onnx::Mul_710) # /home/ashishpapanai/miniconda3/envs/parseq/lib/python3.7/site-packages/torch/nn/modules/activation.py:681:0
  %onnx::Add_713 : Float(1, 128, 384, strides=[49152, 384, 1], device=cpu) = onnx::MatMul[onnx_name="MatMul_573"](%input.136, %onnx::MatMul_4749) # /home/ashishpapanai/miniconda3/envs/parseq/lib/python3.7/site-packages/torch/nn/modules/linear.py:114:0
  %input.140 : Float(1, 128, 384, strides=[49152, 384, 1], requires_grad=0, device=cpu) = onnx::Add[onnx_name="Add_574"](%encoder.blocks.5.mlp.fc2.bias, %onnx::Add_713) # /home/ashishpapanai/miniconda3/envs/parseq/lib/python3.7/site-packages/torch/nn/modules/linear.py:114:0
  %input.144 : Float(1, 128, 384, strides=[49152, 1, 128], requires_grad=0, device=cpu) = onnx::Add[onnx_name="Add_575"](%input.132, %input.140) # /home/ashishpapanai/miniconda3/envs/parseq/lib/python3.7/site-packages/timm/models/vision_transformer.py:269:0
  %onnx::Sub_716 : Float(1, 128, 1, strides=[128, 1, 1], device=cpu) = onnx::ReduceMean[axes=[-1], onnx_name="ReduceMean_576"](%input.144) # /home/ashishpapanai/miniconda3/envs/parseq/lib/python3.7/site-packages/torch/nn/functional.py:2503:0
  %onnx::Pow_717 : Float(1, 128, 384, strides=[49152, 384, 1], device=cpu) = onnx::Sub[onnx_name="Sub_577"](%input.144, %onnx::Sub_716) # /home/ashishpapanai/miniconda3/envs/parseq/lib/python3.7/site-packages/torch/nn/functional.py:2503:0
  %onnx::Pow_718 : Float(requires_grad=0, device=cpu) = onnx::Constant[value={2}, onnx_name="Constant_578"]() # /home/ashishpapanai/miniconda3/envs/parseq/lib/python3.7/site-packages/torch/nn/functional.py:2503:0
  %onnx::ReduceMean_719 : Float(1, 128, 384, strides=[49152, 384, 1], device=cpu) = onnx::Pow[onnx_name="Pow_579"](%onnx::Pow_717, %onnx::Pow_718) # /home/ashishpapanai/miniconda3/envs/parseq/lib/python3.7/site-packages/torch/nn/functional.py:2503:0
  %onnx::Add_720 : Float(1, 128, 1, strides=[128, 1, 1], device=cpu) = onnx::ReduceMean[axes=[-1], onnx_name="ReduceMean_580"](%onnx::ReduceMean_719) # /home/ashishpapanai/miniconda3/envs/parseq/lib/python3.7/site-packages/torch/nn/functional.py:2503:0
  %onnx::Add_721 : Float(requires_grad=0, device=cpu) = onnx::Constant[value={1e-06}, onnx_name="Constant_581"]() # /home/ashishpapanai/miniconda3/envs/parseq/lib/python3.7/site-packages/torch/nn/functional.py:2503:0
  %onnx::Sqrt_722 : Float(1, 128, 1, strides=[128, 1, 1], device=cpu) = onnx::Add[onnx_name="Add_582"](%onnx::Add_720, %onnx::Add_721) # /home/ashishpapanai/miniconda3/envs/parseq/lib/python3.7/site-packages/torch/nn/functional.py:2503:0
  %onnx::Div_723 : Float(1, 128, 1, strides=[128, 1, 1], device=cpu) = onnx::Sqrt[onnx_name="Sqrt_583"](%onnx::Sqrt_722) # /home/ashishpapanai/miniconda3/envs/parseq/lib/python3.7/site-packages/torch/nn/functional.py:2503:0
  %onnx::Mul_724 : Float(1, 128, 384, strides=[49152, 384, 1], device=cpu) = onnx::Div[onnx_name="Div_584"](%onnx::Pow_717, %onnx::Div_723) # /home/ashishpapanai/miniconda3/envs/parseq/lib/python3.7/site-packages/torch/nn/functional.py:2503:0
  %onnx::Add_725 : Float(1, 128, 384, strides=[49152, 384, 1], device=cpu) = onnx::Mul[onnx_name="Mul_585"](%onnx::Mul_724, %encoder.blocks.6.norm1.weight) # /home/ashishpapanai/miniconda3/envs/parseq/lib/python3.7/site-packages/torch/nn/functional.py:2503:0
  %onnx::MatMul_726 : Float(1, 128, 384, strides=[49152, 384, 1], requires_grad=0, device=cpu) = onnx::Add[onnx_name="Add_586"](%onnx::Add_725, %encoder.blocks.6.norm1.bias) # /home/ashishpapanai/miniconda3/envs/parseq/lib/python3.7/site-packages/torch/nn/functional.py:2503:0
  %onnx::Add_731 : Float(1, 128, 1152, strides=[147456, 1152, 1], device=cpu) = onnx::MatMul[onnx_name="MatMul_587"](%onnx::MatMul_726, %onnx::MatMul_4750) # /home/ashishpapanai/miniconda3/envs/parseq/lib/python3.7/site-packages/torch/nn/modules/linear.py:114:0
  %onnx::Reshape_732 : Float(1, 128, 1152, strides=[147456, 1152, 1], requires_grad=0, device=cpu) = onnx::Add[onnx_name="Add_588"](%encoder.blocks.6.attn.qkv.bias, %onnx::Add_731) # /home/ashishpapanai/miniconda3/envs/parseq/lib/python3.7/site-packages/torch/nn/modules/linear.py:114:0
  %onnx::Transpose_747 : Float(1, 128, 3, 6, 64, strides=[147456, 1152, 384, 64, 1], requires_grad=0, device=cpu) = onnx::Reshape[allowzero=0, onnx_name="Reshape_589"](%onnx::Reshape_732, %onnx::Reshape_4756) # /home/ashishpapanai/miniconda3/envs/parseq/lib/python3.7/site-packages/timm/models/vision_transformer.py:217:0
  %onnx::Split_748 : Float(3, 1, 6, 128, 64, strides=[384, 147456, 64, 1152, 1], requires_grad=0, device=cpu) = onnx::Transpose[perm=[2, 0, 3, 1, 4], onnx_name="Transpose_590"](%onnx::Transpose_747) # /home/ashishpapanai/miniconda3/envs/parseq/lib/python3.7/site-packages/timm/models/vision_transformer.py:217:0
  %onnx::Split_749 : Long(3, strides=[1], device=cpu) = onnx::Constant[value= 1  1  1 [ CPULongType{3} ], onnx_name="Constant_591"]() # /home/ashishpapanai/miniconda3/envs/parseq/lib/python3.7/site-packages/timm/models/vision_transformer.py:218:0
  %onnx::Squeeze_750 : Float(1, 1, 6, 128, 64, strides=[49152, 49152, 8192, 64, 1], device=cpu), %onnx::Squeeze_751 : Float(1, 1, 6, 128, 64, strides=[49152, 49152, 8192, 64, 1], device=cpu), %onnx::Squeeze_752 : Float(1, 1, 6, 128, 64, strides=[49152, 49152, 8192, 64, 1], device=cpu) = onnx::Split[axis=0, onnx_name="Split_592"](%onnx::Split_748, %onnx::Split_749) # /home/ashishpapanai/miniconda3/envs/parseq/lib/python3.7/site-packages/timm/models/vision_transformer.py:218:0
  %onnx::Squeeze_753 : Long(1, strides=[1], device=cpu) = onnx::Constant[value={0}, onnx_name="Constant_593"]() # /home/ashishpapanai/miniconda3/envs/parseq/lib/python3.7/site-packages/timm/models/vision_transformer.py:218:0
  %onnx::MatMul_754 : Float(1, 6, 128, 64, strides=[147456, 64, 1152, 1], requires_grad=0, device=cpu) = onnx::Squeeze[onnx_name="Squeeze_594"](%onnx::Squeeze_750, %onnx::Squeeze_753) # /home/ashishpapanai/miniconda3/envs/parseq/lib/python3.7/site-packages/timm/models/vision_transformer.py:218:0
  %onnx::Squeeze_755 : Long(1, strides=[1], device=cpu) = onnx::Constant[value={0}, onnx_name="Constant_595"]() # /home/ashishpapanai/miniconda3/envs/parseq/lib/python3.7/site-packages/timm/models/vision_transformer.py:218:0
  %onnx::Transpose_756 : Float(1, 6, 128, 64, strides=[147456, 64, 1152, 1], requires_grad=0, device=cpu) = onnx::Squeeze[onnx_name="Squeeze_596"](%onnx::Squeeze_751, %onnx::Squeeze_755) # /home/ashishpapanai/miniconda3/envs/parseq/lib/python3.7/site-packages/timm/models/vision_transformer.py:218:0
  %onnx::Squeeze_757 : Long(1, strides=[1], device=cpu) = onnx::Constant[value={0}, onnx_name="Constant_597"]() # /home/ashishpapanai/miniconda3/envs/parseq/lib/python3.7/site-packages/timm/models/vision_transformer.py:218:0
  %onnx::MatMul_758 : Float(1, 6, 128, 64, strides=[147456, 64, 1152, 1], requires_grad=0, device=cpu) = onnx::Squeeze[onnx_name="Squeeze_598"](%onnx::Squeeze_752, %onnx::Squeeze_757) # /home/ashishpapanai/miniconda3/envs/parseq/lib/python3.7/site-packages/timm/models/vision_transformer.py:218:0
  %onnx::MatMul_759 : Float(1, 6, 64, 128, strides=[147456, 64, 1, 1152], requires_grad=0, device=cpu) = onnx::Transpose[perm=[0, 1, 3, 2], onnx_name="Transpose_599"](%onnx::Transpose_756) # /home/ashishpapanai/miniconda3/envs/parseq/lib/python3.7/site-packages/timm/models/vision_transformer.py:220:0
  %onnx::Mul_760 : Float(1, 6, 128, 128, strides=[98304, 16384, 128, 1], requires_grad=0, device=cpu) = onnx::MatMul[onnx_name="MatMul_600"](%onnx::MatMul_754, %onnx::MatMul_759) # /home/ashishpapanai/miniconda3/envs/parseq/lib/python3.7/site-packages/timm/models/vision_transformer.py:220:0
  %onnx::Mul_761 : Float(requires_grad=0, device=cpu) = onnx::Constant[value={0.125}, onnx_name="Constant_601"]()
…
  %onnx::Mul_4301 : Float(1, 1, 1536, strides=[1536, 1536, 1], device=cpu) = onnx::Add[onnx_name="Add_2562"](%onnx::Add_4299, %onnx::Add_4300) # /home/ashishpapanai/Desktop/MAVI/parseq/strhub/models/parseq/modules.py:70:0
  %onnx::Mul_4302 : Float(1, 1, 1536, strides=[1536, 1536, 1], device=cpu) = onnx::Mul[onnx_name="Mul_2563"](%onnx::Div_4296, %onnx::Mul_4301) # /home/ashishpapanai/Desktop/MAVI/parseq/strhub/models/parseq/modules.py:70:0
  %onnx::Mul_4303 : Float(requires_grad=0, device=cpu) = onnx::Constant[value={0.5}, onnx_name="Constant_2564"]() # /home/ashishpapanai/Desktop/MAVI/parseq/strhub/models/parseq/modules.py:70:0
  %input.676 : Float(1, 1, 1536, strides=[1536, 1536, 1], requires_grad=0, device=cpu) = onnx::Mul[onnx_name="Mul_2565"](%onnx::Mul_4302, %onnx::Mul_4303) # /home/ashishpapanai/Desktop/MAVI/parseq/strhub/models/parseq/modules.py:70:0
  %onnx::Add_4306 : Float(1, 1, 384, strides=[384, 384, 1], device=cpu) = onnx::MatMul[onnx_name="MatMul_2566"](%input.676, %onnx::MatMul_5496) # /home/ashishpapanai/miniconda3/envs/parseq/lib/python3.7/site-packages/torch/nn/modules/linear.py:114:0
  %input.680 : Float(1, 1, 384, strides=[384, 384, 1], requires_grad=0, device=cpu) = onnx::Add[onnx_name="Add_2567"](%decoder.layers.0.linear2.bias, %onnx::Add_4306) # /home/ashishpapanai/miniconda3/envs/parseq/lib/python3.7/site-packages/torch/nn/modules/linear.py:114:0
  %input.684 : Float(1, 1, 384, strides=[384, 384, 1], requires_grad=0, device=cpu) = onnx::Add[onnx_name="Add_2568"](%input.672, %input.680) # /home/ashishpapanai/Desktop/MAVI/parseq/strhub/models/parseq/modules.py:71:0
  %onnx::Sub_4309 : Float(1, 1, 1, strides=[1, 1, 1], device=cpu) = onnx::ReduceMean[axes=[-1], onnx_name="ReduceMean_2569"](%input.684) # /home/ashishpapanai/miniconda3/envs/parseq/lib/python3.7/site-packages/torch/nn/functional.py:2503:0
  %onnx::Pow_4310 : Float(1, 1, 384, strides=[384, 384, 1], device=cpu) = onnx::Sub[onnx_name="Sub_2570"](%input.684, %onnx::Sub_4309) # /home/ashishpapanai/miniconda3/envs/parseq/lib/python3.7/site-packages/torch/nn/functional.py:2503:0
  %onnx::Pow_4311 : Float(requires_grad=0, device=cpu) = onnx::Constant[value={2}, onnx_name="Constant_2571"]() # /home/ashishpapanai/miniconda3/envs/parseq/lib/python3.7/site-packages/torch/nn/functional.py:2503:0
  %onnx::ReduceMean_4312 : Float(1, 1, 384, strides=[384, 384, 1], device=cpu) = onnx::Pow[onnx_name="Pow_2572"](%onnx::Pow_4310, %onnx::Pow_4311) # /home/ashishpapanai/miniconda3/envs/parseq/lib/python3.7/site-packages/torch/nn/functional.py:2503:0
  %onnx::Add_4313 : Float(1, 1, 1, strides=[1, 1, 1], device=cpu) = onnx::ReduceMean[axes=[-1], onnx_name="ReduceMean_2573"](%onnx::ReduceMean_4312) # /home/ashishpapanai/miniconda3/envs/parseq/lib/python3.7/site-packages/torch/nn/functional.py:2503:0
  %onnx::Add_4314 : Float(requires_grad=0, device=cpu) = onnx::Constant[value={1e-05}, onnx_name="Constant_2574"]() # /home/ashishpapanai/miniconda3/envs/parseq/lib/python3.7/site-packages/torch/nn/functional.py:2503:0
  %onnx::Sqrt_4315 : Float(1, 1, 1, strides=[1, 1, 1], device=cpu) = onnx::Add[onnx_name="Add_2575"](%onnx::Add_4313, %onnx::Add_4314) # /home/ashishpapanai/miniconda3/envs/parseq/lib/python3.7/site-packages/torch/nn/functional.py:2503:0
  %onnx::Div_4316 : Float(1, 1, 1, strides=[1, 1, 1], device=cpu) = onnx::Sqrt[onnx_name="Sqrt_2576"](%onnx::Sqrt_4315) # /home/ashishpapanai/miniconda3/envs/parseq/lib/python3.7/site-packages/torch/nn/functional.py:2503:0
  %onnx::Mul_4317 : Float(1, 1, 384, strides=[384, 384, 1], device=cpu) = onnx::Div[onnx_name="Div_2577"](%onnx::Pow_4310, %onnx::Div_4316) # /home/ashishpapanai/miniconda3/envs/parseq/lib/python3.7/site-packages/torch/nn/functional.py:2503:0
  %onnx::Add_4318 : Float(1, 1, 384, strides=[384, 384, 1], device=cpu) = onnx::Mul[onnx_name="Mul_2578"](%onnx::Mul_4317, %decoder.norm.weight) # /home/ashishpapanai/miniconda3/envs/parseq/lib/python3.7/site-packages/torch/nn/functional.py:2503:0
  %onnx::MatMul_4319 : Float(1, 1, 384, strides=[384, 384, 1], requires_grad=0, device=cpu) = onnx::Add[onnx_name="Add_2579"](%onnx::Add_4318, %decoder.norm.bias) # /home/ashishpapanai/miniconda3/envs/parseq/lib/python3.7/site-packages/torch/nn/functional.py:2503:0
  %onnx::Add_4321 : Float(1, 1, 95, strides=[95, 95, 1], device=cpu) = onnx::MatMul[onnx_name="MatMul_2580"](%onnx::MatMul_4319, %onnx::MatMul_5497) # /home/ashishpapanai/miniconda3/envs/parseq/lib/python3.7/site-packages/torch/nn/modules/linear.py:114:0
  %onnx::ArgMax_4322 : Float(1, 1, 95, strides=[95, 95, 1], requires_grad=0, device=cpu) = onnx::Add[onnx_name="Add_2581"](%head.bias, %onnx::Add_4321) # /home/ashishpapanai/miniconda3/envs/parseq/lib/python3.7/site-packages/torch/nn/modules/linear.py:114:0
  %onnx::Slice_4323 : Long(1, strides=[1], device=cpu) = onnx::Constant[value={1}, onnx_name="Constant_2582"]() # /home/ashishpapanai/Desktop/MAVI/parseq/strhub/models/parseq/system.py:137:0
  %onnx::Slice_4324 : Long(1, strides=[1], device=cpu) = onnx::Constant[value={0}, onnx_name="Constant_2583"]() # /home/ashishpapanai/Desktop/MAVI/parseq/strhub/models/parseq/system.py:137:0
  %onnx::Slice_4325 : Long(1, strides=[1], device=cpu) = onnx::Constant[value={9}, onnx_name="Constant_2584"]() # /home/ashishpapanai/Desktop/MAVI/parseq/strhub/models/parseq/system.py:137:0
  %onnx::Slice_4326 : Long(1, strides=[1], device=cpu) = onnx::Constant[value={1}, onnx_name="Constant_2585"]() # /home/ashishpapanai/Desktop/MAVI/parseq/strhub/models/parseq/system.py:137:0
  %onnx::Concat_4327 : Long(1, 9, strides=[26, 1], requires_grad=0, device=cpu) = onnx::Slice[onnx_name="Slice_2586"](%onnx::Slice_3992, %onnx::Slice_4324, %onnx::Slice_4325, %onnx::Slice_4323, %onnx::Slice_4326) # /home/ashishpapanai/Desktop/MAVI/parseq/strhub/models/parseq/system.py:137:0
  %onnx::Slice_4328 : Long(1, strides=[1], device=cpu) = onnx::Constant[value={1}, onnx_name="Constant_2587"]() # /home/ashishpapanai/Desktop/MAVI/parseq/strhub/models/parseq/system.py:138:0
  %onnx::Slice_4329 : Long(1, strides=[1], device=cpu) = onnx::Constant[value={10}, onnx_name="Constant_2588"]() # /home/ashishpapanai/Desktop/MAVI/parseq/strhub/models/parseq/system.py:138:0
  %onnx::Slice_4330 : Long(1, strides=[1], device=cpu) = onnx::Constant[value={9223372036854775807}, onnx_name="Constant_2589"]() # /home/ashishpapanai/Desktop/MAVI/parseq/strhub/models/parseq/system.py:138:0
  %onnx::Slice_4331 : Long(1, strides=[1], device=cpu) = onnx::Constant[value={1}, onnx_name="Constant_2590"]() # /home/ashishpapanai/Desktop/MAVI/parseq/strhub/models/parseq/system.py:138:0
  %onnx::Concat_4332 : Long(1, 16, strides=[26, 1], requires_grad=0, device=cpu) = onnx::Slice[onnx_name="Slice_2591"](%onnx::Slice_3992, %onnx::Slice_4329, %onnx::Slice_4330, %onnx::Slice_4328, %onnx::Slice_4331) # /home/ashishpapanai/Desktop/MAVI/parseq/strhub/models/parseq/system.py:138:0
  %onnx::Concat_4333 : Long(1, 1, strides=[1, 1], requires_grad=0, device=cpu) = onnx::ArgMax[axis=-1, keepdims=0, select_last_index=0, onnx_name="ArgMax_2592"](%onnx::ArgMax_4322) # /home/ashishpapanai/Desktop/MAVI/parseq/strhub/models/parseq/system.py:139:0
  %onnx::Slice_4334 : Long(1, 26, strides=[26, 1], requires_grad=0, device=cpu) = onnx::Concat[axis=1, onnx_name="Concat_2593"](%onnx::Concat_4327, %onnx::Concat_4333, %onnx::Concat_4332) # /home/ashishpapanai/Desktop/MAVI/parseq/strhub/models/parseq/system.py:140:0
  %onnx::Slice_4335 : Long(1, strides=[1], device=cpu) = onnx::Constant[value={1}, onnx_name="Constant_2594"]() # /home/ashishpapanai/Desktop/MAVI/parseq/strhub/models/parseq/system.py:128:0
  %onnx::Slice_4336 : Long(1, strides=[1], device=cpu) = onnx::Constant[value={0}, onnx_name="Constant_2595"]() # /home/ashishpapanai/Desktop/MAVI/parseq/strhub/models/parseq/system.py:128:0
  %onnx::Slice_4337 : Long(1, strides=[1], device=cpu) = onnx::Constant[value={10}, onnx_name="Constant_2596"]() # /home/ashishpapanai/Desktop/MAVI/parseq/strhub/models/parseq/system.py:128:0
  %onnx::Slice_4338 : Long(1, strides=[1], device=cpu) = onnx::Constant[value={1}, onnx_name="Constant_2597"]() # /home/ashishpapanai/Desktop/MAVI/parseq/strhub/models/parseq/system.py:128:0
  %onnx::Slice_4339 : Long(1, 10, strides=[26, 1], requires_grad=0, device=cpu) = onnx::Slice[onnx_name="Slice_2598"](%onnx::Slice_4334, %onnx::Slice_4336, %onnx::Slice_4337, %onnx::Slice_4335, %onnx::Slice_4338) # /home/ashishpapanai/Desktop/MAVI/parseq/strhub/models/parseq/system.py:128:0
  %onnx::Slice_4340 : Long(1, strides=[1], device=cpu) = onnx::Constant[value={1}, onnx_name="Constant_2599"]() # /home/ashishpapanai/Desktop/MAVI/parseq/strhub/models/parseq/system.py:128:0
  %onnx::Slice_4341 : Long(1, strides=[1], device=cpu) = onnx::Constant[value={9}, onnx_name="Constant_2600"]() # /home/ashishpapanai/Desktop/MAVI/parseq/strhub/models/parseq/system.py:128:0
  %onnx::Slice_4342 : Long(1, strides=[1], device=cpu) = onnx::Constant[value={10}, onnx_name="Constant_2601"]() # /home/ashishpapanai/Desktop/MAVI/parseq/strhub/models/parseq/system.py:128:0
  %onnx::Slice_4343 : Long(1, strides=[1], device=cpu) = onnx::Constant[value={1}, onnx_name="Constant_2602"]() # /home/ashishpapanai/Desktop/MAVI/parseq/strhub/models/parseq/system.py:128:0
  %input.688 : Float(1, 1, 384, strides=[9984, 384, 1], requires_grad=0, device=cpu) = onnx::Slice[onnx_name="Slice_2603"](%onnx::Slice_1277, %onnx::Slice_4341, %onnx::Slice_4342, %onnx::Slice_4340, %onnx::Slice_4343) # /home/ashishpapanai/Desktop/MAVI/parseq/strhub/models/parseq/system.py:128:0
  %onnx::Slice_4345 : Long(1, strides=[1], device=cpu) = onnx::Constant[value={1}, onnx_name="Constant_2604"]() # /home/ashishpapanai/Desktop/MAVI/parseq/strhub/models/parseq/system.py:87:0
  %onnx::Slice_4346 : Long(1, strides=[1], device=cpu) = onnx::Constant[value={0}, onnx_name="Constant_2605"]() # /home/ashishpapanai/Desktop/MAVI/parseq/strhub/models/parseq/system.py:87:0
  %onnx::Slice_4347 : Long(1, strides=[1], device=cpu) = onnx::Constant[value={1}, onnx_name="Constant_2606"]() # /home/ashishpapanai/Desktop/MAVI/parseq/strhub/models/parseq/system.py:87:0
  %onnx::Slice_4348 : Long(1, strides=[1], device=cpu) = onnx::Constant[value={1}, onnx_name="Constant_2607"]() # /home/ashishpapanai/Desktop/MAVI/parseq/strhub/models/parseq/system.py:87:0
  %input.692 : Long(1, 1, strides=[26, 1], requires_grad=0, device=cpu) = onnx::Slice[onnx_name="Slice_2608"](%onnx::Slice_4339, %onnx::Slice_4346, %onnx::Slice_4347, %onnx::Slice_4345, %onnx::Slice_4348) # /home/ashishpapanai/Desktop/MAVI/parseq/strhub/models/parseq/system.py:87:0
  %onnx::Mul_4350 : Float(1, 1, 384, strides=[384, 384, 1], requires_grad=0, device=cpu) = onnx::Gather[onnx_name="Gather_2609"](%text_embed.embedding.weight, %input.692) # /home/ashishpapanai/miniconda3/envs/parseq/lib/python3.7/site-packages/torch/nn/functional.py:2199:0
  %onnx::Mul_4351 : Float(requires_grad=0, device=cpu) = onnx::Constant[value={19.5959}, onnx_name="Constant_2610"]()
  %onnx::Concat_4352 : Float(1, 1, 384, strides=[384, 384, 1], requires_grad=0, device=cpu) = onnx::Mul[onnx_name="Mul_2611"](%onnx::Mul_4350, %onnx::Mul_4351) # /home/ashishpapanai/Desktop/MAVI/parseq/strhub/models/parseq/modules.py:126:0
  %onnx::Slice_4358 : Long(1, strides=[1], device=cpu) = onnx::Constant[value={1}, onnx_name="Constant_2612"]() # /home/ashishpapanai/Desktop/MAVI/parseq/strhub/models/parseq/system.py:88:0
  %onnx::Slice_4359 : Long(1, strides=[1], device=cpu) = onnx::Constant[value={1}, onnx_name="Constant_2613"]() # /home/ashishpapanai/Desktop/MAVI/parseq/strhub/models/parseq/system.py:88:0
  %onnx::Slice_4360 : Long(1, strides=[1], device=cpu) = onnx::Constant[value={9223372036854775807}, onnx_name="Constant_2614"]() # /home/ashishpapanai/Desktop/MAVI/parseq/strhub/models/parseq/system.py:88:0
  %onnx::Slice_4361 : Long(1, strides=[1], device=cpu) = onnx::Constant[value={1}, onnx_name="Constant_2615"]() # /home/ashishpapanai/Desktop/MAVI/parseq/strhub/models/parseq/system.py:88:0
  %input.696 : Long(1, 9, strides=[26, 1], requires_grad=0, device=cpu) = onnx::Slice[onnx_name="Slice_2616"](%onnx::Slice_4339, %onnx::Slice_4359, %onnx::Slice_4360, %onnx::Slice_4358, %onnx::Slice_4361) # /home/ashishpapanai/Desktop/MAVI/parseq/strhub/models/parseq/system.py:88:0
  %onnx::Mul_4363 : Float(1, 9, 384, strides=[3456, 384, 1], requires_grad=0, device=cpu) = onnx::Gather[onnx_name="Gather_2617"](%text_embed.embedding.weight, %input.696) # /home/ashishpapanai/miniconda3/envs/parseq/lib/python3.7/site-packages/torch/nn/functional.py:2199:0
  %onnx::Mul_4364 : Float(requires_grad=0, device=cpu) = onnx::Constant[value={19.5959}, onnx_name="Constant_2618"]()
  %onnx::Add_4365 : Float(1, 9, 384, strides=[3456, 384, 1], requires_grad=0, device=cpu) = onnx::Mul[onnx_name="Mul_2619"](%onnx::Mul_4363, %onnx::Mul_4364) # /home/ashishpapanai/Desktop/MAVI/parseq/strhub/models/parseq/modules.py:126:0
  %onnx::Concat_4366 : Float(1, 9, 384, strides=[3456, 384, 1], requires_grad=0, device=cpu) = onnx::Add[onnx_name="Add_2620"](%onnx::Add_5498, %onnx::Add_4365) # /home/ashishpapanai/Desktop/MAVI/parseq/strhub/models/parseq/system.py:88:0
  %input.700 : Float(1, 10, 384, strides=[3840, 384, 1], requires_grad=0, device=cpu) = onnx::Concat[axis=1, onnx_name="Concat_2621"](%onnx::Concat_4352, %onnx::Concat_4366) # /home/ashishpapanai/Desktop/MAVI/parseq/strhub/models/parseq/system.py:89:0
  %onnx::Sub_4368 : Float(1, 1, 1, strides=[1, 1, 1], device=cpu) = onnx::ReduceMean[axes=[-1], onnx_name="ReduceMean_2622"](%input.688) # /home/ashishpapanai/miniconda3/envs/parseq/lib/python3.7/site-packages/torch/nn/functional.py:2503:0
  %onnx::Pow_4369 : Float(1, 1, 384, strides=[384, 384, 1], device=cpu) = onnx::Sub[onnx_name="Sub_2623"](%input.688, %onnx::Sub_4368) # /home/ashishpapanai/miniconda3/envs/parseq/lib/python3.7/site-packages/torch/nn/functional.py:2503:0
  %onnx::Pow_4370 : Float(requires_grad=0, device=cpu) = onnx::Constant[value={2}, onnx_name="Constant_2624"]() # /home/ashishpapanai/miniconda3/envs/parseq/lib/python3.7/site-packages/torch/nn/functional.py:2503:0
  %onnx::ReduceMean_4371 : Float(1, 1, 384, strides=[384, 384, 1], device=cpu) = onnx::Pow[onnx_name="Pow_2625"](%onnx::Pow_4369, %onnx::Pow_4370) # /home/ashishpapanai/miniconda3/envs/parseq/lib/python3.7/site-packages/torch/nn/functional.py:2503:0
  %onnx::Add_4372 : Float(1, 1, 1, strides=[1, 1, 1], device=cpu) = onnx::ReduceMean[axes=[-1], onnx_name="ReduceMean_2626"](%onnx::ReduceMean_4371) # /home/ashishpapanai/miniconda3/envs/parseq/lib/python3.7/site-packages/torch/nn/functional.py:2503:0
  %onnx::Add_4373 : Float(requires_grad=0, device=cpu) = onnx::Constant[value={1e-05}, onnx_name="Constant_2627"]() # /home/ashishpapanai/miniconda3/envs/parseq/lib/python3.7/site-packages/torch/nn/functional.py:2503:0
  %onnx::Sqrt_4374 : Float(1, 1, 1, strides=[1, 1, 1], device=cpu) = onnx::Add[onnx_name="Add_2628"](%onnx::Add_4372, %onnx::Add_4373) # /home/ashishpapanai/miniconda3/envs/parseq/lib/python3.7/site-packages/torch/nn/functional.py:2503:0
  %onnx::Div_4375 : Float(1, 1, 1, strides=[1, 1, 1], device=cpu) = onnx::Sqrt[onnx_name="Sqrt_2629"](%onnx::Sqrt_4374) # /home/ashishpapanai/miniconda3/envs/parseq/lib/python3.7/site-packages/torch/nn/functional.py:2503:0
  %onnx::Mul_4376 : Float(1, 1, 384, strides=[384, 384, 1], device=cpu) = onnx::Div[onnx_name="Div_2630"](%onnx::Pow_4369, %onnx::Div_4375) # /home/ashishpapanai/miniconda3/envs/parseq/lib/python3.7/site-packages/torch/nn/functional.py:2503:0
  %onnx::Add_4377 : Float(1, 1, 384, strides=[384, 384, 1], device=cpu) = onnx::Mul[onnx_name="Mul_2631"](%onnx::Mul_4376, %decoder.layers.0.norm_q.weight) # /home/ashishpapanai/miniconda3/envs/parseq/lib/python3.7/site-packages/torch/nn/functional.py:2503:0
  %query.143 : Float(1, 1, 384, strides=[384, 384, 1], requires_grad=0, device=cpu) = onnx::Add[onnx_name="Add_2632"](%onnx::Add_4377, %decoder.layers.0.norm_q.bias) # /home/ashishpapanai/miniconda3/envs/parseq/lib/python3.7/site-packages/torch/nn/functional.py:2503:0
  %onnx::Sub_4379 : Float(1, 10, 1, strides=[10, 1, 1], device=cpu) = onnx::ReduceMean[axes=[-1], onnx_name="ReduceMean_2633"](%input.700) # /home/ashishpapanai/miniconda3/envs/parseq/lib/python3.7/site-packages/torch/nn/functional.py:2503:0
  %onnx::Pow_4380 : Float(1, 10, 384, strides=[3840, 384, 1], device=cpu) = onnx::Sub[onnx_name="Sub_2634"](%input.700, %onnx::Sub_4379) # /home/ashishpapanai/miniconda3/envs/parseq/lib/python3.7/site-packages/torch/nn/functional.py:2503:0
  %onnx::Pow_4381 : Float(requires_grad=0, device=cpu) = onnx::Constant[value={2}, onnx_name="Constant_2635"]() # /home/ashishpapanai/miniconda3/envs/parseq/lib/python3.7/site-packages/torch/nn/functional.py:2503:0
  %onnx::ReduceMean_4382 : Float(1, 10, 384, strides=[3840, 384, 1], device=cpu) = onnx::Pow[onnx_name="Pow_2636"](%onnx::Pow_4380, %onnx::Pow_4381) # /home/ashishpapanai/miniconda3/envs/parseq/lib/python3.7/site-packages/torch/nn/functional.py:2503:0
  %onnx::Add_4383 : Float(1, 10, 1, strides=[10, 1, 1], device=cpu) = onnx::ReduceMean[axes=[-1], onnx_name="ReduceMean_2637"](%onnx::ReduceMean_4382) # /home/ashishpapanai/miniconda3/envs/parseq/lib/python3.7/site-packages/torch/nn/functional.py:2503:0
  %onnx::Add_4384 : Float(requires_grad=0, device=cpu) = onnx::Constant[value={1e-05}, onnx_name="Constant_2638"]() # /home/ashishpapanai/miniconda3/envs/parseq/lib/python3.7/site-packages/torch/nn/functional.py:2503:0
  %onnx::Sqrt_4385 : Float(1, 10, 1, strides=[10, 1, 1], device=cpu) = onnx::Add[onnx_name="Add_2639"](%onnx::Add_4383, %onnx::Add_4384) # /home/ashishpapanai/miniconda3/envs/parseq/lib/python3.7/site-packages/torch/nn/functional.py:2503:0
  %onnx::Div_4386 : Float(1, 10, 1, strides=[10, 1, 1], device=cpu) = onnx::Sqrt[onnx_name="Sqrt_2640"](%onnx::Sqrt_4385) # /home/ashishpapanai/miniconda3/envs/parseq/lib/python3.7/site-packages/torch/nn/functional.py:2503:0
  %onnx::Mul_4387 : Float(1, 10, 384, strides=[3840, 384, 1], device=cpu) = onnx::Div[onnx_name="Div_2641"](%onnx::Pow_4380, %onnx::Div_4386) # /home/ashishpapanai/miniconda3/envs/parseq/lib/python3.7/site-packages/torch/nn/functional.py:2503:0
  %onnx::Add_4388 : Float(1, 10, 384, strides=[3840, 384, 1], device=cpu) = onnx::Mul[onnx_name="Mul_2642"](%onnx::Mul_4387, %decoder.layers.0.norm_c.weight) # /home/ashishpapanai/miniconda3/envs/parseq/lib/python3.7/site-packages/torch/nn/functional.py:2503:0
  %key.111 : Float(1, 10, 384, strides=[3840, 384, 1], requires_grad=0, device=cpu) = onnx::Add[onnx_name="Add_2643"](%onnx::Add_4388, %decoder.layers.0.norm_c.bias) # /home/ashishpapanai/miniconda3/envs/parseq/lib/python3.7/site-packages/torch/nn/functional.py:2503:0
  %query.147 : Float(1, 1, 384, strides=[384, 384, 1], requires_grad=0, device=cpu) = onnx::Transpose[perm=[1, 0, 2], onnx_name="Transpose_2644"](%query.143) # /home/ashishpapanai/miniconda3/envs/parseq/lib/python3.7/site-packages/torch/nn/modules/activation.py:1136:0
  %key.115 : Float(10, 1, 384, strides=[384, 3840, 1], requires_grad=0, device=cpu) = onnx::Transpose[perm=[1, 0, 2], onnx_name="Transpose_2645"](%key.111) # /home/ashishpapanai/miniconda3/envs/parseq/lib/python3.7/site-packages/torch/nn/modules/activation.py:1136:0
  %onnx::Add_4422 : Float(1, 1, 384, strides=[384, 384, 1], device=cpu) = onnx::MatMul[onnx_name="MatMul_2646"](%query.147, %onnx::MatMul_5511) # /home/ashishpapanai/miniconda3/envs/parseq/lib/python3.7/site-packages/torch/nn/functional.py:4753:0
  %onnx::Reshape_4423 : Float(1, 1, 384, strides=[384, 384, 1], requires_grad=0, device=cpu) = onnx::Add[onnx_name="Add_2647"](%onnx::Add_5508, %onnx::Add_4422) # /home/ashishpapanai/miniconda3/envs/parseq/lib/python3.7/site-packages/torch/nn/functional.py:4753:0
  %onnx::Add_4425 : Float(10, 1, 768, strides=[768, 768, 1], device=cpu) = onnx::MatMul[onnx_name="MatMul_2648"](%key.115, %onnx::MatMul_5512) # /home/ashishpapanai/miniconda3/envs/parseq/lib/python3.7/site-packages/torch/nn/functional.py:4753:0
  %onnx::Shape_4426 : Float(10, 1, 768, strides=[768, 768, 1], requires_grad=0, device=cpu) = onnx::Add[onnx_name="Add_2649"](%onnx::Add_5510, %onnx::Add_4425) # /home/ashishpapanai/miniconda3/envs/parseq/lib/python3.7/site-packages/torch/nn/functional.py:4753:0
  %onnx::Gather_4427 : Long(3, strides=[1], device=cpu) = onnx::Shape[onnx_name="Shape_2650"](%onnx::Shape_4426) # /home/ashishpapanai/miniconda3/envs/parseq/lib/python3.7/site-packages/torch/nn/functional.py:4753:0
  %onnx::Gather_4428 : Long(1, strides=[1], device=cpu) = onnx::Constant[value={-1}, onnx_name="Constant_2651"]() # /home/ashishpapanai/miniconda3/envs/parseq/lib/python3.7/site-packages/torch/nn/functional.py:4753:0
  %onnx::Add_4429 : Long(1, strides=[1], device=cpu) = onnx::Gather[axis=0, onnx_name="Gather_2652"](%onnx::Gather_4427, %onnx::Gather_4428) # /home/ashishpapanai/miniconda3/envs/parseq/lib/python3.7/site-packages/torch/nn/functional.py:4753:0
  %onnx::Slice_4430 : Long(1, strides=[1], device=cpu) = onnx::Constant[value={0}, onnx_name="Constant_2653"]() # /home/ashishpapanai/miniconda3/envs/parseq/lib/python3.7/site-packages/torch/nn/functional.py:4753:0
  %onnx::Add_4431 : Long(1, strides=[1], requires_grad=0, device=cpu) = onnx::Constant[value={1}, onnx_name="Constant_2654"]() # /home/ashishpapanai/miniconda3/envs/parseq/lib/python3.7/site-packages/torch/nn/functional.py:4753:0
  %onnx::Div_4432 : Long(1, strides=[1], device=cpu) = onnx::Add[onnx_name="Add_2655"](%onnx::Add_4429, %onnx::Add_4431) # /home/ashishpapanai/miniconda3/envs/parseq/lib/python3.7/site-packages/torch/nn/functional.py:4753:0
  %onnx::Div_4433 : Long(1, strides=[1], requires_grad=0, device=cpu) = onnx::Constant[value={2}, onnx_name="Constant_2656"]() # /home/ashishpapanai/miniconda3/envs/parseq/lib/python3.7/site-packages/torch/nn/functional.py:4753:0
  %onnx::Mul_4434 : Long(1, strides=[1], device=cpu) = onnx::Div[onnx_name="Div_2657"](%onnx::Div_4432, %onnx::Div_4433) # /home/ashishpapanai/miniconda3/envs/parseq/lib/python3.7/site-packages/torch/nn/functional.py:4753:0
  %onnx::Mul_4435 : Long(1, strides=[1], requires_grad=0, device=cpu) = onnx::Constant[value={1}, onnx_name="Constant_2658"]() # /home/ashishpapanai/miniconda3/envs/parseq/lib/python3.7/site-packages/torch/nn/functional.py:4753:0
  %onnx::Slice_4436 : Long(1, strides=[1], device=cpu) = onnx::Mul[onnx_name="Mul_2659"](%onnx::Mul_4434, %onnx::Mul_4435) # /home/ashishpapanai/miniconda3/envs/parseq/lib/python3.7/site-packages/torch/nn/functional.py:4753:0
  %onnx::Reshape_4437 : Float(10, 1, 384, strides=[384, 384, 1], requires_grad=0, device=cpu) = onnx::Slice[onnx_name="Slice_2660"](%onnx::Shape_4426, %onnx::Slice_4430, %onnx::Slice_4436, %onnx::Gather_4428) # /home/ashishpapanai/miniconda3/envs/parseq/lib/python3.7/site-packages/torch/nn/functional.py:4753:0
  %onnx::Mul_4438 : Long(1, strides=[1], requires_grad=0, device=cpu) = onnx::Constant[value={2}, onnx_name="Constant_2661"]() # /home/ashishpapanai/miniconda3/envs/parseq/lib/python3.7/site-packages/torch/nn/functional.py:4753:0
  %onnx::Slice_4439 : Long(1, strides=[1], device=cpu) = onnx::Mul[onnx_name="Mul_2662"](%onnx::Mul_4434, %onnx::Mul_4438) # /home/ashishpapanai/miniconda3/envs/parseq/lib/python3.7/site-packages/torch/nn/functional.py:4753:0
  %onnx::Reshape_4440 : Float(10, 1, 384, strides=[384, 384, 1], requires_grad=0, device=cpu) = onnx::Slice[onnx_name="Slice_2663"](%onnx::Shape_4426, %onnx::Slice_4436, %onnx::Slice_4439, %onnx::Gather_4428) # /home/ashishpapanai/miniconda3/envs/parseq/lib/python3.7/site-packages/torch/nn/functional.py:4753:0
  %onnx::Transpose_4449 : Float(1, 12, 32, strides=[384, 32, 1], requires_grad=0, device=cpu) = onnx::Reshape[allowzero=0, onnx_name="Reshape_2664"](%onnx::Reshape_4423, %onnx::Reshape_5516) # /home/ashishpapanai/miniconda3/envs/parseq/lib/python3.7/site-packages/torch/nn/functional.py:5120:0
  %q.71 : Float(12, 1, 32, strides=[32, 384, 1], requires_grad=0, device=cpu) = onnx::Transpose[perm=[1, 0, 2], onnx_name="Transpose_2665"](%onnx::Transpose_4449) # /home/ashishpapanai/miniconda3/envs/parseq/lib/python3.7/site-packages/torch/nn/functional.py:5120:0
  %onnx::Transpose_4460 : Float(10, 12, 32, strides=[384, 32, 1], requires_grad=0, device=cpu) = onnx::Reshape[allowzero=0, onnx_name="Reshape_2666"](%onnx::Reshape_4437, %onnx::Reshape_5520) # /home/ashishpapanai/miniconda3/envs/parseq/lib/python3.7/site-packages/torch/nn/functional.py:5122:0
  %onnx::Transpose_4470 : Float(10, 12, 32, strides=[384, 32, 1], requires_grad=0, device=cpu) = onnx::Reshape[allowzero=0, onnx_name="Reshape_2667"](%onnx::Reshape_4440, %onnx::Reshape_5524) # /home/ashishpapanai/miniconda3/envs/parseq/lib/python3.7/site-packages/torch/nn/functional.py:5131:0
  %v.71 : Float(12, 10, 32, strides=[32, 384, 1], requires_grad=0, device=cpu) = onnx::Transpose[perm=[1, 0, 2], onnx_name="Transpose_2668"](%onnx::Transpose_4470) # /home/ashishpapanai/miniconda3/envs/parseq/lib/python3.7/site-packages/torch/nn/functional.py:5131:0
  %onnx::Div_4472 : Float(requires_grad=0, device=cpu) = onnx::Constant[value={5.65685}, onnx_name="Constant_2669"]()
  %onnx::MatMul_4473 : Float(12, 1, 32, strides=[32, 384, 1], requires_grad=0, device=cpu) = onnx::Div[onnx_name="Div_2670"](%q.71, %onnx::Div_4472) # /home/ashishpapanai/miniconda3/envs/parseq/lib/python3.7/site-packages/torch/nn/functional.py:4849:0
  %onnx::MatMul_4474 : Float(12, 32, 10, strides=[32, 1, 384], requires_grad=0, device=cpu) = onnx::Transpose[perm=[1, 2, 0], onnx_name="Transpose_2671"](%onnx::Transpose_4460) # /home/ashishpapanai/miniconda3/envs/parseq/lib/python3.7/site-packages/torch/nn/functional.py:4852:0
  %onnx::Mul_4477 : Float(12, 1, 10, strides=[10, 10, 1], device=cpu) = onnx::MatMul[onnx_name="MatMul_2672"](%onnx::MatMul_4473, %onnx::MatMul_4474) # /home/ashishpapanai/miniconda3/envs/parseq/lib/python3.7/site-packages/torch/nn/functional.py:4852:0
  %onnx::Add_4479 : Float(12, 1, 10, strides=[10, 10, 1], device=cpu) = onnx::Mul[onnx_name="Mul_2673"](%onnx::Mul_4477, %onnx::Mul_5525) # /home/ashishpapanai/miniconda3/envs/parseq/lib/python3.7/site-packages/torch/nn/functional.py:4852:0
  %attn.71 : Float(12, 1, 10, strides=[10, 10, 1], requires_grad=0, device=cpu) = onnx::Add[onnx_name="Add_2674"](%onnx::Add_4479, %onnx::Add_5527) # /home/ashishpapanai/miniconda3/envs/parseq/lib/python3.7/site-packages/torch/nn/functional.py:4852:0
  %onnx::MatMul_4484 : Float(12, 1, 10, strides=[10, 10, 1], requires_grad=0, device=cpu) = onnx::Softmax[axis=-1, onnx_name="Softmax_2675"](%attn.71) # /home/ashishpapanai/miniconda3/envs/parseq/lib/python3.7/site-packages/torch/nn/functional.py:1834:0
  %onnx::Transpose_4485 : Float(12, 1, 32, strides=[32, 32, 1], requires_grad=0, device=cpu) = onnx::MatMul[onnx_name="MatMul_2676"](%onnx::MatMul_4484, %v.71) # /home/ashishpapanai/miniconda3/envs/parseq/lib/python3.7/site-packages/torch/nn/functional.py:4860:0
  %onnx::Reshape_4486 : Float(1, 12, 32, strides=[32, 32, 1], requires_grad=0, device=cpu) = onnx::Transpose[perm=[1, 0, 2], onnx_name="Transpose_2677"](%onnx::Transpose_4485) # /home/ashishpapanai/miniconda3/envs/parseq/lib/python3.7/site-packages/torch/nn/functional.py:5180:0
  %onnx::Gemm_4493 : Float(1, 384, strides=[384, 1], requires_grad=0, device=cpu) = onnx::Reshape[allowzero=0, onnx_name="Reshape_2678"](%onnx::Reshape_4486, %onnx::Reshape_5530) # /home/ashishpapanai/miniconda3/envs/parseq/lib/python3.7/site-packages/torch/nn/functional.py:5180:0
  %onnx::Reshape_4494 : Float(1, 384, strides=[384, 1], requires_grad=0, device=cpu) = onnx::Gemm[alpha=1., beta=1., transB=1, onnx_name="Gemm_2679"](%onnx::Gemm_4493, %decoder.layers.0.self_attn.out_proj.weight, %decoder.layers.0.self_attn.out_proj.bias) # /home/ashishpapanai/miniconda3/envs/parseq/lib/python3.7/site-packages/torch/nn/functional.py:5181:0
  %onnx::Transpose_4503 : Float(1, 1, 384, strides=[384, 384, 1], requires_grad=0, device=cpu) = onnx::Reshape[allowzero=0, onnx_name="Reshape_2680"](%onnx::Reshape_4494, %onnx::Reshape_5534) # /home/ashishpapanai/miniconda3/envs/parseq/lib/python3.7/site-packages/torch/nn/functional.py:5182:0
  %input.704 : Float(1, 1, 384, strides=[384, 384, 1], requires_grad=0, device=cpu) = onnx::Transpose[perm=[1, 0, 2], onnx_name="Transpose_2681"](%onnx::Transpose_4503) # /home/ashishpapanai/miniconda3/envs/parseq/lib/python3.7/site-packages/torch/nn/modules/activation.py:1162:0
  %input.708 : Float(1, 1, 384, strides=[384, 384, 1], requires_grad=0, device=cpu) = onnx::Add[onnx_name="Add_2682"](%input.688, %input.704) # /home/ashishpapanai/Desktop/MAVI/parseq/strhub/models/parseq/modules.py:65:0
  %onnx::Sub_4506 : Float(1, 1, 1, strides=[1, 1, 1], device=cpu) = onnx::ReduceMean[axes=[-1], onnx_name="ReduceMean_2683"](%input.708) # /home/ashishpapanai/miniconda3/envs/parseq/lib/python3.7/site-packages/torch/nn/functional.py:2503:0
  %onnx::Pow_4507 : Float(1, 1, 384, strides=[384, 384, 1], device=cpu) = onnx::Sub[onnx_name="Sub_2684"](%input.708, %onnx::Sub_4506) # /home/ashishpapanai/miniconda3/envs/parseq/lib/python3.7/site-packages/torch/nn/functional.py:2503:0
  %onnx::Pow_4508 : Float(requires_grad=0, device=cpu) = onnx::Constant[value={2}, onnx_name="Constant_2685"]() # /home/ashishpapanai/miniconda3/envs/parseq/lib/python3.7/site-packages/torch/nn/functional.py:2503:0
  %onnx::ReduceMean_4509 : Float(1, 1, 384, strides=[384, 384, 1], device=cpu) = onnx::Pow[onnx_name="Pow_2686"](%onnx::Pow_4507, %onnx::Pow_4508) # /home/ashishpapanai/miniconda3/envs/parseq/lib/python3.7/site-packages/torch/nn/functional.py:2503:0
  %onnx::Add_4510 : Float(1, 1, 1, strides=[1, 1, 1], device=cpu) = onnx::ReduceMean[axes=[-1], onnx_name="ReduceMean_2687"](%onnx::ReduceMean_4509) # /home/ashishpapanai/miniconda3/envs/parseq/lib/python3.7/site-packages/torch/nn/functional.py:2503:0
  %onnx::Add_4511 : Float(requires_grad=0, device=cpu) = onnx::Constant[value={1e-05}, onnx_name="Constant_2688"]() # /home/ashishpapanai/miniconda3/envs/parseq/lib/python3.7/site-packages/torch/nn/functional.py:2503:0
  %onnx::Sqrt_4512 : Float(1, 1, 1, strides=[1, 1, 1], device=cpu) = onnx::Add[onnx_name="Add_2689"](%onnx::Add_4510, %onnx::Add_4511) # /home/ashishpapanai/miniconda3/envs/parseq/lib/python3.7/site-packages/torch/nn/functional.py:2503:0
  %onnx::Div_4513 : Float(1, 1, 1, strides=[1, 1, 1], device=cpu) = onnx::Sqrt[onnx_name="Sqrt_2690"](%onnx::Sqrt_4512) # /home/ashishpapanai/miniconda3/envs/parseq/lib/python3.7/site-packages/torch/nn/functional.py:2503:0
  %onnx::Mul_4514 : Float(1, 1, 384, strides=[384, 384, 1], device=cpu) = onnx::Div[onnx_name="Div_2691"](%onnx::Pow_4507, %onnx::Div_4513) # /home/ashishpapanai/miniconda3/envs/parseq/lib/python3.7/site-packages/torch/nn/functional.py:2503:0
  %onnx::Add_4515 : Float(1, 1, 384, strides=[384, 384, 1], device=cpu) = onnx::Mul[onnx_name="Mul_2692"](%onnx::Mul_4514, %decoder.layers.0.norm1.weight) # /home/ashishpapanai/miniconda3/envs/parseq/lib/python3.7/site-packages/torch/nn/functional.py:2503:0
  %query.151 : Float(1, 1, 384, strides=[384, 384, 1], requires_grad=0, device=cpu) = onnx::Add[onnx_name="Add_2693"](%onnx::Add_4515, %decoder.layers.0.norm1.bias) # /home/ashishpapanai/miniconda3/envs/parseq/lib/python3.7/site-packages/torch/nn/functional.py:2503:0
  %query.155 : Float(1, 1, 384, strides=[384, 384, 1], requires_grad=0, device=cpu) = onnx::Transpose[perm=[1, 0, 2], onnx_name="Transpose_2694"](%query.151) # /home/ashishpapanai/miniconda3/envs/parseq/lib/python3.7/site-packages/torch/nn/modules/activation.py:1136:0
  %key.119 : Float(128, 1, 384, strides=[384, 49152, 1], requires_grad=0, device=cpu) = onnx::Transpose[perm=[1, 0, 2], onnx_name="Transpose_2695"](%key) # /home/ashishpapanai/miniconda3/envs/parseq/lib/python3.7/site-packages/torch/nn/modules/activation.py:1136:0
  %onnx::Add_4549 : Float(1, 1, 384, strides=[384, 384, 1], device=cpu) = onnx::MatMul[onnx_name="MatMul_2696"](%query.155, %onnx::MatMul_5547) # /home/ashishpapanai/miniconda3/envs/parseq/lib/python3.7/site-packages/torch/nn/functional.py:4753:0
  %onnx::Reshape_4550 : Float(1, 1, 384, strides=[384, 384, 1], requires_grad=0, device=cpu) = onnx::Add[onnx_name="Add_2697"](%onnx::Add_5544, %onnx::Add_4549) # /home/ashishpapanai/miniconda3/envs/parseq/lib/python3.7/site-packages/torch/nn/functional.py:4753:0
  %onnx::Add_4552 : Float(128, 1, 768, strides=[768, 768, 1], device=cpu) = onnx::MatMul[onnx_name="MatMul_2698"](%key.119, %onnx::MatMul_5548) # /home/ashishpapanai/miniconda3/envs/parseq/lib/python3.7/site-packages/torch/nn/functional.py:4753:0
  %onnx::Shape_4553 : Float(128, 1, 768, strides=[768, 768, 1], requires_grad=0, device=cpu) = onnx::Add[onnx_name="Add_2699"](%onnx::Add_5546, %onnx::Add_4552) # /home/ashishpapanai/miniconda3/envs/parseq/lib/python3.7/site-packages/torch/nn/functional.py:4753:0
  %onnx::Gather_4554 : Long(3, strides=[1], device=cpu) = onnx::Shape[onnx_name="Shape_2700"](%onnx::Shape_4553) # /home/ashishpapanai/miniconda3/envs/parseq/lib/python3.7/site-packages/torch/nn/functional.py:4753:0
  %onnx::Gather_4555 : Long(1, strides=[1], device=cpu) = onnx::Constant[value={-1}, onnx_name="Constant_2701"]() # /home/ashishpapanai/miniconda3/envs/parseq/lib/python3.7/site-packages/torch/nn/functional.py:4753:0
  %onnx::Add_4556 : Long(1, strides=[1], device=cpu) = onnx::Gather[axis=0, onnx_name="Gather_2702"](%onnx::Gather_4554, %onnx::Gather_4555) # /home/ashishpapanai/miniconda3/envs/parseq/lib/python3.7/site-packages/torch/nn/functional.py:4753:0
  %onnx::Slice_4557 : Long(1, strides=[1], device=cpu) = onnx::Constant[value={0}, onnx_name="Constant_2703"]() # /home/ashishpapanai/miniconda3/envs/parseq/lib/python3.7/site-packages/torch/nn/functional.py:4753:0
  %onnx::Add_4558 : Long(1, strides=[1], requires_grad=0, device=cpu) = onnx::Constant[value={1}, onnx_name="Constant_2704"]() # /home/ashishpapanai/miniconda3/envs/parseq/lib/python3.7/site-packages/torch/nn/functional.py:4753:0
  %onnx::Div_4559 : Long(1, strides=[1], device=cpu) = onnx::Add[onnx_name="Add_2705"](%onnx::Add_4556, %onnx::Add_4558) # /home/ashishpapanai/miniconda3/envs/parseq/lib/python3.7/site-packages/torch/nn/functional.py:4753:0
  %onnx::Div_4560 : Long(1, strides=[1], requires_grad=0, device=cpu) = onnx::Constant[value={2}, onnx_name="Constant_2706"]() # /home/ashishpapanai/miniconda3/envs/parseq/lib/python3.7/site-packages/torch/nn/functional.py:4753:0
  %onnx::Mul_4561 : Long(1, strides=[1], device=cpu) = onnx::Div[onnx_name="Div_2707"](%onnx::Div_4559, %onnx::Div_4560) # /home/ashishpapanai/miniconda3/envs/parseq/lib/python3.7/site-packages/torch/nn/functional.py:4753:0
  %onnx::Mul_4562 : Long(1, strides=[1], requires_grad=0, device=cpu) = onnx::Constant[value={1}, onnx_name="Constant_2708"]() # /home/ashishpapanai/miniconda3/envs/parseq/lib/python3.7/site-packages/torch/nn/functional.py:4753:0
  %onnx::Slice_4563 : Long(1, strides=[1], device=cpu) = onnx::Mul[onnx_name="Mul_2709"](%onnx::Mul_4561, %onnx::Mul_4562) # /home/ashishpapanai/miniconda3/envs/parseq/lib/python3.7/site-packages/torch/nn/functional.py:4753:0
  %onnx::Reshape_4564 : Float(128, 1, 384, strides=[384, 384, 1], requires_grad=0, device=cpu) = onnx::Slice[onnx_name="Slice_2710"](%onnx::Shape_4553, %onnx::Slice_4557, %onnx::Slice_4563, %onnx::Gather_4555) # /home/ashishpapanai/miniconda3/envs/parseq/lib/python3.7/site-packages/torch/nn/functional.py:4753:0
  %onnx::Mul_4565 : Long(1, strides=[1], requires_grad=0, device=cpu) = onnx::Constant[value={2}, onnx_name="Constant_2711"]() # /home/ashishpapanai/miniconda3/envs/parseq/lib/python3.7/site-packages/torch/nn/functional.py:4753:0
  %onnx::Slice_4566 : Long(1, strides=[1], device=cpu) = onnx::Mul[onnx_name="Mul_2712"](%onnx::Mul_4561, %onnx::Mul_4565) # /home/ashishpapanai/miniconda3/envs/parseq/lib/python3.7/site-packages/torch/nn/functional.py:4753:0
  %onnx::Reshape_4567 : Float(128, 1, 384, strides=[384, 384, 1], requires_grad=0, device=cpu) = onnx::Slice[onnx_name="Slice_2713"](%onnx::Shape_4553, %onnx::Slice_4563, %onnx::Slice_4566, %onnx::Gather_4555) # /home/ashishpapanai/miniconda3/envs/parseq/lib/python3.7/site-packages/torch/nn/functional.py:4753:0
  %onnx::Transpose_4576 : Float(1, 12, 32, strides=[384, 32, 1], requires_grad=0, device=cpu) = onnx::Reshape[allowzero=0, onnx_name="Reshape_2714"](%onnx::Reshape_4550, %onnx::Reshape_5552) # /home/ashishpapanai/miniconda3/envs/parseq/lib/python3.7/site-packages/torch/nn/functional.py:5120:0
  %q.75 : Float(12, 1, 32, strides=[32, 384, 1], requires_grad=0, device=cpu) = onnx::Transpose[perm=[1, 0, 2], onnx_name="Transpose_2715"](%onnx::Transpose_4576) # /home/ashishpapanai/miniconda3/envs/parseq/lib/python3.7/site-packages/torch/nn/functional.py:5120:0
  %onnx::Transpose_4587 : Float(128, 12, 32, strides=[384, 32, 1], requires_grad=0, device=cpu) = onnx::Reshape[allowzero=0, onnx_name="Reshape_2716"](%onnx::Reshape_4564, %onnx::Reshape_5556) # /home/ashishpapanai/miniconda3/envs/parseq/lib/python3.7/site-packages/torch/nn/functional.py:5122:0
  %onnx::Transpose_4597 : Float(128, 12, 32, strides=[384, 32, 1], requires_grad=0, device=cpu) = onnx::Reshape[allowzero=0, onnx_name="Reshape_2717"](%onnx::Reshape_4567, %onnx::Reshape_5560) # /home/ashishpapanai/miniconda3/envs/parseq/lib/python3.7/site-packages/torch/nn/functional.py:5131:0
  %v.75 : Float(12, 128, 32, strides=[32, 384, 1], requires_grad=0, device=cpu) = onnx::Transpose[perm=[1, 0, 2], onnx_name="Transpose_2718"](%onnx::Transpose_4597) # /home/ashishpapanai/miniconda3/envs/parseq/lib/python3.7/site-packages/torch/nn/functional.py:5131:0
  %onnx::Div_4599 : Float(requires_grad=0, device=cpu) = onnx::Constant[value={5.65685}, onnx_name="Constant_2719"]()
  %onnx::MatMul_4600 : Float(12, 1, 32, strides=[32, 384, 1], requires_grad=0, device=cpu) = onnx::Div[onnx_name="Div_2720"](%q.75, %onnx::Div_4599) # /home/ashishpapanai/miniconda3/envs/parseq/lib/python3.7/site-packages/torch/nn/functional.py:4849:0
  %onnx::MatMul_4601 : Float(12, 32, 128, strides=[32, 1, 384], requires_grad=0, device=cpu) = onnx::Transpose[perm=[1, 2, 0], onnx_name="Transpose_2721"](%onnx::Transpose_4587) # /home/ashishpapanai/miniconda3/envs/parseq/lib/python3.7/site-packages/torch/nn/functional.py:4854:0
  %attn.75 : Float(12, 1, 128, strides=[128, 128, 1], requires_grad=0, device=cpu) = onnx::MatMul[onnx_name="MatMul_2722"](%onnx::MatMul_4600, %onnx::MatMul_4601) # /home/ashishpapanai/miniconda3/envs/parseq/lib/python3.7/site-packages/torch/nn/functional.py:4854:0
  %onnx::MatMul_4603 : Float(12, 1, 128, strides=[128, 128, 1], requires_grad=0, device=cpu) = onnx::Softmax[axis=-1, onnx_name="Softmax_2723"](%attn.75) # /home/ashishpapanai/miniconda3/envs/parseq/lib/python3.7/site-packages/torch/nn/functional.py:1834:0
  %onnx::Transpose_4604 : Float(12, 1, 32, strides=[32, 32, 1], requires_grad=0, device=cpu) = onnx::MatMul[onnx_name="MatMul_2724"](%onnx::MatMul_4603, %v.75) # /home/ashishpapanai/miniconda3/envs/parseq/lib/python3.7/site-packages/torch/nn/functional.py:4860:0
  %onnx::Reshape_4605 : Float(1, 12, 32, strides=[32, 32, 1], requires_grad=0, device=cpu) = onnx::Transpose[perm=[1, 0, 2], onnx_name="Transpose_2725"](%onnx::Transpose_4604) # /home/ashishpapanai/miniconda3/envs/parseq/lib/python3.7/site-packages/torch/nn/functional.py:5180:0
  %onnx::Gemm_4612 : Float(1, 384, strides=[384, 1], requires_grad=0, device=cpu) = onnx::Reshape[allowzero=0, onnx_name="Reshape_2726"](%onnx::Reshape_4605, %onnx::Reshape_5563) # /home/ashishpapanai/miniconda3/envs/parseq/lib/python3.7/site-packages/torch/nn/functional.py:5180:0
  %onnx::Reshape_4613 : Float(1, 384, strides=[384, 1], requires_grad=0, device=cpu) = onnx::Gemm[alpha=1., beta=1., transB=1, onnx_name="Gemm_2727"](%onnx::Gemm_4612, %decoder.layers.0.cross_attn.out_proj.weight, %decoder.layers.0.cross_attn.out_proj.bias) # /home/ashishpapanai/miniconda3/envs/parseq/lib/python3.7/site-packages/torch/nn/functional.py:5181:0
  %onnx::Transpose_4622 : Float(1, 1, 384, strides=[384, 384, 1], requires_grad=0, device=cpu) = onnx::Reshape[allowzero=0, onnx_name="Reshape_2728"](%onnx::Reshape_4613, %onnx::Reshape_5567) # /home/ashishpapanai/miniconda3/envs/parseq/lib/python3.7/site-packages/torch/nn/functional.py:5182:0
  %input.712 : Float(1, 1, 384, strides=[384, 384, 1], requires_grad=0, device=cpu) = onnx::Transpose[perm=[1, 0, 2], onnx_name="Transpose_2729"](%onnx::Transpose_4622) # /home/ashishpapanai/miniconda3/envs/parseq/lib/python3.7/site-packages/torch/nn/modules/activation.py:1162:0
  %input.716 : Float(1, 1, 384, strides=[384, 384, 1], requires_grad=0, device=cpu) = onnx::Add[onnx_name="Add_2730"](%input.708, %input.712) # /home/ashishpapanai/Desktop/MAVI/parseq/strhub/models/parseq/modules.py:68:0
  %onnx::Sub_4625 : Float(1, 1, 1, strides=[1, 1, 1], device=cpu) = onnx::ReduceMean[axes=[-1], onnx_name="ReduceMean_2731"](%input.716) # /home/ashishpapanai/miniconda3/envs/parseq/lib/python3.7/site-packages/torch/nn/functional.py:2503:0
  %onnx::Pow_4626 : Float(1, 1, 384, strides=[384, 384, 1], device=cpu) = onnx::Sub[onnx_name="Sub_2732"](%input.716, %onnx::Sub_4625) # /home/ashishpapanai/miniconda3/envs/parseq/lib/python3.7/site-packages/torch/nn/functional.py:2503:0
  %onnx::Pow_4627 : Float(requires_grad=0, device=cpu) = onnx::Constant[value={2}, onnx_name="Constant_2733"]() # /home/ashishpapanai/miniconda3/envs/parseq/lib/python3.7/site-packages/torch/nn/functional.py:2503:0
  %onnx::ReduceMean_4628 : Float(1, 1, 384, strides=[384, 384, 1], device=cpu) = onnx::Pow[onnx_name="Pow_2734"](%onnx::Pow_4626, %onnx::Pow_4627) # /home/ashishpapanai/miniconda3/envs/parseq/lib/python3.7/site-packages/torch/nn/functional.py:2503:0
  %onnx::Add_4629 : Float(1, 1, 1, strides=[1, 1, 1], device=cpu) = onnx::ReduceMean[axes=[-1], onnx_name="ReduceMean_2735"](%onnx::ReduceMean_4628) # /home/ashishpapanai/miniconda3/envs/parseq/lib/python3.7/site-packages/torch/nn/functional.py:2503:0
  %onnx::Add_4630 : Float(requires_grad=0, device=cpu) = onnx::Constant[value={1e-05}, onnx_name="Constant_2736"]() # /home/ashishpapanai/miniconda3/envs/parseq/lib/python3.7/site-packages/torch/nn/functional.py:2503:0
  %onnx::Sqrt_4631 : Float(1, 1, 1, strides=[1, 1, 1], device=cpu) = onnx::Add[onnx_name="Add_2737"](%onnx::Add_4629, %onnx::Add_4630) # /home/ashishpapanai/miniconda3/envs/parseq/lib/python3.7/site-packages/torch/nn/functional.py:2503:0
  %onnx::Div_4632 : Float(1, 1, 1, strides=[1, 1, 1], device=cpu) = onnx::Sqrt[onnx_name="Sqrt_2738"](%onnx::Sqrt_4631) # /home/ashishpapanai/miniconda3/envs/parseq/lib/python3.7/site-packages/torch/nn/functional.py:2503:0
  %onnx::Mul_4633 : Float(1, 1, 384, strides=[384, 384, 1], device=cpu) = onnx::Div[onnx_name="Div_2739"](%onnx::Pow_4626, %onnx::Div_4632) # /home/ashishpapanai/miniconda3/envs/parseq/lib/python3.7/site-packages/torch/nn/functional.py:2503:0
  %onnx::Add_4634 : Float(1, 1, 384, strides=[384, 384, 1], device=cpu) = onnx::Mul[onnx_name="Mul_2740"](%onnx::Mul_4633, %decoder.layers.0.norm2.weight) # /home/ashishpapanai/miniconda3/envs/parseq/lib/python3.7/site-packages/torch/nn/functional.py:2503:0
  %onnx::MatMul_4635 : Float(1, 1, 384, strides=[384, 384, 1], requires_grad=0, device=cpu) = onnx::Add[onnx_name="Add_2741"](%onnx::Add_4634, %decoder.layers.0.norm2.bias) # /home/ashishpapanai/miniconda3/envs/parseq/lib/python3.7/site-packages/torch/nn/functional.py:2503:0
  %onnx::Add_4637 : Float(1, 1, 1536, strides=[1536, 1536, 1], device=cpu) = onnx::MatMul[onnx_name="MatMul_2742"](%onnx::MatMul_4635, %onnx::MatMul_5568) # /home/ashishpapanai/miniconda3/envs/parseq/lib/python3.7/site-packages/torch/nn/modules/linear.py:114:0
  %onnx::Div_4638 : Float(1, 1, 1536, strides=[1536, 1536, 1], requires_grad=0, device=cpu) = onnx::Add[onnx_name="Add_2743"](%decoder.layers.0.linear1.bias, %onnx::Add_4637) # /home/ashishpapanai/miniconda3/envs/parseq/lib/python3.7/site-packages/torch/nn/modules/linear.py:114:0
  %onnx::Div_4639 : Float(requires_grad=0, device=cpu) = onnx::Constant[value={1.41421}, onnx_name="Constant_2744"]() # /home/ashishpapanai/Desktop/MAVI/parseq/strhub/models/parseq/modules.py:70:0
  %onnx::Erf_4640 : Float(1, 1, 1536, strides=[1536, 1536, 1], device=cpu) = onnx::Div[onnx_name="Div_2745"](%onnx::Div_4638, %onnx::Div_4639) # /home/ashishpapanai/Desktop/MAVI/parseq/strhub/models/parseq/modules.py:70:0
  %onnx::Add_4641 : Float(1, 1, 1536, strides=[1536, 1536, 1], device=cpu) = onnx::Erf[onnx_name="Erf_2746"](%onnx::Erf_4640) # /home/ashishpapanai/Desktop/MAVI/parseq/strhub/models/parseq/modules.py:70:0
  %onnx::Add_4642 : Float(requires_grad=0, device=cpu) = onnx::Constant[value={1}, onnx_name="Constant_2747"]() # /home/ashishpapanai/Desktop/MAVI/parseq/strhub/models/parseq/modules.py:70:0
  %onnx::Mul_4643 : Float(1, 1, 1536, strides=[1536, 1536, 1], device=cpu) = onnx::Add[onnx_name="Add_2748"](%onnx::Add_4641, %onnx::Add_4642) # /home/ashishpapanai/Desktop/MAVI/parseq/strhub/models/parseq/modules.py:70:0
  %onnx::Mul_4644 : Float(1, 1, 1536, strides=[1536, 1536, 1], device=cpu) = onnx::Mul[onnx_name="Mul_2749"](%onnx::Div_4638, %onnx::Mul_4643) # /home/ashishpapanai/Desktop/MAVI/parseq/strhub/models/parseq/modules.py:70:0
  %onnx::Mul_4645 : Float(requires_grad=0, device=cpu) = onnx::Constant[value={0.5}, onnx_name="Constant_2750"]() # /home/ashishpapanai/Desktop/MAVI/parseq/strhub/models/parseq/modules.py:70:0
  %input.720 : Float(1, 1, 1536, strides=[1536, 1536, 1], requires_grad=0, device=cpu) = onnx::Mul[onnx_name="Mul_2751"](%onnx::Mul_4644, %onnx::Mul_4645) # /home/ashishpapanai/Desktop/MAVI/parseq/strhub/models/parseq/modules.py:70:0
  %onnx::Add_4648 : Float(1, 1, 384, strides=[384, 384, 1], device=cpu) = onnx::MatMul[onnx_name="MatMul_2752"](%input.720, %onnx::MatMul_5569) # /home/ashishpapanai/miniconda3/envs/parseq/lib/python3.7/site-packages/torch/nn/modules/linear.py:114:0
  %input.724 : Float(1, 1, 384, strides=[384, 384, 1], requires_grad=0, device=cpu) = onnx::Add[onnx_name="Add_2753"](%decoder.layers.0.linear2.bias, %onnx::Add_4648) # /home/ashishpapanai/miniconda3/envs/parseq/lib/python3.7/site-packages/torch/nn/modules/linear.py:114:0
  %input.728 : Float(1, 1, 384, strides=[384, 384, 1], requires_grad=0, device=cpu) = onnx::Add[onnx_name="Add_2754"](%input.716, %input.724) # /home/ashishpapanai/Desktop/MAVI/parseq/strhub/models/parseq/modules.py:71:0
  %onnx::Sub_4651 : Float(1, 1, 1, strides=[1, 1, 1], device=cpu) = onnx::ReduceMean[axes=[-1], onnx_name="ReduceMean_2755"](%input.728) # /home/ashishpapanai/miniconda3/envs/parseq/lib/python3.7/site-packages/torch/nn/functional.py:2503:0
  %onnx::Pow_4652 : Float(1, 1, 384, strides=[384, 384, 1], device=cpu) = onnx::Sub[onnx_name="Sub_2756"](%input.728, %onnx::Sub_4651) # /home/ashishpapanai/miniconda3/envs/parseq/lib/python3.7/site-packages/torch/nn/functional.py:2503:0
  %onnx::Pow_4653 : Float(requires_grad=0, device=cpu) = onnx::Constant[value={2}, onnx_name="Constant_2757"]() # /home/ashishpapanai/miniconda3/envs/parseq/lib/python3.7/site-packages/torch/nn/functional.py:2503:0
  %onnx::ReduceMean_4654 : Float(1, 1, 384, strides=[384, 384, 1], device=cpu) = onnx::Pow[onnx_name="Pow_2758"](%onnx::Pow_4652, %onnx::Pow_4653) # /home/ashishpapanai/miniconda3/envs/parseq/lib/python3.7/site-packages/torch/nn/functional.py:2503:0
  %onnx::Add_4655 : Float(1, 1, 1, strides=[1, 1, 1], device=cpu) = onnx::ReduceMean[axes=[-1], onnx_name="ReduceMean_2759"](%onnx::ReduceMean_4654) # /home/ashishpapanai/miniconda3/envs/parseq/lib/python3.7/site-packages/torch/nn/functional.py:2503:0
  %onnx::Add_4656 : Float(requires_grad=0, device=cpu) = onnx::Constant[value={1e-05}, onnx_name="Constant_2760"]() # /home/ashishpapanai/miniconda3/envs/parseq/lib/python3.7/site-packages/torch/nn/functional.py:2503:0
  %onnx::Sqrt_4657 : Float(1, 1, 1, strides=[1, 1, 1], device=cpu) = onnx::Add[onnx_name="Add_2761"](%onnx::Add_4655, %onnx::Add_4656) # /home/ashishpapanai/miniconda3/envs/parseq/lib/python3.7/site-packages/torch/nn/functional.py:2503:0
  %onnx::Div_4658 : Float(1, 1, 1, strides=[1, 1, 1], device=cpu) = onnx::Sqrt[onnx_name="Sqrt_2762"](%onnx::Sqrt_4657) # /home/ashishpapanai/miniconda3/envs/parseq/lib/python3.7/site-packages/torch/nn/functional.py:2503:0
  %onnx::Mul_4659 : Float(1, 1, 384, strides=[384, 384, 1], device=cpu) = onnx::Div[onnx_name="Div_2763"](%onnx::Pow_4652, %onnx::Div_4658) # /home/ashishpapanai/miniconda3/envs/parseq/lib/python3.7/site-packages/torch/nn/functional.py:2503:0
  %onnx::Add_4660 : Float(1, 1, 384, strides=[384, 384, 1], device=cpu) = onnx::Mul[onnx_name="Mul_2764"](%onnx::Mul_4659, %decoder.norm.weight) # /home/ashishpapanai/miniconda3/envs/parseq/lib/python3.7/site-packages/torch/nn/functional.py:2503:0
  %onnx::MatMul_4661 : Float(1, 1, 384, strides=[384, 384, 1], requires_grad=0, device=cpu) = onnx::Add[onnx_name="Add_2765"](%onnx::Add_4660, %decoder.norm.bias) # /home/ashishpapanai/miniconda3/envs/parseq/lib/python3.7/site-packages/torch/nn/functional.py:2503:0
  %onnx::Add_4663 : Float(1, 1, 95, strides=[95, 95, 1], device=cpu) = onnx::MatMul[onnx_name="MatMul_2766"](%onnx::MatMul_4661, %onnx::MatMul_5570) # /home/ashishpapanai/miniconda3/envs/parseq/lib/python3.7/site-packages/torch/nn/modules/linear.py:114:0
  %onnx::Concat_4664 : Float(1, 1, 95, strides=[95, 95, 1], requires_grad=0, device=cpu) = onnx::Add[onnx_name="Add_2767"](%head.bias, %onnx::Add_4663) # /home/ashishpapanai/miniconda3/envs/parseq/lib/python3.7/site-packages/torch/nn/modules/linear.py:114:0
  %output : Float(1, 10, 95, strides=[950, 95, 1], requires_grad=0, device=cpu) = onnx::Concat[axis=1, onnx_name="Concat_2768"](%onnx::ArgMax_1594, %onnx::ArgMax_1928, %onnx::ArgMax_2270, %onnx::ArgMax_2612, %onnx::ArgMax_2954, %onnx::ArgMax_3296, %onnx::ArgMax_3638, %onnx::ArgMax_3980, %onnx::ArgMax_4322, %onnx::Concat_4664) # /home/ashishpapanai/Desktop/MAVI/parseq/strhub/models/parseq/system.py:145:0
  return (%output)

Additional keyword arguments: {}
Convert to onnx successfully!
demo_images/art-01107.jpg: CHEWBACCA
